{"format": "layers-model", "generatedBy": "keras v2.12.0", "convertedBy": "TensorFlow.js Converter v4.21.0", "modelTopology": {"keras_version": "2.12.0", "backend": "tensorflow", "model_config": {"class_name": "Functional", "config": {"name": "ghostnetv2_100", "trainable": true, "layers": [{"class_name": "InputLayer", "config": {"batch_input_shape": [null, 224, 224, 3], "dtype": "float32", "sparse": false, "ragged": false, "name": "input_1"}, "name": "input_1", "inbound_nodes": []}, {"class_name": "ZeroPadding2D", "config": {"name": "stem_pad", "trainable": true, "dtype": "float32", "padding": [[1, 1], [1, 1]], "data_format": "channels_last"}, "name": "stem_pad", "inbound_nodes": [[["input_1", 0, 0, {}]]]}, {"class_name": "Conv2D", "config": {"name": "stem_conv", "trainable": true, "dtype": "float32", "filters": 16, "kernel_size": [3, 3], "strides": [2, 2], "padding": "valid", "data_format": "channels_last", "dilation_rate": [1, 1], "groups": 1, "activation": "linear", "use_bias": false, "kernel_initializer": {"class_name": "GlorotUniform", "config": {"seed": null}}, "bias_initializer": {"class_name": "Zeros", "config": {}}, "kernel_regularizer": null, "bias_regularizer": null, "activity_regularizer": null, "kernel_constraint": null, "bias_constraint": null}, "name": "stem_conv", "inbound_nodes": [[["stem_pad", 0, 0, {}]]]}, {"class_name": "BatchNormalization", "config": {"name": "stem_bn", "trainable": true, "dtype": "float32", "axis": [3], "momentum": 0.9, "epsilon": 1e-05, "center": true, "scale": true, "beta_initializer": {"class_name": "Zeros", "config": {}}, "gamma_initializer": {"class_name": "Ones", "config": {}}, "moving_mean_initializer": {"class_name": "Zeros", "config": {}}, "moving_variance_initializer": {"class_name": "Ones", "config": {}}, "beta_regularizer": null, "gamma_regularizer": null, "beta_constraint": null, "gamma_constraint": null}, "name": "stem_bn", "inbound_nodes": [[["stem_conv", 0, 0, {}]]]}, {"class_name": "Activation", "config": {"name": "stem_relu", "trainable": true, "dtype": "float32", "activation": "relu"}, "name": "stem_relu", "inbound_nodes": [[["stem_bn", 0, 0, {}]]]}, {"class_name": "Conv2D", "config": {"name": "stack1_ghost_1_prim_conv", "trainable": true, "dtype": "float32", "filters": 8, "kernel_size": [1, 1], "strides": [1, 1], "padding": "valid", "data_format": "channels_last", "dilation_rate": [1, 1], "groups": 1, "activation": "linear", "use_bias": false, "kernel_initializer": {"class_name": "GlorotUniform", "config": {"seed": null}}, "bias_initializer": {"class_name": "Zeros", "config": {}}, "kernel_regularizer": null, "bias_regularizer": null, "activity_regularizer": null, "kernel_constraint": null, "bias_constraint": null}, "name": "stack1_ghost_1_prim_conv", "inbound_nodes": [[["stem_relu", 0, 0, {}]]]}, {"class_name": "BatchNormalization", "config": {"name": "stack1_ghost_1_prim_bn", "trainable": true, "dtype": "float32", "axis": [3], "momentum": 0.9, "epsilon": 1e-05, "center": true, "scale": true, "beta_initializer": {"class_name": "Zeros", "config": {}}, "gamma_initializer": {"class_name": "Ones", "config": {}}, "moving_mean_initializer": {"class_name": "Zeros", "config": {}}, "moving_variance_initializer": {"class_name": "Ones", "config": {}}, "beta_regularizer": null, "gamma_regularizer": null, "beta_constraint": null, "gamma_constraint": null}, "name": "stack1_ghost_1_prim_bn", "inbound_nodes": [[["stack1_ghost_1_prim_conv", 0, 0, {}]]]}, {"class_name": "Activation", "config": {"name": "stack1_ghost_1_prim_relu", "trainable": true, "dtype": "float32", "activation": "relu"}, "name": "stack1_ghost_1_prim_relu", "inbound_nodes": [[["stack1_ghost_1_prim_bn", 0, 0, {}]]]}, {"class_name": "ZeroPadding2D", "config": {"name": "stack1_ghost_1_cheap_pad", "trainable": true, "dtype": "float32", "padding": [[1, 1], [1, 1]], "data_format": "channels_last"}, "name": "stack1_ghost_1_cheap_pad", "inbound_nodes": [[["stack1_ghost_1_prim_relu", 0, 0, {}]]]}, {"class_name": "DepthwiseConv2D", "config": {"name": "stack1_ghost_1_cheap_dw_conv", "trainable": true, "dtype": "float32", "kernel_size": [3, 3], "strides": [1, 1], "padding": "valid", "data_format": "channels_last", "dilation_rate": [1, 1], "groups": 1, "activation": "linear", "use_bias": false, "bias_initializer": {"class_name": "Zeros", "config": {}}, "bias_regularizer": null, "activity_regularizer": null, "bias_constraint": null, "depth_multiplier": 1, "depthwise_initializer": {"class_name": "GlorotUniform", "config": {"seed": null}}, "depthwise_regularizer": null, "depthwise_constraint": null}, "name": "stack1_ghost_1_cheap_dw_conv", "inbound_nodes": [[["stack1_ghost_1_cheap_pad", 0, 0, {}]]]}, {"class_name": "BatchNormalization", "config": {"name": "stack1_ghost_1_cheap_bn", "trainable": true, "dtype": "float32", "axis": [3], "momentum": 0.9, "epsilon": 1e-05, "center": true, "scale": true, "beta_initializer": {"class_name": "Zeros", "config": {}}, "gamma_initializer": {"class_name": "Ones", "config": {}}, "moving_mean_initializer": {"class_name": "Zeros", "config": {}}, "moving_variance_initializer": {"class_name": "Ones", "config": {}}, "beta_regularizer": null, "gamma_regularizer": null, "beta_constraint": null, "gamma_constraint": null}, "name": "stack1_ghost_1_cheap_bn", "inbound_nodes": [[["stack1_ghost_1_cheap_dw_conv", 0, 0, {}]]]}, {"class_name": "Activation", "config": {"name": "stack1_ghost_1_cheap_relu", "trainable": true, "dtype": "float32", "activation": "relu"}, "name": "stack1_ghost_1_cheap_relu", "inbound_nodes": [[["stack1_ghost_1_cheap_bn", 0, 0, {}]]]}, {"class_name": "Concatenate", "config": {"name": "concatenate", "trainable": true, "dtype": "float32", "axis": -1}, "name": "concatenate", "inbound_nodes": [[["stack1_ghost_1_prim_relu", 0, 0, {}], ["stack1_ghost_1_cheap_relu", 0, 0, {}]]]}, {"class_name": "Conv2D", "config": {"name": "stack1_ghost_2_prim_conv", "trainable": true, "dtype": "float32", "filters": 8, "kernel_size": [1, 1], "strides": [1, 1], "padding": "valid", "data_format": "channels_last", "dilation_rate": [1, 1], "groups": 1, "activation": "linear", "use_bias": false, "kernel_initializer": {"class_name": "GlorotUniform", "config": {"seed": null}}, "bias_initializer": {"class_name": "Zeros", "config": {}}, "kernel_regularizer": null, "bias_regularizer": null, "activity_regularizer": null, "kernel_constraint": null, "bias_constraint": null}, "name": "stack1_ghost_2_prim_conv", "inbound_nodes": [[["concatenate", 0, 0, {}]]]}, {"class_name": "BatchNormalization", "config": {"name": "stack1_ghost_2_prim_bn", "trainable": true, "dtype": "float32", "axis": [3], "momentum": 0.9, "epsilon": 1e-05, "center": true, "scale": true, "beta_initializer": {"class_name": "Zeros", "config": {}}, "gamma_initializer": {"class_name": "Ones", "config": {}}, "moving_mean_initializer": {"class_name": "Zeros", "config": {}}, "moving_variance_initializer": {"class_name": "Ones", "config": {}}, "beta_regularizer": null, "gamma_regularizer": null, "beta_constraint": null, "gamma_constraint": null}, "name": "stack1_ghost_2_prim_bn", "inbound_nodes": [[["stack1_ghost_2_prim_conv", 0, 0, {}]]]}, {"class_name": "ZeroPadding2D", "config": {"name": "stack1_ghost_2_cheap_pad", "trainable": true, "dtype": "float32", "padding": [[1, 1], [1, 1]], "data_format": "channels_last"}, "name": "stack1_ghost_2_cheap_pad", "inbound_nodes": [[["stack1_ghost_2_prim_bn", 0, 0, {}]]]}, {"class_name": "DepthwiseConv2D", "config": {"name": "stack1_ghost_2_cheap_dw_conv", "trainable": true, "dtype": "float32", "kernel_size": [3, 3], "strides": [1, 1], "padding": "valid", "data_format": "channels_last", "dilation_rate": [1, 1], "groups": 1, "activation": "linear", "use_bias": false, "bias_initializer": {"class_name": "Zeros", "config": {}}, "bias_regularizer": null, "activity_regularizer": null, "bias_constraint": null, "depth_multiplier": 1, "depthwise_initializer": {"class_name": "GlorotUniform", "config": {"seed": null}}, "depthwise_regularizer": null, "depthwise_constraint": null}, "name": "stack1_ghost_2_cheap_dw_conv", "inbound_nodes": [[["stack1_ghost_2_cheap_pad", 0, 0, {}]]]}, {"class_name": "BatchNormalization", "config": {"name": "stack1_ghost_2_cheap_bn", "trainable": true, "dtype": "float32", "axis": [3], "momentum": 0.9, "epsilon": 1e-05, "center": true, "scale": true, "beta_initializer": {"class_name": "Zeros", "config": {}}, "gamma_initializer": {"class_name": "Ones", "config": {}}, "moving_mean_initializer": {"class_name": "Zeros", "config": {}}, "moving_variance_initializer": {"class_name": "Ones", "config": {}}, "beta_regularizer": null, "gamma_regularizer": null, "beta_constraint": null, "gamma_constraint": null}, "name": "stack1_ghost_2_cheap_bn", "inbound_nodes": [[["stack1_ghost_2_cheap_dw_conv", 0, 0, {}]]]}, {"class_name": "Concatenate", "config": {"name": "concatenate_1", "trainable": true, "dtype": "float32", "axis": -1}, "name": "concatenate_1", "inbound_nodes": [[["stack1_ghost_2_prim_bn", 0, 0, {}], ["stack1_ghost_2_cheap_bn", 0, 0, {}]]]}, {"class_name": "Add", "config": {"name": "stack1_output", "trainable": true, "dtype": "float32"}, "name": "stack1_output", "inbound_nodes": [[["stem_relu", 0, 0, {}], ["concatenate_1", 0, 0, {}]]]}, {"class_name": "Conv2D", "config": {"name": "stack2_ghost_1_prim_conv", "trainable": true, "dtype": "float32", "filters": 24, "kernel_size": [1, 1], "strides": [1, 1], "padding": "valid", "data_format": "channels_last", "dilation_rate": [1, 1], "groups": 1, "activation": "linear", "use_bias": false, "kernel_initializer": {"class_name": "GlorotUniform", "config": {"seed": null}}, "bias_initializer": {"class_name": "Zeros", "config": {}}, "kernel_regularizer": null, "bias_regularizer": null, "activity_regularizer": null, "kernel_constraint": null, "bias_constraint": null}, "name": "stack2_ghost_1_prim_conv", "inbound_nodes": [[["stack1_output", 0, 0, {}]]]}, {"class_name": "BatchNormalization", "config": {"name": "stack2_ghost_1_prim_bn", "trainable": true, "dtype": "float32", "axis": [3], "momentum": 0.9, "epsilon": 1e-05, "center": true, "scale": true, "beta_initializer": {"class_name": "Zeros", "config": {}}, "gamma_initializer": {"class_name": "Ones", "config": {}}, "moving_mean_initializer": {"class_name": "Zeros", "config": {}}, "moving_variance_initializer": {"class_name": "Ones", "config": {}}, "beta_regularizer": null, "gamma_regularizer": null, "beta_constraint": null, "gamma_constraint": null}, "name": "stack2_ghost_1_prim_bn", "inbound_nodes": [[["stack2_ghost_1_prim_conv", 0, 0, {}]]]}, {"class_name": "Activation", "config": {"name": "stack2_ghost_1_prim_relu", "trainable": true, "dtype": "float32", "activation": "relu"}, "name": "stack2_ghost_1_prim_relu", "inbound_nodes": [[["stack2_ghost_1_prim_bn", 0, 0, {}]]]}, {"class_name": "ZeroPadding2D", "config": {"name": "stack2_ghost_1_cheap_pad", "trainable": true, "dtype": "float32", "padding": [[1, 1], [1, 1]], "data_format": "channels_last"}, "name": "stack2_ghost_1_cheap_pad", "inbound_nodes": [[["stack2_ghost_1_prim_relu", 0, 0, {}]]]}, {"class_name": "DepthwiseConv2D", "config": {"name": "stack2_ghost_1_cheap_dw_conv", "trainable": true, "dtype": "float32", "kernel_size": [3, 3], "strides": [1, 1], "padding": "valid", "data_format": "channels_last", "dilation_rate": [1, 1], "groups": 1, "activation": "linear", "use_bias": false, "bias_initializer": {"class_name": "Zeros", "config": {}}, "bias_regularizer": null, "activity_regularizer": null, "bias_constraint": null, "depth_multiplier": 1, "depthwise_initializer": {"class_name": "GlorotUniform", "config": {"seed": null}}, "depthwise_regularizer": null, "depthwise_constraint": null}, "name": "stack2_ghost_1_cheap_dw_conv", "inbound_nodes": [[["stack2_ghost_1_cheap_pad", 0, 0, {}]]]}, {"class_name": "BatchNormalization", "config": {"name": "stack2_ghost_1_cheap_bn", "trainable": true, "dtype": "float32", "axis": [3], "momentum": 0.9, "epsilon": 1e-05, "center": true, "scale": true, "beta_initializer": {"class_name": "Zeros", "config": {}}, "gamma_initializer": {"class_name": "Ones", "config": {}}, "moving_mean_initializer": {"class_name": "Zeros", "config": {}}, "moving_variance_initializer": {"class_name": "Ones", "config": {}}, "beta_regularizer": null, "gamma_regularizer": null, "beta_constraint": null, "gamma_constraint": null}, "name": "stack2_ghost_1_cheap_bn", "inbound_nodes": [[["stack2_ghost_1_cheap_dw_conv", 0, 0, {}]]]}, {"class_name": "Activation", "config": {"name": "stack2_ghost_1_cheap_relu", "trainable": true, "dtype": "float32", "activation": "relu"}, "name": "stack2_ghost_1_cheap_relu", "inbound_nodes": [[["stack2_ghost_1_cheap_bn", 0, 0, {}]]]}, {"class_name": "Concatenate", "config": {"name": "concatenate_2", "trainable": true, "dtype": "float32", "axis": -1}, "name": "concatenate_2", "inbound_nodes": [[["stack2_ghost_1_prim_relu", 0, 0, {}], ["stack2_ghost_1_cheap_relu", 0, 0, {}]]]}, {"class_name": "ZeroPadding2D", "config": {"name": "stack2_down_pad", "trainable": true, "dtype": "float32", "padding": [[1, 1], [1, 1]], "data_format": "channels_last"}, "name": "stack2_down_pad", "inbound_nodes": [[["concatenate_2", 0, 0, {}]]]}, {"class_name": "DepthwiseConv2D", "config": {"name": "stack2_down_dw_conv", "trainable": true, "dtype": "float32", "kernel_size": [3, 3], "strides": [2, 2], "padding": "valid", "data_format": "channels_last", "dilation_rate": [1, 1], "groups": 1, "activation": "linear", "use_bias": false, "bias_initializer": {"class_name": "Zeros", "config": {}}, "bias_regularizer": null, "activity_regularizer": null, "bias_constraint": null, "depth_multiplier": 1, "depthwise_initializer": {"class_name": "GlorotUniform", "config": {"seed": null}}, "depthwise_regularizer": null, "depthwise_constraint": null}, "name": "stack2_down_dw_conv", "inbound_nodes": [[["stack2_down_pad", 0, 0, {}]]]}, {"class_name": "BatchNormalization", "config": {"name": "stack2_down_bn", "trainable": true, "dtype": "float32", "axis": [3], "momentum": 0.9, "epsilon": 1e-05, "center": true, "scale": true, "beta_initializer": {"class_name": "Zeros", "config": {}}, "gamma_initializer": {"class_name": "Ones", "config": {}}, "moving_mean_initializer": {"class_name": "Zeros", "config": {}}, "moving_variance_initializer": {"class_name": "Ones", "config": {}}, "beta_regularizer": null, "gamma_regularizer": null, "beta_constraint": null, "gamma_constraint": null}, "name": "stack2_down_bn", "inbound_nodes": [[["stack2_down_dw_conv", 0, 0, {}]]]}, {"class_name": "Conv2D", "config": {"name": "stack2_ghost_2_prim_conv", "trainable": true, "dtype": "float32", "filters": 12, "kernel_size": [1, 1], "strides": [1, 1], "padding": "valid", "data_format": "channels_last", "dilation_rate": [1, 1], "groups": 1, "activation": "linear", "use_bias": false, "kernel_initializer": {"class_name": "GlorotUniform", "config": {"seed": null}}, "bias_initializer": {"class_name": "Zeros", "config": {}}, "kernel_regularizer": null, "bias_regularizer": null, "activity_regularizer": null, "kernel_constraint": null, "bias_constraint": null}, "name": "stack2_ghost_2_prim_conv", "inbound_nodes": [[["stack2_down_bn", 0, 0, {}]]]}, {"class_name": "ZeroPadding2D", "config": {"name": "stack2_short_1_pad", "trainable": true, "dtype": "float32", "padding": [[1, 1], [1, 1]], "data_format": "channels_last"}, "name": "stack2_short_1_pad", "inbound_nodes": [[["stack1_output", 0, 0, {}]]]}, {"class_name": "BatchNormalization", "config": {"name": "stack2_ghost_2_prim_bn", "trainable": true, "dtype": "float32", "axis": [3], "momentum": 0.9, "epsilon": 1e-05, "center": true, "scale": true, "beta_initializer": {"class_name": "Zeros", "config": {}}, "gamma_initializer": {"class_name": "Ones", "config": {}}, "moving_mean_initializer": {"class_name": "Zeros", "config": {}}, "moving_variance_initializer": {"class_name": "Ones", "config": {}}, "beta_regularizer": null, "gamma_regularizer": null, "beta_constraint": null, "gamma_constraint": null}, "name": "stack2_ghost_2_prim_bn", "inbound_nodes": [[["stack2_ghost_2_prim_conv", 0, 0, {}]]]}, {"class_name": "DepthwiseConv2D", "config": {"name": "stack2_short_1_dw_conv", "trainable": true, "dtype": "float32", "kernel_size": [3, 3], "strides": [2, 2], "padding": "valid", "data_format": "channels_last", "dilation_rate": [1, 1], "groups": 1, "activation": "linear", "use_bias": false, "bias_initializer": {"class_name": "Zeros", "config": {}}, "bias_regularizer": null, "activity_regularizer": null, "bias_constraint": null, "depth_multiplier": 1, "depthwise_initializer": {"class_name": "GlorotUniform", "config": {"seed": null}}, "depthwise_regularizer": null, "depthwise_constraint": null}, "name": "stack2_short_1_dw_conv", "inbound_nodes": [[["stack2_short_1_pad", 0, 0, {}]]]}, {"class_name": "ZeroPadding2D", "config": {"name": "stack2_ghost_2_cheap_pad", "trainable": true, "dtype": "float32", "padding": [[1, 1], [1, 1]], "data_format": "channels_last"}, "name": "stack2_ghost_2_cheap_pad", "inbound_nodes": [[["stack2_ghost_2_prim_bn", 0, 0, {}]]]}, {"class_name": "BatchNormalization", "config": {"name": "stack2_short_1_bn", "trainable": true, "dtype": "float32", "axis": [3], "momentum": 0.9, "epsilon": 1e-05, "center": true, "scale": true, "beta_initializer": {"class_name": "Zeros", "config": {}}, "gamma_initializer": {"class_name": "Ones", "config": {}}, "moving_mean_initializer": {"class_name": "Zeros", "config": {}}, "moving_variance_initializer": {"class_name": "Ones", "config": {}}, "beta_regularizer": null, "gamma_regularizer": null, "beta_constraint": null, "gamma_constraint": null}, "name": "stack2_short_1_bn", "inbound_nodes": [[["stack2_short_1_dw_conv", 0, 0, {}]]]}, {"class_name": "DepthwiseConv2D", "config": {"name": "stack2_ghost_2_cheap_dw_conv", "trainable": true, "dtype": "float32", "kernel_size": [3, 3], "strides": [1, 1], "padding": "valid", "data_format": "channels_last", "dilation_rate": [1, 1], "groups": 1, "activation": "linear", "use_bias": false, "bias_initializer": {"class_name": "Zeros", "config": {}}, "bias_regularizer": null, "activity_regularizer": null, "bias_constraint": null, "depth_multiplier": 1, "depthwise_initializer": {"class_name": "GlorotUniform", "config": {"seed": null}}, "depthwise_regularizer": null, "depthwise_constraint": null}, "name": "stack2_ghost_2_cheap_dw_conv", "inbound_nodes": [[["stack2_ghost_2_cheap_pad", 0, 0, {}]]]}, {"class_name": "Conv2D", "config": {"name": "stack2_short_2_conv", "trainable": true, "dtype": "float32", "filters": 24, "kernel_size": [1, 1], "strides": [1, 1], "padding": "valid", "data_format": "channels_last", "dilation_rate": [1, 1], "groups": 1, "activation": "linear", "use_bias": false, "kernel_initializer": {"class_name": "GlorotUniform", "config": {"seed": null}}, "bias_initializer": {"class_name": "Zeros", "config": {}}, "kernel_regularizer": null, "bias_regularizer": null, "activity_regularizer": null, "kernel_constraint": null, "bias_constraint": null}, "name": "stack2_short_2_conv", "inbound_nodes": [[["stack2_short_1_bn", 0, 0, {}]]]}, {"class_name": "BatchNormalization", "config": {"name": "stack2_ghost_2_cheap_bn", "trainable": true, "dtype": "float32", "axis": [3], "momentum": 0.9, "epsilon": 1e-05, "center": true, "scale": true, "beta_initializer": {"class_name": "Zeros", "config": {}}, "gamma_initializer": {"class_name": "Ones", "config": {}}, "moving_mean_initializer": {"class_name": "Zeros", "config": {}}, "moving_variance_initializer": {"class_name": "Ones", "config": {}}, "beta_regularizer": null, "gamma_regularizer": null, "beta_constraint": null, "gamma_constraint": null}, "name": "stack2_ghost_2_cheap_bn", "inbound_nodes": [[["stack2_ghost_2_cheap_dw_conv", 0, 0, {}]]]}, {"class_name": "BatchNormalization", "config": {"name": "stack2_short_2_bn", "trainable": true, "dtype": "float32", "axis": [3], "momentum": 0.9, "epsilon": 1e-05, "center": true, "scale": true, "beta_initializer": {"class_name": "Zeros", "config": {}}, "gamma_initializer": {"class_name": "Ones", "config": {}}, "moving_mean_initializer": {"class_name": "Zeros", "config": {}}, "moving_variance_initializer": {"class_name": "Ones", "config": {}}, "beta_regularizer": null, "gamma_regularizer": null, "beta_constraint": null, "gamma_constraint": null}, "name": "stack2_short_2_bn", "inbound_nodes": [[["stack2_short_2_conv", 0, 0, {}]]]}, {"class_name": "Concatenate", "config": {"name": "concatenate_3", "trainable": true, "dtype": "float32", "axis": -1}, "name": "concatenate_3", "inbound_nodes": [[["stack2_ghost_2_prim_bn", 0, 0, {}], ["stack2_ghost_2_cheap_bn", 0, 0, {}]]]}, {"class_name": "Add", "config": {"name": "stack2_output", "trainable": true, "dtype": "float32"}, "name": "stack2_output", "inbound_nodes": [[["stack2_short_2_bn", 0, 0, {}], ["concatenate_3", 0, 0, {}]]]}, {"class_name": "AveragePooling2D", "config": {"name": "average_pooling2d", "trainable": true, "dtype": "float32", "pool_size": [2, 2], "padding": "valid", "strides": [2, 2], "data_format": "channels_last"}, "name": "average_pooling2d", "inbound_nodes": [[["stack2_output", 0, 0, {}]]]}, {"class_name": "Conv2D", "config": {"name": "stack3_ghost_1_short_1_conv", "trainable": true, "dtype": "float32", "filters": 72, "kernel_size": [1, 1], "strides": [1, 1], "padding": "valid", "data_format": "channels_last", "dilation_rate": [1, 1], "groups": 1, "activation": "linear", "use_bias": false, "kernel_initializer": {"class_name": "GlorotUniform", "config": {"seed": null}}, "bias_initializer": {"class_name": "Zeros", "config": {}}, "kernel_regularizer": null, "bias_regularizer": null, "activity_regularizer": null, "kernel_constraint": null, "bias_constraint": null}, "name": "stack3_ghost_1_short_1_conv", "inbound_nodes": [[["average_pooling2d", 0, 0, {}]]]}, {"class_name": "BatchNormalization", "config": {"name": "stack3_ghost_1_short_1_bn", "trainable": true, "dtype": "float32", "axis": [3], "momentum": 0.9, "epsilon": 1e-05, "center": true, "scale": true, "beta_initializer": {"class_name": "Zeros", "config": {}}, "gamma_initializer": {"class_name": "Ones", "config": {}}, "moving_mean_initializer": {"class_name": "Zeros", "config": {}}, "moving_variance_initializer": {"class_name": "Ones", "config": {}}, "beta_regularizer": null, "gamma_regularizer": null, "beta_constraint": null, "gamma_constraint": null}, "name": "stack3_ghost_1_short_1_bn", "inbound_nodes": [[["stack3_ghost_1_short_1_conv", 0, 0, {}]]]}, {"class_name": "ZeroPadding2D", "config": {"name": "stack3_ghost_1_short_2_pad", "trainable": true, "dtype": "float32", "padding": [[0, 0], [2, 2]], "data_format": "channels_last"}, "name": "stack3_ghost_1_short_2_pad", "inbound_nodes": [[["stack3_ghost_1_short_1_bn", 0, 0, {}]]]}, {"class_name": "Conv2D", "config": {"name": "stack3_ghost_1_prim_conv", "trainable": true, "dtype": "float32", "filters": 36, "kernel_size": [1, 1], "strides": [1, 1], "padding": "valid", "data_format": "channels_last", "dilation_rate": [1, 1], "groups": 1, "activation": "linear", "use_bias": false, "kernel_initializer": {"class_name": "GlorotUniform", "config": {"seed": null}}, "bias_initializer": {"class_name": "Zeros", "config": {}}, "kernel_regularizer": null, "bias_regularizer": null, "activity_regularizer": null, "kernel_constraint": null, "bias_constraint": null}, "name": "stack3_ghost_1_prim_conv", "inbound_nodes": [[["stack2_output", 0, 0, {}]]]}, {"class_name": "DepthwiseConv2D", "config": {"name": "stack3_ghost_1_short_2_dw_conv", "trainable": true, "dtype": "float32", "kernel_size": [1, 5], "strides": [1, 1], "padding": "valid", "data_format": "channels_last", "dilation_rate": [1, 1], "groups": 1, "activation": "linear", "use_bias": false, "bias_initializer": {"class_name": "Zeros", "config": {}}, "bias_regularizer": null, "activity_regularizer": null, "bias_constraint": null, "depth_multiplier": 1, "depthwise_initializer": {"class_name": "GlorotUniform", "config": {"seed": null}}, "depthwise_regularizer": null, "depthwise_constraint": null}, "name": "stack3_ghost_1_short_2_dw_conv", "inbound_nodes": [[["stack3_ghost_1_short_2_pad", 0, 0, {}]]]}, {"class_name": "BatchNormalization", "config": {"name": "stack3_ghost_1_prim_bn", "trainable": true, "dtype": "float32", "axis": [3], "momentum": 0.9, "epsilon": 1e-05, "center": true, "scale": true, "beta_initializer": {"class_name": "Zeros", "config": {}}, "gamma_initializer": {"class_name": "Ones", "config": {}}, "moving_mean_initializer": {"class_name": "Zeros", "config": {}}, "moving_variance_initializer": {"class_name": "Ones", "config": {}}, "beta_regularizer": null, "gamma_regularizer": null, "beta_constraint": null, "gamma_constraint": null}, "name": "stack3_ghost_1_prim_bn", "inbound_nodes": [[["stack3_ghost_1_prim_conv", 0, 0, {}]]]}, {"class_name": "BatchNormalization", "config": {"name": "stack3_ghost_1_short_2_bn", "trainable": true, "dtype": "float32", "axis": [3], "momentum": 0.9, "epsilon": 1e-05, "center": true, "scale": true, "beta_initializer": {"class_name": "Zeros", "config": {}}, "gamma_initializer": {"class_name": "Ones", "config": {}}, "moving_mean_initializer": {"class_name": "Zeros", "config": {}}, "moving_variance_initializer": {"class_name": "Ones", "config": {}}, "beta_regularizer": null, "gamma_regularizer": null, "beta_constraint": null, "gamma_constraint": null}, "name": "stack3_ghost_1_short_2_bn", "inbound_nodes": [[["stack3_ghost_1_short_2_dw_conv", 0, 0, {}]]]}, {"class_name": "Activation", "config": {"name": "stack3_ghost_1_prim_relu", "trainable": true, "dtype": "float32", "activation": "relu"}, "name": "stack3_ghost_1_prim_relu", "inbound_nodes": [[["stack3_ghost_1_prim_bn", 0, 0, {}]]]}, {"class_name": "ZeroPadding2D", "config": {"name": "stack3_ghost_1_short_3_pad", "trainable": true, "dtype": "float32", "padding": [[2, 2], [0, 0]], "data_format": "channels_last"}, "name": "stack3_ghost_1_short_3_pad", "inbound_nodes": [[["stack3_ghost_1_short_2_bn", 0, 0, {}]]]}, {"class_name": "ZeroPadding2D", "config": {"name": "stack3_ghost_1_cheap_pad", "trainable": true, "dtype": "float32", "padding": [[1, 1], [1, 1]], "data_format": "channels_last"}, "name": "stack3_ghost_1_cheap_pad", "inbound_nodes": [[["stack3_ghost_1_prim_relu", 0, 0, {}]]]}, {"class_name": "DepthwiseConv2D", "config": {"name": "stack3_ghost_1_short_3_dw_conv", "trainable": true, "dtype": "float32", "kernel_size": [5, 1], "strides": [1, 1], "padding": "valid", "data_format": "channels_last", "dilation_rate": [1, 1], "groups": 1, "activation": "linear", "use_bias": false, "bias_initializer": {"class_name": "Zeros", "config": {}}, "bias_regularizer": null, "activity_regularizer": null, "bias_constraint": null, "depth_multiplier": 1, "depthwise_initializer": {"class_name": "GlorotUniform", "config": {"seed": null}}, "depthwise_regularizer": null, "depthwise_constraint": null}, "name": "stack3_ghost_1_short_3_dw_conv", "inbound_nodes": [[["stack3_ghost_1_short_3_pad", 0, 0, {}]]]}, {"class_name": "DepthwiseConv2D", "config": {"name": "stack3_ghost_1_cheap_dw_conv", "trainable": true, "dtype": "float32", "kernel_size": [3, 3], "strides": [1, 1], "padding": "valid", "data_format": "channels_last", "dilation_rate": [1, 1], "groups": 1, "activation": "linear", "use_bias": false, "bias_initializer": {"class_name": "Zeros", "config": {}}, "bias_regularizer": null, "activity_regularizer": null, "bias_constraint": null, "depth_multiplier": 1, "depthwise_initializer": {"class_name": "GlorotUniform", "config": {"seed": null}}, "depthwise_regularizer": null, "depthwise_constraint": null}, "name": "stack3_ghost_1_cheap_dw_conv", "inbound_nodes": [[["stack3_ghost_1_cheap_pad", 0, 0, {}]]]}, {"class_name": "BatchNormalization", "config": {"name": "stack3_ghost_1_short_3_bn", "trainable": true, "dtype": "float32", "axis": [3], "momentum": 0.9, "epsilon": 1e-05, "center": true, "scale": true, "beta_initializer": {"class_name": "Zeros", "config": {}}, "gamma_initializer": {"class_name": "Ones", "config": {}}, "moving_mean_initializer": {"class_name": "Zeros", "config": {}}, "moving_variance_initializer": {"class_name": "Ones", "config": {}}, "beta_regularizer": null, "gamma_regularizer": null, "beta_constraint": null, "gamma_constraint": null}, "name": "stack3_ghost_1_short_3_bn", "inbound_nodes": [[["stack3_ghost_1_short_3_dw_conv", 0, 0, {}]]]}, {"class_name": "TFOpLambda", "config": {"name": "tf.compat.v1.shape", "trainable": true, "dtype": "float32", "function": "compat.v1.shape"}, "name": "tf.compat.v1.shape", "inbound_nodes": [["stack2_output", 0, 0, {"name": null, "out_type": "int32"}]]}, {"class_name": "BatchNormalization", "config": {"name": "stack3_ghost_1_cheap_bn", "trainable": true, "dtype": "float32", "axis": [3], "momentum": 0.9, "epsilon": 1e-05, "center": true, "scale": true, "beta_initializer": {"class_name": "Zeros", "config": {}}, "gamma_initializer": {"class_name": "Ones", "config": {}}, "moving_mean_initializer": {"class_name": "Zeros", "config": {}}, "moving_variance_initializer": {"class_name": "Ones", "config": {}}, "beta_regularizer": null, "gamma_regularizer": null, "beta_constraint": null, "gamma_constraint": null}, "name": "stack3_ghost_1_cheap_bn", "inbound_nodes": [[["stack3_ghost_1_cheap_dw_conv", 0, 0, {}]]]}, {"class_name": "Activation", "config": {"name": "stack3_ghost_1_short_sigmoid", "trainable": true, "dtype": "float32", "activation": "sigmoid"}, "name": "stack3_ghost_1_short_sigmoid", "inbound_nodes": [[["stack3_ghost_1_short_3_bn", 0, 0, {}]]]}, {"class_name": "SlicingOpLambda", "config": {"name": "tf.__operators__.getitem", "trainable": true, "dtype": "float32", "function": "__operators__.getitem"}, "name": "tf.__operators__.getitem", "inbound_nodes": [["tf.compat.v1.shape", 0, 0, {"slice_spec": {"start": 1, "stop": -1, "step": null}}]]}, {"class_name": "Activation", "config": {"name": "stack3_ghost_1_cheap_relu", "trainable": true, "dtype": "float32", "activation": "relu"}, "name": "stack3_ghost_1_cheap_relu", "inbound_nodes": [[["stack3_ghost_1_cheap_bn", 0, 0, {}]]]}, {"class_name": "TFOpLambda", "config": {"name": "tf.image.resize", "trainable": true, "dtype": "float32", "function": "image.resize"}, "name": "tf.image.resize", "inbound_nodes": [["stack3_ghost_1_short_sigmoid", 0, 0, {"size": ["tf.__operators__.getitem", 0, 0], "antialias": false, "method": "nearest"}]]}, {"class_name": "Concatenate", "config": {"name": "concatenate_4", "trainable": true, "dtype": "float32", "axis": -1}, "name": "concatenate_4", "inbound_nodes": [[["stack3_ghost_1_prim_relu", 0, 0, {}], ["stack3_ghost_1_cheap_relu", 0, 0, {}]]]}, {"class_name": "Multiply", "config": {"name": "multiply", "trainable": true, "dtype": "float32"}, "name": "multiply", "inbound_nodes": [[["tf.image.resize", 0, 0, {}], ["concatenate_4", 0, 0, {}]]]}, {"class_name": "Conv2D", "config": {"name": "stack3_ghost_2_prim_conv", "trainable": true, "dtype": "float32", "filters": 12, "kernel_size": [1, 1], "strides": [1, 1], "padding": "valid", "data_format": "channels_last", "dilation_rate": [1, 1], "groups": 1, "activation": "linear", "use_bias": false, "kernel_initializer": {"class_name": "GlorotUniform", "config": {"seed": null}}, "bias_initializer": {"class_name": "Zeros", "config": {}}, "kernel_regularizer": null, "bias_regularizer": null, "activity_regularizer": null, "kernel_constraint": null, "bias_constraint": null}, "name": "stack3_ghost_2_prim_conv", "inbound_nodes": [[["multiply", 0, 0, {}]]]}, {"class_name": "BatchNormalization", "config": {"name": "stack3_ghost_2_prim_bn", "trainable": true, "dtype": "float32", "axis": [3], "momentum": 0.9, "epsilon": 1e-05, "center": true, "scale": true, "beta_initializer": {"class_name": "Zeros", "config": {}}, "gamma_initializer": {"class_name": "Ones", "config": {}}, "moving_mean_initializer": {"class_name": "Zeros", "config": {}}, "moving_variance_initializer": {"class_name": "Ones", "config": {}}, "beta_regularizer": null, "gamma_regularizer": null, "beta_constraint": null, "gamma_constraint": null}, "name": "stack3_ghost_2_prim_bn", "inbound_nodes": [[["stack3_ghost_2_prim_conv", 0, 0, {}]]]}, {"class_name": "ZeroPadding2D", "config": {"name": "stack3_ghost_2_cheap_pad", "trainable": true, "dtype": "float32", "padding": [[1, 1], [1, 1]], "data_format": "channels_last"}, "name": "stack3_ghost_2_cheap_pad", "inbound_nodes": [[["stack3_ghost_2_prim_bn", 0, 0, {}]]]}, {"class_name": "DepthwiseConv2D", "config": {"name": "stack3_ghost_2_cheap_dw_conv", "trainable": true, "dtype": "float32", "kernel_size": [3, 3], "strides": [1, 1], "padding": "valid", "data_format": "channels_last", "dilation_rate": [1, 1], "groups": 1, "activation": "linear", "use_bias": false, "bias_initializer": {"class_name": "Zeros", "config": {}}, "bias_regularizer": null, "activity_regularizer": null, "bias_constraint": null, "depth_multiplier": 1, "depthwise_initializer": {"class_name": "GlorotUniform", "config": {"seed": null}}, "depthwise_regularizer": null, "depthwise_constraint": null}, "name": "stack3_ghost_2_cheap_dw_conv", "inbound_nodes": [[["stack3_ghost_2_cheap_pad", 0, 0, {}]]]}, {"class_name": "BatchNormalization", "config": {"name": "stack3_ghost_2_cheap_bn", "trainable": true, "dtype": "float32", "axis": [3], "momentum": 0.9, "epsilon": 1e-05, "center": true, "scale": true, "beta_initializer": {"class_name": "Zeros", "config": {}}, "gamma_initializer": {"class_name": "Ones", "config": {}}, "moving_mean_initializer": {"class_name": "Zeros", "config": {}}, "moving_variance_initializer": {"class_name": "Ones", "config": {}}, "beta_regularizer": null, "gamma_regularizer": null, "beta_constraint": null, "gamma_constraint": null}, "name": "stack3_ghost_2_cheap_bn", "inbound_nodes": [[["stack3_ghost_2_cheap_dw_conv", 0, 0, {}]]]}, {"class_name": "Concatenate", "config": {"name": "concatenate_5", "trainable": true, "dtype": "float32", "axis": -1}, "name": "concatenate_5", "inbound_nodes": [[["stack3_ghost_2_prim_bn", 0, 0, {}], ["stack3_ghost_2_cheap_bn", 0, 0, {}]]]}, {"class_name": "Add", "config": {"name": "stack3_output", "trainable": true, "dtype": "float32"}, "name": "stack3_output", "inbound_nodes": [[["stack2_output", 0, 0, {}], ["concatenate_5", 0, 0, {}]]]}, {"class_name": "AveragePooling2D", "config": {"name": "average_pooling2d_1", "trainable": true, "dtype": "float32", "pool_size": [2, 2], "padding": "valid", "strides": [2, 2], "data_format": "channels_last"}, "name": "average_pooling2d_1", "inbound_nodes": [[["stack3_output", 0, 0, {}]]]}, {"class_name": "Conv2D", "config": {"name": "stack4_ghost_1_short_1_conv", "trainable": true, "dtype": "float32", "filters": 72, "kernel_size": [1, 1], "strides": [1, 1], "padding": "valid", "data_format": "channels_last", "dilation_rate": [1, 1], "groups": 1, "activation": "linear", "use_bias": false, "kernel_initializer": {"class_name": "GlorotUniform", "config": {"seed": null}}, "bias_initializer": {"class_name": "Zeros", "config": {}}, "kernel_regularizer": null, "bias_regularizer": null, "activity_regularizer": null, "kernel_constraint": null, "bias_constraint": null}, "name": "stack4_ghost_1_short_1_conv", "inbound_nodes": [[["average_pooling2d_1", 0, 0, {}]]]}, {"class_name": "BatchNormalization", "config": {"name": "stack4_ghost_1_short_1_bn", "trainable": true, "dtype": "float32", "axis": [3], "momentum": 0.9, "epsilon": 1e-05, "center": true, "scale": true, "beta_initializer": {"class_name": "Zeros", "config": {}}, "gamma_initializer": {"class_name": "Ones", "config": {}}, "moving_mean_initializer": {"class_name": "Zeros", "config": {}}, "moving_variance_initializer": {"class_name": "Ones", "config": {}}, "beta_regularizer": null, "gamma_regularizer": null, "beta_constraint": null, "gamma_constraint": null}, "name": "stack4_ghost_1_short_1_bn", "inbound_nodes": [[["stack4_ghost_1_short_1_conv", 0, 0, {}]]]}, {"class_name": "ZeroPadding2D", "config": {"name": "stack4_ghost_1_short_2_pad", "trainable": true, "dtype": "float32", "padding": [[0, 0], [2, 2]], "data_format": "channels_last"}, "name": "stack4_ghost_1_short_2_pad", "inbound_nodes": [[["stack4_ghost_1_short_1_bn", 0, 0, {}]]]}, {"class_name": "Conv2D", "config": {"name": "stack4_ghost_1_prim_conv", "trainable": true, "dtype": "float32", "filters": 36, "kernel_size": [1, 1], "strides": [1, 1], "padding": "valid", "data_format": "channels_last", "dilation_rate": [1, 1], "groups": 1, "activation": "linear", "use_bias": false, "kernel_initializer": {"class_name": "GlorotUniform", "config": {"seed": null}}, "bias_initializer": {"class_name": "Zeros", "config": {}}, "kernel_regularizer": null, "bias_regularizer": null, "activity_regularizer": null, "kernel_constraint": null, "bias_constraint": null}, "name": "stack4_ghost_1_prim_conv", "inbound_nodes": [[["stack3_output", 0, 0, {}]]]}, {"class_name": "DepthwiseConv2D", "config": {"name": "stack4_ghost_1_short_2_dw_conv", "trainable": true, "dtype": "float32", "kernel_size": [1, 5], "strides": [1, 1], "padding": "valid", "data_format": "channels_last", "dilation_rate": [1, 1], "groups": 1, "activation": "linear", "use_bias": false, "bias_initializer": {"class_name": "Zeros", "config": {}}, "bias_regularizer": null, "activity_regularizer": null, "bias_constraint": null, "depth_multiplier": 1, "depthwise_initializer": {"class_name": "GlorotUniform", "config": {"seed": null}}, "depthwise_regularizer": null, "depthwise_constraint": null}, "name": "stack4_ghost_1_short_2_dw_conv", "inbound_nodes": [[["stack4_ghost_1_short_2_pad", 0, 0, {}]]]}, {"class_name": "BatchNormalization", "config": {"name": "stack4_ghost_1_prim_bn", "trainable": true, "dtype": "float32", "axis": [3], "momentum": 0.9, "epsilon": 1e-05, "center": true, "scale": true, "beta_initializer": {"class_name": "Zeros", "config": {}}, "gamma_initializer": {"class_name": "Ones", "config": {}}, "moving_mean_initializer": {"class_name": "Zeros", "config": {}}, "moving_variance_initializer": {"class_name": "Ones", "config": {}}, "beta_regularizer": null, "gamma_regularizer": null, "beta_constraint": null, "gamma_constraint": null}, "name": "stack4_ghost_1_prim_bn", "inbound_nodes": [[["stack4_ghost_1_prim_conv", 0, 0, {}]]]}, {"class_name": "BatchNormalization", "config": {"name": "stack4_ghost_1_short_2_bn", "trainable": true, "dtype": "float32", "axis": [3], "momentum": 0.9, "epsilon": 1e-05, "center": true, "scale": true, "beta_initializer": {"class_name": "Zeros", "config": {}}, "gamma_initializer": {"class_name": "Ones", "config": {}}, "moving_mean_initializer": {"class_name": "Zeros", "config": {}}, "moving_variance_initializer": {"class_name": "Ones", "config": {}}, "beta_regularizer": null, "gamma_regularizer": null, "beta_constraint": null, "gamma_constraint": null}, "name": "stack4_ghost_1_short_2_bn", "inbound_nodes": [[["stack4_ghost_1_short_2_dw_conv", 0, 0, {}]]]}, {"class_name": "Activation", "config": {"name": "stack4_ghost_1_prim_relu", "trainable": true, "dtype": "float32", "activation": "relu"}, "name": "stack4_ghost_1_prim_relu", "inbound_nodes": [[["stack4_ghost_1_prim_bn", 0, 0, {}]]]}, {"class_name": "ZeroPadding2D", "config": {"name": "stack4_ghost_1_short_3_pad", "trainable": true, "dtype": "float32", "padding": [[2, 2], [0, 0]], "data_format": "channels_last"}, "name": "stack4_ghost_1_short_3_pad", "inbound_nodes": [[["stack4_ghost_1_short_2_bn", 0, 0, {}]]]}, {"class_name": "ZeroPadding2D", "config": {"name": "stack4_ghost_1_cheap_pad", "trainable": true, "dtype": "float32", "padding": [[1, 1], [1, 1]], "data_format": "channels_last"}, "name": "stack4_ghost_1_cheap_pad", "inbound_nodes": [[["stack4_ghost_1_prim_relu", 0, 0, {}]]]}, {"class_name": "DepthwiseConv2D", "config": {"name": "stack4_ghost_1_short_3_dw_conv", "trainable": true, "dtype": "float32", "kernel_size": [5, 1], "strides": [1, 1], "padding": "valid", "data_format": "channels_last", "dilation_rate": [1, 1], "groups": 1, "activation": "linear", "use_bias": false, "bias_initializer": {"class_name": "Zeros", "config": {}}, "bias_regularizer": null, "activity_regularizer": null, "bias_constraint": null, "depth_multiplier": 1, "depthwise_initializer": {"class_name": "GlorotUniform", "config": {"seed": null}}, "depthwise_regularizer": null, "depthwise_constraint": null}, "name": "stack4_ghost_1_short_3_dw_conv", "inbound_nodes": [[["stack4_ghost_1_short_3_pad", 0, 0, {}]]]}, {"class_name": "DepthwiseConv2D", "config": {"name": "stack4_ghost_1_cheap_dw_conv", "trainable": true, "dtype": "float32", "kernel_size": [3, 3], "strides": [1, 1], "padding": "valid", "data_format": "channels_last", "dilation_rate": [1, 1], "groups": 1, "activation": "linear", "use_bias": false, "bias_initializer": {"class_name": "Zeros", "config": {}}, "bias_regularizer": null, "activity_regularizer": null, "bias_constraint": null, "depth_multiplier": 1, "depthwise_initializer": {"class_name": "GlorotUniform", "config": {"seed": null}}, "depthwise_regularizer": null, "depthwise_constraint": null}, "name": "stack4_ghost_1_cheap_dw_conv", "inbound_nodes": [[["stack4_ghost_1_cheap_pad", 0, 0, {}]]]}, {"class_name": "BatchNormalization", "config": {"name": "stack4_ghost_1_short_3_bn", "trainable": true, "dtype": "float32", "axis": [3], "momentum": 0.9, "epsilon": 1e-05, "center": true, "scale": true, "beta_initializer": {"class_name": "Zeros", "config": {}}, "gamma_initializer": {"class_name": "Ones", "config": {}}, "moving_mean_initializer": {"class_name": "Zeros", "config": {}}, "moving_variance_initializer": {"class_name": "Ones", "config": {}}, "beta_regularizer": null, "gamma_regularizer": null, "beta_constraint": null, "gamma_constraint": null}, "name": "stack4_ghost_1_short_3_bn", "inbound_nodes": [[["stack4_ghost_1_short_3_dw_conv", 0, 0, {}]]]}, {"class_name": "TFOpLambda", "config": {"name": "tf.compat.v1.shape_1", "trainable": true, "dtype": "float32", "function": "compat.v1.shape"}, "name": "tf.compat.v1.shape_1", "inbound_nodes": [["stack3_output", 0, 0, {"name": null, "out_type": "int32"}]]}, {"class_name": "BatchNormalization", "config": {"name": "stack4_ghost_1_cheap_bn", "trainable": true, "dtype": "float32", "axis": [3], "momentum": 0.9, "epsilon": 1e-05, "center": true, "scale": true, "beta_initializer": {"class_name": "Zeros", "config": {}}, "gamma_initializer": {"class_name": "Ones", "config": {}}, "moving_mean_initializer": {"class_name": "Zeros", "config": {}}, "moving_variance_initializer": {"class_name": "Ones", "config": {}}, "beta_regularizer": null, "gamma_regularizer": null, "beta_constraint": null, "gamma_constraint": null}, "name": "stack4_ghost_1_cheap_bn", "inbound_nodes": [[["stack4_ghost_1_cheap_dw_conv", 0, 0, {}]]]}, {"class_name": "Activation", "config": {"name": "stack4_ghost_1_short_sigmoid", "trainable": true, "dtype": "float32", "activation": "sigmoid"}, "name": "stack4_ghost_1_short_sigmoid", "inbound_nodes": [[["stack4_ghost_1_short_3_bn", 0, 0, {}]]]}, {"class_name": "SlicingOpLambda", "config": {"name": "tf.__operators__.getitem_1", "trainable": true, "dtype": "float32", "function": "__operators__.getitem"}, "name": "tf.__operators__.getitem_1", "inbound_nodes": [["tf.compat.v1.shape_1", 0, 0, {"slice_spec": {"start": 1, "stop": -1, "step": null}}]]}, {"class_name": "Activation", "config": {"name": "stack4_ghost_1_cheap_relu", "trainable": true, "dtype": "float32", "activation": "relu"}, "name": "stack4_ghost_1_cheap_relu", "inbound_nodes": [[["stack4_ghost_1_cheap_bn", 0, 0, {}]]]}, {"class_name": "TFOpLambda", "config": {"name": "tf.image.resize_1", "trainable": true, "dtype": "float32", "function": "image.resize"}, "name": "tf.image.resize_1", "inbound_nodes": [["stack4_ghost_1_short_sigmoid", 0, 0, {"size": ["tf.__operators__.getitem_1", 0, 0], "antialias": false, "method": "nearest"}]]}, {"class_name": "Concatenate", "config": {"name": "concatenate_6", "trainable": true, "dtype": "float32", "axis": -1}, "name": "concatenate_6", "inbound_nodes": [[["stack4_ghost_1_prim_relu", 0, 0, {}], ["stack4_ghost_1_cheap_relu", 0, 0, {}]]]}, {"class_name": "Multiply", "config": {"name": "multiply_1", "trainable": true, "dtype": "float32"}, "name": "multiply_1", "inbound_nodes": [[["tf.image.resize_1", 0, 0, {}], ["concatenate_6", 0, 0, {}]]]}, {"class_name": "ZeroPadding2D", "config": {"name": "stack4_down_pad", "trainable": true, "dtype": "float32", "padding": [[2, 2], [2, 2]], "data_format": "channels_last"}, "name": "stack4_down_pad", "inbound_nodes": [[["multiply_1", 0, 0, {}]]]}, {"class_name": "DepthwiseConv2D", "config": {"name": "stack4_down_dw_conv", "trainable": true, "dtype": "float32", "kernel_size": [5, 5], "strides": [2, 2], "padding": "valid", "data_format": "channels_last", "dilation_rate": [1, 1], "groups": 1, "activation": "linear", "use_bias": false, "bias_initializer": {"class_name": "Zeros", "config": {}}, "bias_regularizer": null, "activity_regularizer": null, "bias_constraint": null, "depth_multiplier": 1, "depthwise_initializer": {"class_name": "GlorotUniform", "config": {"seed": null}}, "depthwise_regularizer": null, "depthwise_constraint": null}, "name": "stack4_down_dw_conv", "inbound_nodes": [[["stack4_down_pad", 0, 0, {}]]]}, {"class_name": "BatchNormalization", "config": {"name": "stack4_down_bn", "trainable": true, "dtype": "float32", "axis": [3], "momentum": 0.9, "epsilon": 1e-05, "center": true, "scale": true, "beta_initializer": {"class_name": "Zeros", "config": {}}, "gamma_initializer": {"class_name": "Ones", "config": {}}, "moving_mean_initializer": {"class_name": "Zeros", "config": {}}, "moving_variance_initializer": {"class_name": "Ones", "config": {}}, "beta_regularizer": null, "gamma_regularizer": null, "beta_constraint": null, "gamma_constraint": null}, "name": "stack4_down_bn", "inbound_nodes": [[["stack4_down_dw_conv", 0, 0, {}]]]}, {"class_name": "TFOpLambda", "config": {"name": "tf.math.reduce_mean", "trainable": true, "dtype": "float32", "function": "math.reduce_mean"}, "name": "tf.math.reduce_mean", "inbound_nodes": [["stack4_down_bn", 0, 0, {"axis": [1, 2], "keepdims": true}]]}, {"class_name": "Conv2D", "config": {"name": "stack4_se_1_conv", "trainable": true, "dtype": "float32", "filters": 20, "kernel_size": [1, 1], "strides": [1, 1], "padding": "valid", "data_format": "channels_last", "dilation_rate": [1, 1], "groups": 1, "activation": "linear", "use_bias": true, "kernel_initializer": {"class_name": "GlorotUniform", "config": {"seed": null}}, "bias_initializer": {"class_name": "Zeros", "config": {}}, "kernel_regularizer": null, "bias_regularizer": null, "activity_regularizer": null, "kernel_constraint": null, "bias_constraint": null}, "name": "stack4_se_1_conv", "inbound_nodes": [[["tf.math.reduce_mean", 0, 0, {}]]]}, {"class_name": "Activation", "config": {"name": "stack4_se_relu", "trainable": true, "dtype": "float32", "activation": "relu"}, "name": "stack4_se_relu", "inbound_nodes": [[["stack4_se_1_conv", 0, 0, {}]]]}, {"class_name": "Conv2D", "config": {"name": "stack4_se_2_conv", "trainable": true, "dtype": "float32", "filters": 72, "kernel_size": [1, 1], "strides": [1, 1], "padding": "valid", "data_format": "channels_last", "dilation_rate": [1, 1], "groups": 1, "activation": "linear", "use_bias": true, "kernel_initializer": {"class_name": "GlorotUniform", "config": {"seed": null}}, "bias_initializer": {"class_name": "Zeros", "config": {}}, "kernel_regularizer": null, "bias_regularizer": null, "activity_regularizer": null, "kernel_constraint": null, "bias_constraint": null}, "name": "stack4_se_2_conv", "inbound_nodes": [[["stack4_se_relu", 0, 0, {}]]]}, {"class_name": "Activation", "config": {"name": "stack4_se_hard_sigmoid_torch", "trainable": true, "dtype": "float32", "activation": "kecamCommon>hard_sigmoid_torch"}, "name": "stack4_se_hard_sigmoid_torch", "inbound_nodes": [[["stack4_se_2_conv", 0, 0, {}]]]}, {"class_name": "Multiply", "config": {"name": "stack4_se_out", "trainable": true, "dtype": "float32"}, "name": "stack4_se_out", "inbound_nodes": [[["stack4_down_bn", 0, 0, {}], ["stack4_se_hard_sigmoid_torch", 0, 0, {}]]]}, {"class_name": "Conv2D", "config": {"name": "stack4_ghost_2_prim_conv", "trainable": true, "dtype": "float32", "filters": 20, "kernel_size": [1, 1], "strides": [1, 1], "padding": "valid", "data_format": "channels_last", "dilation_rate": [1, 1], "groups": 1, "activation": "linear", "use_bias": false, "kernel_initializer": {"class_name": "GlorotUniform", "config": {"seed": null}}, "bias_initializer": {"class_name": "Zeros", "config": {}}, "kernel_regularizer": null, "bias_regularizer": null, "activity_regularizer": null, "kernel_constraint": null, "bias_constraint": null}, "name": "stack4_ghost_2_prim_conv", "inbound_nodes": [[["stack4_se_out", 0, 0, {}]]]}, {"class_name": "ZeroPadding2D", "config": {"name": "stack4_short_1_pad", "trainable": true, "dtype": "float32", "padding": [[2, 2], [2, 2]], "data_format": "channels_last"}, "name": "stack4_short_1_pad", "inbound_nodes": [[["stack3_output", 0, 0, {}]]]}, {"class_name": "BatchNormalization", "config": {"name": "stack4_ghost_2_prim_bn", "trainable": true, "dtype": "float32", "axis": [3], "momentum": 0.9, "epsilon": 1e-05, "center": true, "scale": true, "beta_initializer": {"class_name": "Zeros", "config": {}}, "gamma_initializer": {"class_name": "Ones", "config": {}}, "moving_mean_initializer": {"class_name": "Zeros", "config": {}}, "moving_variance_initializer": {"class_name": "Ones", "config": {}}, "beta_regularizer": null, "gamma_regularizer": null, "beta_constraint": null, "gamma_constraint": null}, "name": "stack4_ghost_2_prim_bn", "inbound_nodes": [[["stack4_ghost_2_prim_conv", 0, 0, {}]]]}, {"class_name": "DepthwiseConv2D", "config": {"name": "stack4_short_1_dw_conv", "trainable": true, "dtype": "float32", "kernel_size": [5, 5], "strides": [2, 2], "padding": "valid", "data_format": "channels_last", "dilation_rate": [1, 1], "groups": 1, "activation": "linear", "use_bias": false, "bias_initializer": {"class_name": "Zeros", "config": {}}, "bias_regularizer": null, "activity_regularizer": null, "bias_constraint": null, "depth_multiplier": 1, "depthwise_initializer": {"class_name": "GlorotUniform", "config": {"seed": null}}, "depthwise_regularizer": null, "depthwise_constraint": null}, "name": "stack4_short_1_dw_conv", "inbound_nodes": [[["stack4_short_1_pad", 0, 0, {}]]]}, {"class_name": "ZeroPadding2D", "config": {"name": "stack4_ghost_2_cheap_pad", "trainable": true, "dtype": "float32", "padding": [[1, 1], [1, 1]], "data_format": "channels_last"}, "name": "stack4_ghost_2_cheap_pad", "inbound_nodes": [[["stack4_ghost_2_prim_bn", 0, 0, {}]]]}, {"class_name": "BatchNormalization", "config": {"name": "stack4_short_1_bn", "trainable": true, "dtype": "float32", "axis": [3], "momentum": 0.9, "epsilon": 1e-05, "center": true, "scale": true, "beta_initializer": {"class_name": "Zeros", "config": {}}, "gamma_initializer": {"class_name": "Ones", "config": {}}, "moving_mean_initializer": {"class_name": "Zeros", "config": {}}, "moving_variance_initializer": {"class_name": "Ones", "config": {}}, "beta_regularizer": null, "gamma_regularizer": null, "beta_constraint": null, "gamma_constraint": null}, "name": "stack4_short_1_bn", "inbound_nodes": [[["stack4_short_1_dw_conv", 0, 0, {}]]]}, {"class_name": "DepthwiseConv2D", "config": {"name": "stack4_ghost_2_cheap_dw_conv", "trainable": true, "dtype": "float32", "kernel_size": [3, 3], "strides": [1, 1], "padding": "valid", "data_format": "channels_last", "dilation_rate": [1, 1], "groups": 1, "activation": "linear", "use_bias": false, "bias_initializer": {"class_name": "Zeros", "config": {}}, "bias_regularizer": null, "activity_regularizer": null, "bias_constraint": null, "depth_multiplier": 1, "depthwise_initializer": {"class_name": "GlorotUniform", "config": {"seed": null}}, "depthwise_regularizer": null, "depthwise_constraint": null}, "name": "stack4_ghost_2_cheap_dw_conv", "inbound_nodes": [[["stack4_ghost_2_cheap_pad", 0, 0, {}]]]}, {"class_name": "Conv2D", "config": {"name": "stack4_short_2_conv", "trainable": true, "dtype": "float32", "filters": 40, "kernel_size": [1, 1], "strides": [1, 1], "padding": "valid", "data_format": "channels_last", "dilation_rate": [1, 1], "groups": 1, "activation": "linear", "use_bias": false, "kernel_initializer": {"class_name": "GlorotUniform", "config": {"seed": null}}, "bias_initializer": {"class_name": "Zeros", "config": {}}, "kernel_regularizer": null, "bias_regularizer": null, "activity_regularizer": null, "kernel_constraint": null, "bias_constraint": null}, "name": "stack4_short_2_conv", "inbound_nodes": [[["stack4_short_1_bn", 0, 0, {}]]]}, {"class_name": "BatchNormalization", "config": {"name": "stack4_ghost_2_cheap_bn", "trainable": true, "dtype": "float32", "axis": [3], "momentum": 0.9, "epsilon": 1e-05, "center": true, "scale": true, "beta_initializer": {"class_name": "Zeros", "config": {}}, "gamma_initializer": {"class_name": "Ones", "config": {}}, "moving_mean_initializer": {"class_name": "Zeros", "config": {}}, "moving_variance_initializer": {"class_name": "Ones", "config": {}}, "beta_regularizer": null, "gamma_regularizer": null, "beta_constraint": null, "gamma_constraint": null}, "name": "stack4_ghost_2_cheap_bn", "inbound_nodes": [[["stack4_ghost_2_cheap_dw_conv", 0, 0, {}]]]}, {"class_name": "BatchNormalization", "config": {"name": "stack4_short_2_bn", "trainable": true, "dtype": "float32", "axis": [3], "momentum": 0.9, "epsilon": 1e-05, "center": true, "scale": true, "beta_initializer": {"class_name": "Zeros", "config": {}}, "gamma_initializer": {"class_name": "Ones", "config": {}}, "moving_mean_initializer": {"class_name": "Zeros", "config": {}}, "moving_variance_initializer": {"class_name": "Ones", "config": {}}, "beta_regularizer": null, "gamma_regularizer": null, "beta_constraint": null, "gamma_constraint": null}, "name": "stack4_short_2_bn", "inbound_nodes": [[["stack4_short_2_conv", 0, 0, {}]]]}, {"class_name": "Concatenate", "config": {"name": "concatenate_7", "trainable": true, "dtype": "float32", "axis": -1}, "name": "concatenate_7", "inbound_nodes": [[["stack4_ghost_2_prim_bn", 0, 0, {}], ["stack4_ghost_2_cheap_bn", 0, 0, {}]]]}, {"class_name": "Add", "config": {"name": "stack4_output", "trainable": true, "dtype": "float32"}, "name": "stack4_output", "inbound_nodes": [[["stack4_short_2_bn", 0, 0, {}], ["concatenate_7", 0, 0, {}]]]}, {"class_name": "AveragePooling2D", "config": {"name": "average_pooling2d_2", "trainable": true, "dtype": "float32", "pool_size": [2, 2], "padding": "valid", "strides": [2, 2], "data_format": "channels_last"}, "name": "average_pooling2d_2", "inbound_nodes": [[["stack4_output", 0, 0, {}]]]}, {"class_name": "Conv2D", "config": {"name": "stack5_ghost_1_short_1_conv", "trainable": true, "dtype": "float32", "filters": 120, "kernel_size": [1, 1], "strides": [1, 1], "padding": "valid", "data_format": "channels_last", "dilation_rate": [1, 1], "groups": 1, "activation": "linear", "use_bias": false, "kernel_initializer": {"class_name": "GlorotUniform", "config": {"seed": null}}, "bias_initializer": {"class_name": "Zeros", "config": {}}, "kernel_regularizer": null, "bias_regularizer": null, "activity_regularizer": null, "kernel_constraint": null, "bias_constraint": null}, "name": "stack5_ghost_1_short_1_conv", "inbound_nodes": [[["average_pooling2d_2", 0, 0, {}]]]}, {"class_name": "BatchNormalization", "config": {"name": "stack5_ghost_1_short_1_bn", "trainable": true, "dtype": "float32", "axis": [3], "momentum": 0.9, "epsilon": 1e-05, "center": true, "scale": true, "beta_initializer": {"class_name": "Zeros", "config": {}}, "gamma_initializer": {"class_name": "Ones", "config": {}}, "moving_mean_initializer": {"class_name": "Zeros", "config": {}}, "moving_variance_initializer": {"class_name": "Ones", "config": {}}, "beta_regularizer": null, "gamma_regularizer": null, "beta_constraint": null, "gamma_constraint": null}, "name": "stack5_ghost_1_short_1_bn", "inbound_nodes": [[["stack5_ghost_1_short_1_conv", 0, 0, {}]]]}, {"class_name": "ZeroPadding2D", "config": {"name": "stack5_ghost_1_short_2_pad", "trainable": true, "dtype": "float32", "padding": [[0, 0], [2, 2]], "data_format": "channels_last"}, "name": "stack5_ghost_1_short_2_pad", "inbound_nodes": [[["stack5_ghost_1_short_1_bn", 0, 0, {}]]]}, {"class_name": "Conv2D", "config": {"name": "stack5_ghost_1_prim_conv", "trainable": true, "dtype": "float32", "filters": 60, "kernel_size": [1, 1], "strides": [1, 1], "padding": "valid", "data_format": "channels_last", "dilation_rate": [1, 1], "groups": 1, "activation": "linear", "use_bias": false, "kernel_initializer": {"class_name": "GlorotUniform", "config": {"seed": null}}, "bias_initializer": {"class_name": "Zeros", "config": {}}, "kernel_regularizer": null, "bias_regularizer": null, "activity_regularizer": null, "kernel_constraint": null, "bias_constraint": null}, "name": "stack5_ghost_1_prim_conv", "inbound_nodes": [[["stack4_output", 0, 0, {}]]]}, {"class_name": "DepthwiseConv2D", "config": {"name": "stack5_ghost_1_short_2_dw_conv", "trainable": true, "dtype": "float32", "kernel_size": [1, 5], "strides": [1, 1], "padding": "valid", "data_format": "channels_last", "dilation_rate": [1, 1], "groups": 1, "activation": "linear", "use_bias": false, "bias_initializer": {"class_name": "Zeros", "config": {}}, "bias_regularizer": null, "activity_regularizer": null, "bias_constraint": null, "depth_multiplier": 1, "depthwise_initializer": {"class_name": "GlorotUniform", "config": {"seed": null}}, "depthwise_regularizer": null, "depthwise_constraint": null}, "name": "stack5_ghost_1_short_2_dw_conv", "inbound_nodes": [[["stack5_ghost_1_short_2_pad", 0, 0, {}]]]}, {"class_name": "BatchNormalization", "config": {"name": "stack5_ghost_1_prim_bn", "trainable": true, "dtype": "float32", "axis": [3], "momentum": 0.9, "epsilon": 1e-05, "center": true, "scale": true, "beta_initializer": {"class_name": "Zeros", "config": {}}, "gamma_initializer": {"class_name": "Ones", "config": {}}, "moving_mean_initializer": {"class_name": "Zeros", "config": {}}, "moving_variance_initializer": {"class_name": "Ones", "config": {}}, "beta_regularizer": null, "gamma_regularizer": null, "beta_constraint": null, "gamma_constraint": null}, "name": "stack5_ghost_1_prim_bn", "inbound_nodes": [[["stack5_ghost_1_prim_conv", 0, 0, {}]]]}, {"class_name": "BatchNormalization", "config": {"name": "stack5_ghost_1_short_2_bn", "trainable": true, "dtype": "float32", "axis": [3], "momentum": 0.9, "epsilon": 1e-05, "center": true, "scale": true, "beta_initializer": {"class_name": "Zeros", "config": {}}, "gamma_initializer": {"class_name": "Ones", "config": {}}, "moving_mean_initializer": {"class_name": "Zeros", "config": {}}, "moving_variance_initializer": {"class_name": "Ones", "config": {}}, "beta_regularizer": null, "gamma_regularizer": null, "beta_constraint": null, "gamma_constraint": null}, "name": "stack5_ghost_1_short_2_bn", "inbound_nodes": [[["stack5_ghost_1_short_2_dw_conv", 0, 0, {}]]]}, {"class_name": "Activation", "config": {"name": "stack5_ghost_1_prim_relu", "trainable": true, "dtype": "float32", "activation": "relu"}, "name": "stack5_ghost_1_prim_relu", "inbound_nodes": [[["stack5_ghost_1_prim_bn", 0, 0, {}]]]}, {"class_name": "ZeroPadding2D", "config": {"name": "stack5_ghost_1_short_3_pad", "trainable": true, "dtype": "float32", "padding": [[2, 2], [0, 0]], "data_format": "channels_last"}, "name": "stack5_ghost_1_short_3_pad", "inbound_nodes": [[["stack5_ghost_1_short_2_bn", 0, 0, {}]]]}, {"class_name": "ZeroPadding2D", "config": {"name": "stack5_ghost_1_cheap_pad", "trainable": true, "dtype": "float32", "padding": [[1, 1], [1, 1]], "data_format": "channels_last"}, "name": "stack5_ghost_1_cheap_pad", "inbound_nodes": [[["stack5_ghost_1_prim_relu", 0, 0, {}]]]}, {"class_name": "DepthwiseConv2D", "config": {"name": "stack5_ghost_1_short_3_dw_conv", "trainable": true, "dtype": "float32", "kernel_size": [5, 1], "strides": [1, 1], "padding": "valid", "data_format": "channels_last", "dilation_rate": [1, 1], "groups": 1, "activation": "linear", "use_bias": false, "bias_initializer": {"class_name": "Zeros", "config": {}}, "bias_regularizer": null, "activity_regularizer": null, "bias_constraint": null, "depth_multiplier": 1, "depthwise_initializer": {"class_name": "GlorotUniform", "config": {"seed": null}}, "depthwise_regularizer": null, "depthwise_constraint": null}, "name": "stack5_ghost_1_short_3_dw_conv", "inbound_nodes": [[["stack5_ghost_1_short_3_pad", 0, 0, {}]]]}, {"class_name": "DepthwiseConv2D", "config": {"name": "stack5_ghost_1_cheap_dw_conv", "trainable": true, "dtype": "float32", "kernel_size": [3, 3], "strides": [1, 1], "padding": "valid", "data_format": "channels_last", "dilation_rate": [1, 1], "groups": 1, "activation": "linear", "use_bias": false, "bias_initializer": {"class_name": "Zeros", "config": {}}, "bias_regularizer": null, "activity_regularizer": null, "bias_constraint": null, "depth_multiplier": 1, "depthwise_initializer": {"class_name": "GlorotUniform", "config": {"seed": null}}, "depthwise_regularizer": null, "depthwise_constraint": null}, "name": "stack5_ghost_1_cheap_dw_conv", "inbound_nodes": [[["stack5_ghost_1_cheap_pad", 0, 0, {}]]]}, {"class_name": "BatchNormalization", "config": {"name": "stack5_ghost_1_short_3_bn", "trainable": true, "dtype": "float32", "axis": [3], "momentum": 0.9, "epsilon": 1e-05, "center": true, "scale": true, "beta_initializer": {"class_name": "Zeros", "config": {}}, "gamma_initializer": {"class_name": "Ones", "config": {}}, "moving_mean_initializer": {"class_name": "Zeros", "config": {}}, "moving_variance_initializer": {"class_name": "Ones", "config": {}}, "beta_regularizer": null, "gamma_regularizer": null, "beta_constraint": null, "gamma_constraint": null}, "name": "stack5_ghost_1_short_3_bn", "inbound_nodes": [[["stack5_ghost_1_short_3_dw_conv", 0, 0, {}]]]}, {"class_name": "TFOpLambda", "config": {"name": "tf.compat.v1.shape_2", "trainable": true, "dtype": "float32", "function": "compat.v1.shape"}, "name": "tf.compat.v1.shape_2", "inbound_nodes": [["stack4_output", 0, 0, {"name": null, "out_type": "int32"}]]}, {"class_name": "BatchNormalization", "config": {"name": "stack5_ghost_1_cheap_bn", "trainable": true, "dtype": "float32", "axis": [3], "momentum": 0.9, "epsilon": 1e-05, "center": true, "scale": true, "beta_initializer": {"class_name": "Zeros", "config": {}}, "gamma_initializer": {"class_name": "Ones", "config": {}}, "moving_mean_initializer": {"class_name": "Zeros", "config": {}}, "moving_variance_initializer": {"class_name": "Ones", "config": {}}, "beta_regularizer": null, "gamma_regularizer": null, "beta_constraint": null, "gamma_constraint": null}, "name": "stack5_ghost_1_cheap_bn", "inbound_nodes": [[["stack5_ghost_1_cheap_dw_conv", 0, 0, {}]]]}, {"class_name": "Activation", "config": {"name": "stack5_ghost_1_short_sigmoid", "trainable": true, "dtype": "float32", "activation": "sigmoid"}, "name": "stack5_ghost_1_short_sigmoid", "inbound_nodes": [[["stack5_ghost_1_short_3_bn", 0, 0, {}]]]}, {"class_name": "SlicingOpLambda", "config": {"name": "tf.__operators__.getitem_2", "trainable": true, "dtype": "float32", "function": "__operators__.getitem"}, "name": "tf.__operators__.getitem_2", "inbound_nodes": [["tf.compat.v1.shape_2", 0, 0, {"slice_spec": {"start": 1, "stop": -1, "step": null}}]]}, {"class_name": "Activation", "config": {"name": "stack5_ghost_1_cheap_relu", "trainable": true, "dtype": "float32", "activation": "relu"}, "name": "stack5_ghost_1_cheap_relu", "inbound_nodes": [[["stack5_ghost_1_cheap_bn", 0, 0, {}]]]}, {"class_name": "TFOpLambda", "config": {"name": "tf.image.resize_2", "trainable": true, "dtype": "float32", "function": "image.resize"}, "name": "tf.image.resize_2", "inbound_nodes": [["stack5_ghost_1_short_sigmoid", 0, 0, {"size": ["tf.__operators__.getitem_2", 0, 0], "antialias": false, "method": "nearest"}]]}, {"class_name": "Concatenate", "config": {"name": "concatenate_8", "trainable": true, "dtype": "float32", "axis": -1}, "name": "concatenate_8", "inbound_nodes": [[["stack5_ghost_1_prim_relu", 0, 0, {}], ["stack5_ghost_1_cheap_relu", 0, 0, {}]]]}, {"class_name": "Multiply", "config": {"name": "multiply_2", "trainable": true, "dtype": "float32"}, "name": "multiply_2", "inbound_nodes": [[["tf.image.resize_2", 0, 0, {}], ["concatenate_8", 0, 0, {}]]]}, {"class_name": "TFOpLambda", "config": {"name": "tf.math.reduce_mean_1", "trainable": true, "dtype": "float32", "function": "math.reduce_mean"}, "name": "tf.math.reduce_mean_1", "inbound_nodes": [["multiply_2", 0, 0, {"axis": [1, 2], "keepdims": true}]]}, {"class_name": "Conv2D", "config": {"name": "stack5_se_1_conv", "trainable": true, "dtype": "float32", "filters": 32, "kernel_size": [1, 1], "strides": [1, 1], "padding": "valid", "data_format": "channels_last", "dilation_rate": [1, 1], "groups": 1, "activation": "linear", "use_bias": true, "kernel_initializer": {"class_name": "GlorotUniform", "config": {"seed": null}}, "bias_initializer": {"class_name": "Zeros", "config": {}}, "kernel_regularizer": null, "bias_regularizer": null, "activity_regularizer": null, "kernel_constraint": null, "bias_constraint": null}, "name": "stack5_se_1_conv", "inbound_nodes": [[["tf.math.reduce_mean_1", 0, 0, {}]]]}, {"class_name": "Activation", "config": {"name": "stack5_se_relu", "trainable": true, "dtype": "float32", "activation": "relu"}, "name": "stack5_se_relu", "inbound_nodes": [[["stack5_se_1_conv", 0, 0, {}]]]}, {"class_name": "Conv2D", "config": {"name": "stack5_se_2_conv", "trainable": true, "dtype": "float32", "filters": 120, "kernel_size": [1, 1], "strides": [1, 1], "padding": "valid", "data_format": "channels_last", "dilation_rate": [1, 1], "groups": 1, "activation": "linear", "use_bias": true, "kernel_initializer": {"class_name": "GlorotUniform", "config": {"seed": null}}, "bias_initializer": {"class_name": "Zeros", "config": {}}, "kernel_regularizer": null, "bias_regularizer": null, "activity_regularizer": null, "kernel_constraint": null, "bias_constraint": null}, "name": "stack5_se_2_conv", "inbound_nodes": [[["stack5_se_relu", 0, 0, {}]]]}, {"class_name": "Activation", "config": {"name": "stack5_se_hard_sigmoid_torch", "trainable": true, "dtype": "float32", "activation": "kecamCommon>hard_sigmoid_torch"}, "name": "stack5_se_hard_sigmoid_torch", "inbound_nodes": [[["stack5_se_2_conv", 0, 0, {}]]]}, {"class_name": "Multiply", "config": {"name": "stack5_se_out", "trainable": true, "dtype": "float32"}, "name": "stack5_se_out", "inbound_nodes": [[["multiply_2", 0, 0, {}], ["stack5_se_hard_sigmoid_torch", 0, 0, {}]]]}, {"class_name": "Conv2D", "config": {"name": "stack5_ghost_2_prim_conv", "trainable": true, "dtype": "float32", "filters": 20, "kernel_size": [1, 1], "strides": [1, 1], "padding": "valid", "data_format": "channels_last", "dilation_rate": [1, 1], "groups": 1, "activation": "linear", "use_bias": false, "kernel_initializer": {"class_name": "GlorotUniform", "config": {"seed": null}}, "bias_initializer": {"class_name": "Zeros", "config": {}}, "kernel_regularizer": null, "bias_regularizer": null, "activity_regularizer": null, "kernel_constraint": null, "bias_constraint": null}, "name": "stack5_ghost_2_prim_conv", "inbound_nodes": [[["stack5_se_out", 0, 0, {}]]]}, {"class_name": "BatchNormalization", "config": {"name": "stack5_ghost_2_prim_bn", "trainable": true, "dtype": "float32", "axis": [3], "momentum": 0.9, "epsilon": 1e-05, "center": true, "scale": true, "beta_initializer": {"class_name": "Zeros", "config": {}}, "gamma_initializer": {"class_name": "Ones", "config": {}}, "moving_mean_initializer": {"class_name": "Zeros", "config": {}}, "moving_variance_initializer": {"class_name": "Ones", "config": {}}, "beta_regularizer": null, "gamma_regularizer": null, "beta_constraint": null, "gamma_constraint": null}, "name": "stack5_ghost_2_prim_bn", "inbound_nodes": [[["stack5_ghost_2_prim_conv", 0, 0, {}]]]}, {"class_name": "ZeroPadding2D", "config": {"name": "stack5_ghost_2_cheap_pad", "trainable": true, "dtype": "float32", "padding": [[1, 1], [1, 1]], "data_format": "channels_last"}, "name": "stack5_ghost_2_cheap_pad", "inbound_nodes": [[["stack5_ghost_2_prim_bn", 0, 0, {}]]]}, {"class_name": "DepthwiseConv2D", "config": {"name": "stack5_ghost_2_cheap_dw_conv", "trainable": true, "dtype": "float32", "kernel_size": [3, 3], "strides": [1, 1], "padding": "valid", "data_format": "channels_last", "dilation_rate": [1, 1], "groups": 1, "activation": "linear", "use_bias": false, "bias_initializer": {"class_name": "Zeros", "config": {}}, "bias_regularizer": null, "activity_regularizer": null, "bias_constraint": null, "depth_multiplier": 1, "depthwise_initializer": {"class_name": "GlorotUniform", "config": {"seed": null}}, "depthwise_regularizer": null, "depthwise_constraint": null}, "name": "stack5_ghost_2_cheap_dw_conv", "inbound_nodes": [[["stack5_ghost_2_cheap_pad", 0, 0, {}]]]}, {"class_name": "BatchNormalization", "config": {"name": "stack5_ghost_2_cheap_bn", "trainable": true, "dtype": "float32", "axis": [3], "momentum": 0.9, "epsilon": 1e-05, "center": true, "scale": true, "beta_initializer": {"class_name": "Zeros", "config": {}}, "gamma_initializer": {"class_name": "Ones", "config": {}}, "moving_mean_initializer": {"class_name": "Zeros", "config": {}}, "moving_variance_initializer": {"class_name": "Ones", "config": {}}, "beta_regularizer": null, "gamma_regularizer": null, "beta_constraint": null, "gamma_constraint": null}, "name": "stack5_ghost_2_cheap_bn", "inbound_nodes": [[["stack5_ghost_2_cheap_dw_conv", 0, 0, {}]]]}, {"class_name": "Concatenate", "config": {"name": "concatenate_9", "trainable": true, "dtype": "float32", "axis": -1}, "name": "concatenate_9", "inbound_nodes": [[["stack5_ghost_2_prim_bn", 0, 0, {}], ["stack5_ghost_2_cheap_bn", 0, 0, {}]]]}, {"class_name": "Add", "config": {"name": "stack5_output", "trainable": true, "dtype": "float32"}, "name": "stack5_output", "inbound_nodes": [[["stack4_output", 0, 0, {}], ["concatenate_9", 0, 0, {}]]]}, {"class_name": "AveragePooling2D", "config": {"name": "average_pooling2d_3", "trainable": true, "dtype": "float32", "pool_size": [2, 2], "padding": "valid", "strides": [2, 2], "data_format": "channels_last"}, "name": "average_pooling2d_3", "inbound_nodes": [[["stack5_output", 0, 0, {}]]]}, {"class_name": "Conv2D", "config": {"name": "stack6_ghost_1_short_1_conv", "trainable": true, "dtype": "float32", "filters": 240, "kernel_size": [1, 1], "strides": [1, 1], "padding": "valid", "data_format": "channels_last", "dilation_rate": [1, 1], "groups": 1, "activation": "linear", "use_bias": false, "kernel_initializer": {"class_name": "GlorotUniform", "config": {"seed": null}}, "bias_initializer": {"class_name": "Zeros", "config": {}}, "kernel_regularizer": null, "bias_regularizer": null, "activity_regularizer": null, "kernel_constraint": null, "bias_constraint": null}, "name": "stack6_ghost_1_short_1_conv", "inbound_nodes": [[["average_pooling2d_3", 0, 0, {}]]]}, {"class_name": "BatchNormalization", "config": {"name": "stack6_ghost_1_short_1_bn", "trainable": true, "dtype": "float32", "axis": [3], "momentum": 0.9, "epsilon": 1e-05, "center": true, "scale": true, "beta_initializer": {"class_name": "Zeros", "config": {}}, "gamma_initializer": {"class_name": "Ones", "config": {}}, "moving_mean_initializer": {"class_name": "Zeros", "config": {}}, "moving_variance_initializer": {"class_name": "Ones", "config": {}}, "beta_regularizer": null, "gamma_regularizer": null, "beta_constraint": null, "gamma_constraint": null}, "name": "stack6_ghost_1_short_1_bn", "inbound_nodes": [[["stack6_ghost_1_short_1_conv", 0, 0, {}]]]}, {"class_name": "ZeroPadding2D", "config": {"name": "stack6_ghost_1_short_2_pad", "trainable": true, "dtype": "float32", "padding": [[0, 0], [2, 2]], "data_format": "channels_last"}, "name": "stack6_ghost_1_short_2_pad", "inbound_nodes": [[["stack6_ghost_1_short_1_bn", 0, 0, {}]]]}, {"class_name": "Conv2D", "config": {"name": "stack6_ghost_1_prim_conv", "trainable": true, "dtype": "float32", "filters": 120, "kernel_size": [1, 1], "strides": [1, 1], "padding": "valid", "data_format": "channels_last", "dilation_rate": [1, 1], "groups": 1, "activation": "linear", "use_bias": false, "kernel_initializer": {"class_name": "GlorotUniform", "config": {"seed": null}}, "bias_initializer": {"class_name": "Zeros", "config": {}}, "kernel_regularizer": null, "bias_regularizer": null, "activity_regularizer": null, "kernel_constraint": null, "bias_constraint": null}, "name": "stack6_ghost_1_prim_conv", "inbound_nodes": [[["stack5_output", 0, 0, {}]]]}, {"class_name": "DepthwiseConv2D", "config": {"name": "stack6_ghost_1_short_2_dw_conv", "trainable": true, "dtype": "float32", "kernel_size": [1, 5], "strides": [1, 1], "padding": "valid", "data_format": "channels_last", "dilation_rate": [1, 1], "groups": 1, "activation": "linear", "use_bias": false, "bias_initializer": {"class_name": "Zeros", "config": {}}, "bias_regularizer": null, "activity_regularizer": null, "bias_constraint": null, "depth_multiplier": 1, "depthwise_initializer": {"class_name": "GlorotUniform", "config": {"seed": null}}, "depthwise_regularizer": null, "depthwise_constraint": null}, "name": "stack6_ghost_1_short_2_dw_conv", "inbound_nodes": [[["stack6_ghost_1_short_2_pad", 0, 0, {}]]]}, {"class_name": "BatchNormalization", "config": {"name": "stack6_ghost_1_prim_bn", "trainable": true, "dtype": "float32", "axis": [3], "momentum": 0.9, "epsilon": 1e-05, "center": true, "scale": true, "beta_initializer": {"class_name": "Zeros", "config": {}}, "gamma_initializer": {"class_name": "Ones", "config": {}}, "moving_mean_initializer": {"class_name": "Zeros", "config": {}}, "moving_variance_initializer": {"class_name": "Ones", "config": {}}, "beta_regularizer": null, "gamma_regularizer": null, "beta_constraint": null, "gamma_constraint": null}, "name": "stack6_ghost_1_prim_bn", "inbound_nodes": [[["stack6_ghost_1_prim_conv", 0, 0, {}]]]}, {"class_name": "BatchNormalization", "config": {"name": "stack6_ghost_1_short_2_bn", "trainable": true, "dtype": "float32", "axis": [3], "momentum": 0.9, "epsilon": 1e-05, "center": true, "scale": true, "beta_initializer": {"class_name": "Zeros", "config": {}}, "gamma_initializer": {"class_name": "Ones", "config": {}}, "moving_mean_initializer": {"class_name": "Zeros", "config": {}}, "moving_variance_initializer": {"class_name": "Ones", "config": {}}, "beta_regularizer": null, "gamma_regularizer": null, "beta_constraint": null, "gamma_constraint": null}, "name": "stack6_ghost_1_short_2_bn", "inbound_nodes": [[["stack6_ghost_1_short_2_dw_conv", 0, 0, {}]]]}, {"class_name": "Activation", "config": {"name": "stack6_ghost_1_prim_relu", "trainable": true, "dtype": "float32", "activation": "relu"}, "name": "stack6_ghost_1_prim_relu", "inbound_nodes": [[["stack6_ghost_1_prim_bn", 0, 0, {}]]]}, {"class_name": "ZeroPadding2D", "config": {"name": "stack6_ghost_1_short_3_pad", "trainable": true, "dtype": "float32", "padding": [[2, 2], [0, 0]], "data_format": "channels_last"}, "name": "stack6_ghost_1_short_3_pad", "inbound_nodes": [[["stack6_ghost_1_short_2_bn", 0, 0, {}]]]}, {"class_name": "ZeroPadding2D", "config": {"name": "stack6_ghost_1_cheap_pad", "trainable": true, "dtype": "float32", "padding": [[1, 1], [1, 1]], "data_format": "channels_last"}, "name": "stack6_ghost_1_cheap_pad", "inbound_nodes": [[["stack6_ghost_1_prim_relu", 0, 0, {}]]]}, {"class_name": "DepthwiseConv2D", "config": {"name": "stack6_ghost_1_short_3_dw_conv", "trainable": true, "dtype": "float32", "kernel_size": [5, 1], "strides": [1, 1], "padding": "valid", "data_format": "channels_last", "dilation_rate": [1, 1], "groups": 1, "activation": "linear", "use_bias": false, "bias_initializer": {"class_name": "Zeros", "config": {}}, "bias_regularizer": null, "activity_regularizer": null, "bias_constraint": null, "depth_multiplier": 1, "depthwise_initializer": {"class_name": "GlorotUniform", "config": {"seed": null}}, "depthwise_regularizer": null, "depthwise_constraint": null}, "name": "stack6_ghost_1_short_3_dw_conv", "inbound_nodes": [[["stack6_ghost_1_short_3_pad", 0, 0, {}]]]}, {"class_name": "DepthwiseConv2D", "config": {"name": "stack6_ghost_1_cheap_dw_conv", "trainable": true, "dtype": "float32", "kernel_size": [3, 3], "strides": [1, 1], "padding": "valid", "data_format": "channels_last", "dilation_rate": [1, 1], "groups": 1, "activation": "linear", "use_bias": false, "bias_initializer": {"class_name": "Zeros", "config": {}}, "bias_regularizer": null, "activity_regularizer": null, "bias_constraint": null, "depth_multiplier": 1, "depthwise_initializer": {"class_name": "GlorotUniform", "config": {"seed": null}}, "depthwise_regularizer": null, "depthwise_constraint": null}, "name": "stack6_ghost_1_cheap_dw_conv", "inbound_nodes": [[["stack6_ghost_1_cheap_pad", 0, 0, {}]]]}, {"class_name": "BatchNormalization", "config": {"name": "stack6_ghost_1_short_3_bn", "trainable": true, "dtype": "float32", "axis": [3], "momentum": 0.9, "epsilon": 1e-05, "center": true, "scale": true, "beta_initializer": {"class_name": "Zeros", "config": {}}, "gamma_initializer": {"class_name": "Ones", "config": {}}, "moving_mean_initializer": {"class_name": "Zeros", "config": {}}, "moving_variance_initializer": {"class_name": "Ones", "config": {}}, "beta_regularizer": null, "gamma_regularizer": null, "beta_constraint": null, "gamma_constraint": null}, "name": "stack6_ghost_1_short_3_bn", "inbound_nodes": [[["stack6_ghost_1_short_3_dw_conv", 0, 0, {}]]]}, {"class_name": "TFOpLambda", "config": {"name": "tf.compat.v1.shape_3", "trainable": true, "dtype": "float32", "function": "compat.v1.shape"}, "name": "tf.compat.v1.shape_3", "inbound_nodes": [["stack5_output", 0, 0, {"name": null, "out_type": "int32"}]]}, {"class_name": "BatchNormalization", "config": {"name": "stack6_ghost_1_cheap_bn", "trainable": true, "dtype": "float32", "axis": [3], "momentum": 0.9, "epsilon": 1e-05, "center": true, "scale": true, "beta_initializer": {"class_name": "Zeros", "config": {}}, "gamma_initializer": {"class_name": "Ones", "config": {}}, "moving_mean_initializer": {"class_name": "Zeros", "config": {}}, "moving_variance_initializer": {"class_name": "Ones", "config": {}}, "beta_regularizer": null, "gamma_regularizer": null, "beta_constraint": null, "gamma_constraint": null}, "name": "stack6_ghost_1_cheap_bn", "inbound_nodes": [[["stack6_ghost_1_cheap_dw_conv", 0, 0, {}]]]}, {"class_name": "Activation", "config": {"name": "stack6_ghost_1_short_sigmoid", "trainable": true, "dtype": "float32", "activation": "sigmoid"}, "name": "stack6_ghost_1_short_sigmoid", "inbound_nodes": [[["stack6_ghost_1_short_3_bn", 0, 0, {}]]]}, {"class_name": "SlicingOpLambda", "config": {"name": "tf.__operators__.getitem_3", "trainable": true, "dtype": "float32", "function": "__operators__.getitem"}, "name": "tf.__operators__.getitem_3", "inbound_nodes": [["tf.compat.v1.shape_3", 0, 0, {"slice_spec": {"start": 1, "stop": -1, "step": null}}]]}, {"class_name": "Activation", "config": {"name": "stack6_ghost_1_cheap_relu", "trainable": true, "dtype": "float32", "activation": "relu"}, "name": "stack6_ghost_1_cheap_relu", "inbound_nodes": [[["stack6_ghost_1_cheap_bn", 0, 0, {}]]]}, {"class_name": "TFOpLambda", "config": {"name": "tf.image.resize_3", "trainable": true, "dtype": "float32", "function": "image.resize"}, "name": "tf.image.resize_3", "inbound_nodes": [["stack6_ghost_1_short_sigmoid", 0, 0, {"size": ["tf.__operators__.getitem_3", 0, 0], "antialias": false, "method": "nearest"}]]}, {"class_name": "Concatenate", "config": {"name": "concatenate_10", "trainable": true, "dtype": "float32", "axis": -1}, "name": "concatenate_10", "inbound_nodes": [[["stack6_ghost_1_prim_relu", 0, 0, {}], ["stack6_ghost_1_cheap_relu", 0, 0, {}]]]}, {"class_name": "Multiply", "config": {"name": "multiply_3", "trainable": true, "dtype": "float32"}, "name": "multiply_3", "inbound_nodes": [[["tf.image.resize_3", 0, 0, {}], ["concatenate_10", 0, 0, {}]]]}, {"class_name": "ZeroPadding2D", "config": {"name": "stack6_down_pad", "trainable": true, "dtype": "float32", "padding": [[1, 1], [1, 1]], "data_format": "channels_last"}, "name": "stack6_down_pad", "inbound_nodes": [[["multiply_3", 0, 0, {}]]]}, {"class_name": "DepthwiseConv2D", "config": {"name": "stack6_down_dw_conv", "trainable": true, "dtype": "float32", "kernel_size": [3, 3], "strides": [2, 2], "padding": "valid", "data_format": "channels_last", "dilation_rate": [1, 1], "groups": 1, "activation": "linear", "use_bias": false, "bias_initializer": {"class_name": "Zeros", "config": {}}, "bias_regularizer": null, "activity_regularizer": null, "bias_constraint": null, "depth_multiplier": 1, "depthwise_initializer": {"class_name": "GlorotUniform", "config": {"seed": null}}, "depthwise_regularizer": null, "depthwise_constraint": null}, "name": "stack6_down_dw_conv", "inbound_nodes": [[["stack6_down_pad", 0, 0, {}]]]}, {"class_name": "BatchNormalization", "config": {"name": "stack6_down_bn", "trainable": true, "dtype": "float32", "axis": [3], "momentum": 0.9, "epsilon": 1e-05, "center": true, "scale": true, "beta_initializer": {"class_name": "Zeros", "config": {}}, "gamma_initializer": {"class_name": "Ones", "config": {}}, "moving_mean_initializer": {"class_name": "Zeros", "config": {}}, "moving_variance_initializer": {"class_name": "Ones", "config": {}}, "beta_regularizer": null, "gamma_regularizer": null, "beta_constraint": null, "gamma_constraint": null}, "name": "stack6_down_bn", "inbound_nodes": [[["stack6_down_dw_conv", 0, 0, {}]]]}, {"class_name": "Conv2D", "config": {"name": "stack6_ghost_2_prim_conv", "trainable": true, "dtype": "float32", "filters": 40, "kernel_size": [1, 1], "strides": [1, 1], "padding": "valid", "data_format": "channels_last", "dilation_rate": [1, 1], "groups": 1, "activation": "linear", "use_bias": false, "kernel_initializer": {"class_name": "GlorotUniform", "config": {"seed": null}}, "bias_initializer": {"class_name": "Zeros", "config": {}}, "kernel_regularizer": null, "bias_regularizer": null, "activity_regularizer": null, "kernel_constraint": null, "bias_constraint": null}, "name": "stack6_ghost_2_prim_conv", "inbound_nodes": [[["stack6_down_bn", 0, 0, {}]]]}, {"class_name": "ZeroPadding2D", "config": {"name": "stack6_short_1_pad", "trainable": true, "dtype": "float32", "padding": [[1, 1], [1, 1]], "data_format": "channels_last"}, "name": "stack6_short_1_pad", "inbound_nodes": [[["stack5_output", 0, 0, {}]]]}, {"class_name": "BatchNormalization", "config": {"name": "stack6_ghost_2_prim_bn", "trainable": true, "dtype": "float32", "axis": [3], "momentum": 0.9, "epsilon": 1e-05, "center": true, "scale": true, "beta_initializer": {"class_name": "Zeros", "config": {}}, "gamma_initializer": {"class_name": "Ones", "config": {}}, "moving_mean_initializer": {"class_name": "Zeros", "config": {}}, "moving_variance_initializer": {"class_name": "Ones", "config": {}}, "beta_regularizer": null, "gamma_regularizer": null, "beta_constraint": null, "gamma_constraint": null}, "name": "stack6_ghost_2_prim_bn", "inbound_nodes": [[["stack6_ghost_2_prim_conv", 0, 0, {}]]]}, {"class_name": "DepthwiseConv2D", "config": {"name": "stack6_short_1_dw_conv", "trainable": true, "dtype": "float32", "kernel_size": [3, 3], "strides": [2, 2], "padding": "valid", "data_format": "channels_last", "dilation_rate": [1, 1], "groups": 1, "activation": "linear", "use_bias": false, "bias_initializer": {"class_name": "Zeros", "config": {}}, "bias_regularizer": null, "activity_regularizer": null, "bias_constraint": null, "depth_multiplier": 1, "depthwise_initializer": {"class_name": "GlorotUniform", "config": {"seed": null}}, "depthwise_regularizer": null, "depthwise_constraint": null}, "name": "stack6_short_1_dw_conv", "inbound_nodes": [[["stack6_short_1_pad", 0, 0, {}]]]}, {"class_name": "ZeroPadding2D", "config": {"name": "stack6_ghost_2_cheap_pad", "trainable": true, "dtype": "float32", "padding": [[1, 1], [1, 1]], "data_format": "channels_last"}, "name": "stack6_ghost_2_cheap_pad", "inbound_nodes": [[["stack6_ghost_2_prim_bn", 0, 0, {}]]]}, {"class_name": "BatchNormalization", "config": {"name": "stack6_short_1_bn", "trainable": true, "dtype": "float32", "axis": [3], "momentum": 0.9, "epsilon": 1e-05, "center": true, "scale": true, "beta_initializer": {"class_name": "Zeros", "config": {}}, "gamma_initializer": {"class_name": "Ones", "config": {}}, "moving_mean_initializer": {"class_name": "Zeros", "config": {}}, "moving_variance_initializer": {"class_name": "Ones", "config": {}}, "beta_regularizer": null, "gamma_regularizer": null, "beta_constraint": null, "gamma_constraint": null}, "name": "stack6_short_1_bn", "inbound_nodes": [[["stack6_short_1_dw_conv", 0, 0, {}]]]}, {"class_name": "DepthwiseConv2D", "config": {"name": "stack6_ghost_2_cheap_dw_conv", "trainable": true, "dtype": "float32", "kernel_size": [3, 3], "strides": [1, 1], "padding": "valid", "data_format": "channels_last", "dilation_rate": [1, 1], "groups": 1, "activation": "linear", "use_bias": false, "bias_initializer": {"class_name": "Zeros", "config": {}}, "bias_regularizer": null, "activity_regularizer": null, "bias_constraint": null, "depth_multiplier": 1, "depthwise_initializer": {"class_name": "GlorotUniform", "config": {"seed": null}}, "depthwise_regularizer": null, "depthwise_constraint": null}, "name": "stack6_ghost_2_cheap_dw_conv", "inbound_nodes": [[["stack6_ghost_2_cheap_pad", 0, 0, {}]]]}, {"class_name": "Conv2D", "config": {"name": "stack6_short_2_conv", "trainable": true, "dtype": "float32", "filters": 80, "kernel_size": [1, 1], "strides": [1, 1], "padding": "valid", "data_format": "channels_last", "dilation_rate": [1, 1], "groups": 1, "activation": "linear", "use_bias": false, "kernel_initializer": {"class_name": "GlorotUniform", "config": {"seed": null}}, "bias_initializer": {"class_name": "Zeros", "config": {}}, "kernel_regularizer": null, "bias_regularizer": null, "activity_regularizer": null, "kernel_constraint": null, "bias_constraint": null}, "name": "stack6_short_2_conv", "inbound_nodes": [[["stack6_short_1_bn", 0, 0, {}]]]}, {"class_name": "BatchNormalization", "config": {"name": "stack6_ghost_2_cheap_bn", "trainable": true, "dtype": "float32", "axis": [3], "momentum": 0.9, "epsilon": 1e-05, "center": true, "scale": true, "beta_initializer": {"class_name": "Zeros", "config": {}}, "gamma_initializer": {"class_name": "Ones", "config": {}}, "moving_mean_initializer": {"class_name": "Zeros", "config": {}}, "moving_variance_initializer": {"class_name": "Ones", "config": {}}, "beta_regularizer": null, "gamma_regularizer": null, "beta_constraint": null, "gamma_constraint": null}, "name": "stack6_ghost_2_cheap_bn", "inbound_nodes": [[["stack6_ghost_2_cheap_dw_conv", 0, 0, {}]]]}, {"class_name": "BatchNormalization", "config": {"name": "stack6_short_2_bn", "trainable": true, "dtype": "float32", "axis": [3], "momentum": 0.9, "epsilon": 1e-05, "center": true, "scale": true, "beta_initializer": {"class_name": "Zeros", "config": {}}, "gamma_initializer": {"class_name": "Ones", "config": {}}, "moving_mean_initializer": {"class_name": "Zeros", "config": {}}, "moving_variance_initializer": {"class_name": "Ones", "config": {}}, "beta_regularizer": null, "gamma_regularizer": null, "beta_constraint": null, "gamma_constraint": null}, "name": "stack6_short_2_bn", "inbound_nodes": [[["stack6_short_2_conv", 0, 0, {}]]]}, {"class_name": "Concatenate", "config": {"name": "concatenate_11", "trainable": true, "dtype": "float32", "axis": -1}, "name": "concatenate_11", "inbound_nodes": [[["stack6_ghost_2_prim_bn", 0, 0, {}], ["stack6_ghost_2_cheap_bn", 0, 0, {}]]]}, {"class_name": "Add", "config": {"name": "stack6_output", "trainable": true, "dtype": "float32"}, "name": "stack6_output", "inbound_nodes": [[["stack6_short_2_bn", 0, 0, {}], ["concatenate_11", 0, 0, {}]]]}, {"class_name": "AveragePooling2D", "config": {"name": "average_pooling2d_4", "trainable": true, "dtype": "float32", "pool_size": [2, 2], "padding": "valid", "strides": [2, 2], "data_format": "channels_last"}, "name": "average_pooling2d_4", "inbound_nodes": [[["stack6_output", 0, 0, {}]]]}, {"class_name": "Conv2D", "config": {"name": "stack7_ghost_1_short_1_conv", "trainable": true, "dtype": "float32", "filters": 200, "kernel_size": [1, 1], "strides": [1, 1], "padding": "valid", "data_format": "channels_last", "dilation_rate": [1, 1], "groups": 1, "activation": "linear", "use_bias": false, "kernel_initializer": {"class_name": "GlorotUniform", "config": {"seed": null}}, "bias_initializer": {"class_name": "Zeros", "config": {}}, "kernel_regularizer": null, "bias_regularizer": null, "activity_regularizer": null, "kernel_constraint": null, "bias_constraint": null}, "name": "stack7_ghost_1_short_1_conv", "inbound_nodes": [[["average_pooling2d_4", 0, 0, {}]]]}, {"class_name": "BatchNormalization", "config": {"name": "stack7_ghost_1_short_1_bn", "trainable": true, "dtype": "float32", "axis": [3], "momentum": 0.9, "epsilon": 1e-05, "center": true, "scale": true, "beta_initializer": {"class_name": "Zeros", "config": {}}, "gamma_initializer": {"class_name": "Ones", "config": {}}, "moving_mean_initializer": {"class_name": "Zeros", "config": {}}, "moving_variance_initializer": {"class_name": "Ones", "config": {}}, "beta_regularizer": null, "gamma_regularizer": null, "beta_constraint": null, "gamma_constraint": null}, "name": "stack7_ghost_1_short_1_bn", "inbound_nodes": [[["stack7_ghost_1_short_1_conv", 0, 0, {}]]]}, {"class_name": "ZeroPadding2D", "config": {"name": "stack7_ghost_1_short_2_pad", "trainable": true, "dtype": "float32", "padding": [[0, 0], [2, 2]], "data_format": "channels_last"}, "name": "stack7_ghost_1_short_2_pad", "inbound_nodes": [[["stack7_ghost_1_short_1_bn", 0, 0, {}]]]}, {"class_name": "Conv2D", "config": {"name": "stack7_ghost_1_prim_conv", "trainable": true, "dtype": "float32", "filters": 100, "kernel_size": [1, 1], "strides": [1, 1], "padding": "valid", "data_format": "channels_last", "dilation_rate": [1, 1], "groups": 1, "activation": "linear", "use_bias": false, "kernel_initializer": {"class_name": "GlorotUniform", "config": {"seed": null}}, "bias_initializer": {"class_name": "Zeros", "config": {}}, "kernel_regularizer": null, "bias_regularizer": null, "activity_regularizer": null, "kernel_constraint": null, "bias_constraint": null}, "name": "stack7_ghost_1_prim_conv", "inbound_nodes": [[["stack6_output", 0, 0, {}]]]}, {"class_name": "DepthwiseConv2D", "config": {"name": "stack7_ghost_1_short_2_dw_conv", "trainable": true, "dtype": "float32", "kernel_size": [1, 5], "strides": [1, 1], "padding": "valid", "data_format": "channels_last", "dilation_rate": [1, 1], "groups": 1, "activation": "linear", "use_bias": false, "bias_initializer": {"class_name": "Zeros", "config": {}}, "bias_regularizer": null, "activity_regularizer": null, "bias_constraint": null, "depth_multiplier": 1, "depthwise_initializer": {"class_name": "GlorotUniform", "config": {"seed": null}}, "depthwise_regularizer": null, "depthwise_constraint": null}, "name": "stack7_ghost_1_short_2_dw_conv", "inbound_nodes": [[["stack7_ghost_1_short_2_pad", 0, 0, {}]]]}, {"class_name": "BatchNormalization", "config": {"name": "stack7_ghost_1_prim_bn", "trainable": true, "dtype": "float32", "axis": [3], "momentum": 0.9, "epsilon": 1e-05, "center": true, "scale": true, "beta_initializer": {"class_name": "Zeros", "config": {}}, "gamma_initializer": {"class_name": "Ones", "config": {}}, "moving_mean_initializer": {"class_name": "Zeros", "config": {}}, "moving_variance_initializer": {"class_name": "Ones", "config": {}}, "beta_regularizer": null, "gamma_regularizer": null, "beta_constraint": null, "gamma_constraint": null}, "name": "stack7_ghost_1_prim_bn", "inbound_nodes": [[["stack7_ghost_1_prim_conv", 0, 0, {}]]]}, {"class_name": "BatchNormalization", "config": {"name": "stack7_ghost_1_short_2_bn", "trainable": true, "dtype": "float32", "axis": [3], "momentum": 0.9, "epsilon": 1e-05, "center": true, "scale": true, "beta_initializer": {"class_name": "Zeros", "config": {}}, "gamma_initializer": {"class_name": "Ones", "config": {}}, "moving_mean_initializer": {"class_name": "Zeros", "config": {}}, "moving_variance_initializer": {"class_name": "Ones", "config": {}}, "beta_regularizer": null, "gamma_regularizer": null, "beta_constraint": null, "gamma_constraint": null}, "name": "stack7_ghost_1_short_2_bn", "inbound_nodes": [[["stack7_ghost_1_short_2_dw_conv", 0, 0, {}]]]}, {"class_name": "Activation", "config": {"name": "stack7_ghost_1_prim_relu", "trainable": true, "dtype": "float32", "activation": "relu"}, "name": "stack7_ghost_1_prim_relu", "inbound_nodes": [[["stack7_ghost_1_prim_bn", 0, 0, {}]]]}, {"class_name": "ZeroPadding2D", "config": {"name": "stack7_ghost_1_short_3_pad", "trainable": true, "dtype": "float32", "padding": [[2, 2], [0, 0]], "data_format": "channels_last"}, "name": "stack7_ghost_1_short_3_pad", "inbound_nodes": [[["stack7_ghost_1_short_2_bn", 0, 0, {}]]]}, {"class_name": "ZeroPadding2D", "config": {"name": "stack7_ghost_1_cheap_pad", "trainable": true, "dtype": "float32", "padding": [[1, 1], [1, 1]], "data_format": "channels_last"}, "name": "stack7_ghost_1_cheap_pad", "inbound_nodes": [[["stack7_ghost_1_prim_relu", 0, 0, {}]]]}, {"class_name": "DepthwiseConv2D", "config": {"name": "stack7_ghost_1_short_3_dw_conv", "trainable": true, "dtype": "float32", "kernel_size": [5, 1], "strides": [1, 1], "padding": "valid", "data_format": "channels_last", "dilation_rate": [1, 1], "groups": 1, "activation": "linear", "use_bias": false, "bias_initializer": {"class_name": "Zeros", "config": {}}, "bias_regularizer": null, "activity_regularizer": null, "bias_constraint": null, "depth_multiplier": 1, "depthwise_initializer": {"class_name": "GlorotUniform", "config": {"seed": null}}, "depthwise_regularizer": null, "depthwise_constraint": null}, "name": "stack7_ghost_1_short_3_dw_conv", "inbound_nodes": [[["stack7_ghost_1_short_3_pad", 0, 0, {}]]]}, {"class_name": "DepthwiseConv2D", "config": {"name": "stack7_ghost_1_cheap_dw_conv", "trainable": true, "dtype": "float32", "kernel_size": [3, 3], "strides": [1, 1], "padding": "valid", "data_format": "channels_last", "dilation_rate": [1, 1], "groups": 1, "activation": "linear", "use_bias": false, "bias_initializer": {"class_name": "Zeros", "config": {}}, "bias_regularizer": null, "activity_regularizer": null, "bias_constraint": null, "depth_multiplier": 1, "depthwise_initializer": {"class_name": "GlorotUniform", "config": {"seed": null}}, "depthwise_regularizer": null, "depthwise_constraint": null}, "name": "stack7_ghost_1_cheap_dw_conv", "inbound_nodes": [[["stack7_ghost_1_cheap_pad", 0, 0, {}]]]}, {"class_name": "BatchNormalization", "config": {"name": "stack7_ghost_1_short_3_bn", "trainable": true, "dtype": "float32", "axis": [3], "momentum": 0.9, "epsilon": 1e-05, "center": true, "scale": true, "beta_initializer": {"class_name": "Zeros", "config": {}}, "gamma_initializer": {"class_name": "Ones", "config": {}}, "moving_mean_initializer": {"class_name": "Zeros", "config": {}}, "moving_variance_initializer": {"class_name": "Ones", "config": {}}, "beta_regularizer": null, "gamma_regularizer": null, "beta_constraint": null, "gamma_constraint": null}, "name": "stack7_ghost_1_short_3_bn", "inbound_nodes": [[["stack7_ghost_1_short_3_dw_conv", 0, 0, {}]]]}, {"class_name": "TFOpLambda", "config": {"name": "tf.compat.v1.shape_4", "trainable": true, "dtype": "float32", "function": "compat.v1.shape"}, "name": "tf.compat.v1.shape_4", "inbound_nodes": [["stack6_output", 0, 0, {"name": null, "out_type": "int32"}]]}, {"class_name": "BatchNormalization", "config": {"name": "stack7_ghost_1_cheap_bn", "trainable": true, "dtype": "float32", "axis": [3], "momentum": 0.9, "epsilon": 1e-05, "center": true, "scale": true, "beta_initializer": {"class_name": "Zeros", "config": {}}, "gamma_initializer": {"class_name": "Ones", "config": {}}, "moving_mean_initializer": {"class_name": "Zeros", "config": {}}, "moving_variance_initializer": {"class_name": "Ones", "config": {}}, "beta_regularizer": null, "gamma_regularizer": null, "beta_constraint": null, "gamma_constraint": null}, "name": "stack7_ghost_1_cheap_bn", "inbound_nodes": [[["stack7_ghost_1_cheap_dw_conv", 0, 0, {}]]]}, {"class_name": "Activation", "config": {"name": "stack7_ghost_1_short_sigmoid", "trainable": true, "dtype": "float32", "activation": "sigmoid"}, "name": "stack7_ghost_1_short_sigmoid", "inbound_nodes": [[["stack7_ghost_1_short_3_bn", 0, 0, {}]]]}, {"class_name": "SlicingOpLambda", "config": {"name": "tf.__operators__.getitem_4", "trainable": true, "dtype": "float32", "function": "__operators__.getitem"}, "name": "tf.__operators__.getitem_4", "inbound_nodes": [["tf.compat.v1.shape_4", 0, 0, {"slice_spec": {"start": 1, "stop": -1, "step": null}}]]}, {"class_name": "Activation", "config": {"name": "stack7_ghost_1_cheap_relu", "trainable": true, "dtype": "float32", "activation": "relu"}, "name": "stack7_ghost_1_cheap_relu", "inbound_nodes": [[["stack7_ghost_1_cheap_bn", 0, 0, {}]]]}, {"class_name": "TFOpLambda", "config": {"name": "tf.image.resize_4", "trainable": true, "dtype": "float32", "function": "image.resize"}, "name": "tf.image.resize_4", "inbound_nodes": [["stack7_ghost_1_short_sigmoid", 0, 0, {"size": ["tf.__operators__.getitem_4", 0, 0], "antialias": false, "method": "nearest"}]]}, {"class_name": "Concatenate", "config": {"name": "concatenate_12", "trainable": true, "dtype": "float32", "axis": -1}, "name": "concatenate_12", "inbound_nodes": [[["stack7_ghost_1_prim_relu", 0, 0, {}], ["stack7_ghost_1_cheap_relu", 0, 0, {}]]]}, {"class_name": "Multiply", "config": {"name": "multiply_4", "trainable": true, "dtype": "float32"}, "name": "multiply_4", "inbound_nodes": [[["tf.image.resize_4", 0, 0, {}], ["concatenate_12", 0, 0, {}]]]}, {"class_name": "Conv2D", "config": {"name": "stack7_ghost_2_prim_conv", "trainable": true, "dtype": "float32", "filters": 40, "kernel_size": [1, 1], "strides": [1, 1], "padding": "valid", "data_format": "channels_last", "dilation_rate": [1, 1], "groups": 1, "activation": "linear", "use_bias": false, "kernel_initializer": {"class_name": "GlorotUniform", "config": {"seed": null}}, "bias_initializer": {"class_name": "Zeros", "config": {}}, "kernel_regularizer": null, "bias_regularizer": null, "activity_regularizer": null, "kernel_constraint": null, "bias_constraint": null}, "name": "stack7_ghost_2_prim_conv", "inbound_nodes": [[["multiply_4", 0, 0, {}]]]}, {"class_name": "BatchNormalization", "config": {"name": "stack7_ghost_2_prim_bn", "trainable": true, "dtype": "float32", "axis": [3], "momentum": 0.9, "epsilon": 1e-05, "center": true, "scale": true, "beta_initializer": {"class_name": "Zeros", "config": {}}, "gamma_initializer": {"class_name": "Ones", "config": {}}, "moving_mean_initializer": {"class_name": "Zeros", "config": {}}, "moving_variance_initializer": {"class_name": "Ones", "config": {}}, "beta_regularizer": null, "gamma_regularizer": null, "beta_constraint": null, "gamma_constraint": null}, "name": "stack7_ghost_2_prim_bn", "inbound_nodes": [[["stack7_ghost_2_prim_conv", 0, 0, {}]]]}, {"class_name": "ZeroPadding2D", "config": {"name": "stack7_ghost_2_cheap_pad", "trainable": true, "dtype": "float32", "padding": [[1, 1], [1, 1]], "data_format": "channels_last"}, "name": "stack7_ghost_2_cheap_pad", "inbound_nodes": [[["stack7_ghost_2_prim_bn", 0, 0, {}]]]}, {"class_name": "DepthwiseConv2D", "config": {"name": "stack7_ghost_2_cheap_dw_conv", "trainable": true, "dtype": "float32", "kernel_size": [3, 3], "strides": [1, 1], "padding": "valid", "data_format": "channels_last", "dilation_rate": [1, 1], "groups": 1, "activation": "linear", "use_bias": false, "bias_initializer": {"class_name": "Zeros", "config": {}}, "bias_regularizer": null, "activity_regularizer": null, "bias_constraint": null, "depth_multiplier": 1, "depthwise_initializer": {"class_name": "GlorotUniform", "config": {"seed": null}}, "depthwise_regularizer": null, "depthwise_constraint": null}, "name": "stack7_ghost_2_cheap_dw_conv", "inbound_nodes": [[["stack7_ghost_2_cheap_pad", 0, 0, {}]]]}, {"class_name": "BatchNormalization", "config": {"name": "stack7_ghost_2_cheap_bn", "trainable": true, "dtype": "float32", "axis": [3], "momentum": 0.9, "epsilon": 1e-05, "center": true, "scale": true, "beta_initializer": {"class_name": "Zeros", "config": {}}, "gamma_initializer": {"class_name": "Ones", "config": {}}, "moving_mean_initializer": {"class_name": "Zeros", "config": {}}, "moving_variance_initializer": {"class_name": "Ones", "config": {}}, "beta_regularizer": null, "gamma_regularizer": null, "beta_constraint": null, "gamma_constraint": null}, "name": "stack7_ghost_2_cheap_bn", "inbound_nodes": [[["stack7_ghost_2_cheap_dw_conv", 0, 0, {}]]]}, {"class_name": "Concatenate", "config": {"name": "concatenate_13", "trainable": true, "dtype": "float32", "axis": -1}, "name": "concatenate_13", "inbound_nodes": [[["stack7_ghost_2_prim_bn", 0, 0, {}], ["stack7_ghost_2_cheap_bn", 0, 0, {}]]]}, {"class_name": "Add", "config": {"name": "stack7_output", "trainable": true, "dtype": "float32"}, "name": "stack7_output", "inbound_nodes": [[["stack6_output", 0, 0, {}], ["concatenate_13", 0, 0, {}]]]}, {"class_name": "AveragePooling2D", "config": {"name": "average_pooling2d_5", "trainable": true, "dtype": "float32", "pool_size": [2, 2], "padding": "valid", "strides": [2, 2], "data_format": "channels_last"}, "name": "average_pooling2d_5", "inbound_nodes": [[["stack7_output", 0, 0, {}]]]}, {"class_name": "Conv2D", "config": {"name": "stack8_ghost_1_short_1_conv", "trainable": true, "dtype": "float32", "filters": 184, "kernel_size": [1, 1], "strides": [1, 1], "padding": "valid", "data_format": "channels_last", "dilation_rate": [1, 1], "groups": 1, "activation": "linear", "use_bias": false, "kernel_initializer": {"class_name": "GlorotUniform", "config": {"seed": null}}, "bias_initializer": {"class_name": "Zeros", "config": {}}, "kernel_regularizer": null, "bias_regularizer": null, "activity_regularizer": null, "kernel_constraint": null, "bias_constraint": null}, "name": "stack8_ghost_1_short_1_conv", "inbound_nodes": [[["average_pooling2d_5", 0, 0, {}]]]}, {"class_name": "BatchNormalization", "config": {"name": "stack8_ghost_1_short_1_bn", "trainable": true, "dtype": "float32", "axis": [3], "momentum": 0.9, "epsilon": 1e-05, "center": true, "scale": true, "beta_initializer": {"class_name": "Zeros", "config": {}}, "gamma_initializer": {"class_name": "Ones", "config": {}}, "moving_mean_initializer": {"class_name": "Zeros", "config": {}}, "moving_variance_initializer": {"class_name": "Ones", "config": {}}, "beta_regularizer": null, "gamma_regularizer": null, "beta_constraint": null, "gamma_constraint": null}, "name": "stack8_ghost_1_short_1_bn", "inbound_nodes": [[["stack8_ghost_1_short_1_conv", 0, 0, {}]]]}, {"class_name": "ZeroPadding2D", "config": {"name": "stack8_ghost_1_short_2_pad", "trainable": true, "dtype": "float32", "padding": [[0, 0], [2, 2]], "data_format": "channels_last"}, "name": "stack8_ghost_1_short_2_pad", "inbound_nodes": [[["stack8_ghost_1_short_1_bn", 0, 0, {}]]]}, {"class_name": "Conv2D", "config": {"name": "stack8_ghost_1_prim_conv", "trainable": true, "dtype": "float32", "filters": 92, "kernel_size": [1, 1], "strides": [1, 1], "padding": "valid", "data_format": "channels_last", "dilation_rate": [1, 1], "groups": 1, "activation": "linear", "use_bias": false, "kernel_initializer": {"class_name": "GlorotUniform", "config": {"seed": null}}, "bias_initializer": {"class_name": "Zeros", "config": {}}, "kernel_regularizer": null, "bias_regularizer": null, "activity_regularizer": null, "kernel_constraint": null, "bias_constraint": null}, "name": "stack8_ghost_1_prim_conv", "inbound_nodes": [[["stack7_output", 0, 0, {}]]]}, {"class_name": "DepthwiseConv2D", "config": {"name": "stack8_ghost_1_short_2_dw_conv", "trainable": true, "dtype": "float32", "kernel_size": [1, 5], "strides": [1, 1], "padding": "valid", "data_format": "channels_last", "dilation_rate": [1, 1], "groups": 1, "activation": "linear", "use_bias": false, "bias_initializer": {"class_name": "Zeros", "config": {}}, "bias_regularizer": null, "activity_regularizer": null, "bias_constraint": null, "depth_multiplier": 1, "depthwise_initializer": {"class_name": "GlorotUniform", "config": {"seed": null}}, "depthwise_regularizer": null, "depthwise_constraint": null}, "name": "stack8_ghost_1_short_2_dw_conv", "inbound_nodes": [[["stack8_ghost_1_short_2_pad", 0, 0, {}]]]}, {"class_name": "BatchNormalization", "config": {"name": "stack8_ghost_1_prim_bn", "trainable": true, "dtype": "float32", "axis": [3], "momentum": 0.9, "epsilon": 1e-05, "center": true, "scale": true, "beta_initializer": {"class_name": "Zeros", "config": {}}, "gamma_initializer": {"class_name": "Ones", "config": {}}, "moving_mean_initializer": {"class_name": "Zeros", "config": {}}, "moving_variance_initializer": {"class_name": "Ones", "config": {}}, "beta_regularizer": null, "gamma_regularizer": null, "beta_constraint": null, "gamma_constraint": null}, "name": "stack8_ghost_1_prim_bn", "inbound_nodes": [[["stack8_ghost_1_prim_conv", 0, 0, {}]]]}, {"class_name": "BatchNormalization", "config": {"name": "stack8_ghost_1_short_2_bn", "trainable": true, "dtype": "float32", "axis": [3], "momentum": 0.9, "epsilon": 1e-05, "center": true, "scale": true, "beta_initializer": {"class_name": "Zeros", "config": {}}, "gamma_initializer": {"class_name": "Ones", "config": {}}, "moving_mean_initializer": {"class_name": "Zeros", "config": {}}, "moving_variance_initializer": {"class_name": "Ones", "config": {}}, "beta_regularizer": null, "gamma_regularizer": null, "beta_constraint": null, "gamma_constraint": null}, "name": "stack8_ghost_1_short_2_bn", "inbound_nodes": [[["stack8_ghost_1_short_2_dw_conv", 0, 0, {}]]]}, {"class_name": "Activation", "config": {"name": "stack8_ghost_1_prim_relu", "trainable": true, "dtype": "float32", "activation": "relu"}, "name": "stack8_ghost_1_prim_relu", "inbound_nodes": [[["stack8_ghost_1_prim_bn", 0, 0, {}]]]}, {"class_name": "ZeroPadding2D", "config": {"name": "stack8_ghost_1_short_3_pad", "trainable": true, "dtype": "float32", "padding": [[2, 2], [0, 0]], "data_format": "channels_last"}, "name": "stack8_ghost_1_short_3_pad", "inbound_nodes": [[["stack8_ghost_1_short_2_bn", 0, 0, {}]]]}, {"class_name": "ZeroPadding2D", "config": {"name": "stack8_ghost_1_cheap_pad", "trainable": true, "dtype": "float32", "padding": [[1, 1], [1, 1]], "data_format": "channels_last"}, "name": "stack8_ghost_1_cheap_pad", "inbound_nodes": [[["stack8_ghost_1_prim_relu", 0, 0, {}]]]}, {"class_name": "DepthwiseConv2D", "config": {"name": "stack8_ghost_1_short_3_dw_conv", "trainable": true, "dtype": "float32", "kernel_size": [5, 1], "strides": [1, 1], "padding": "valid", "data_format": "channels_last", "dilation_rate": [1, 1], "groups": 1, "activation": "linear", "use_bias": false, "bias_initializer": {"class_name": "Zeros", "config": {}}, "bias_regularizer": null, "activity_regularizer": null, "bias_constraint": null, "depth_multiplier": 1, "depthwise_initializer": {"class_name": "GlorotUniform", "config": {"seed": null}}, "depthwise_regularizer": null, "depthwise_constraint": null}, "name": "stack8_ghost_1_short_3_dw_conv", "inbound_nodes": [[["stack8_ghost_1_short_3_pad", 0, 0, {}]]]}, {"class_name": "DepthwiseConv2D", "config": {"name": "stack8_ghost_1_cheap_dw_conv", "trainable": true, "dtype": "float32", "kernel_size": [3, 3], "strides": [1, 1], "padding": "valid", "data_format": "channels_last", "dilation_rate": [1, 1], "groups": 1, "activation": "linear", "use_bias": false, "bias_initializer": {"class_name": "Zeros", "config": {}}, "bias_regularizer": null, "activity_regularizer": null, "bias_constraint": null, "depth_multiplier": 1, "depthwise_initializer": {"class_name": "GlorotUniform", "config": {"seed": null}}, "depthwise_regularizer": null, "depthwise_constraint": null}, "name": "stack8_ghost_1_cheap_dw_conv", "inbound_nodes": [[["stack8_ghost_1_cheap_pad", 0, 0, {}]]]}, {"class_name": "BatchNormalization", "config": {"name": "stack8_ghost_1_short_3_bn", "trainable": true, "dtype": "float32", "axis": [3], "momentum": 0.9, "epsilon": 1e-05, "center": true, "scale": true, "beta_initializer": {"class_name": "Zeros", "config": {}}, "gamma_initializer": {"class_name": "Ones", "config": {}}, "moving_mean_initializer": {"class_name": "Zeros", "config": {}}, "moving_variance_initializer": {"class_name": "Ones", "config": {}}, "beta_regularizer": null, "gamma_regularizer": null, "beta_constraint": null, "gamma_constraint": null}, "name": "stack8_ghost_1_short_3_bn", "inbound_nodes": [[["stack8_ghost_1_short_3_dw_conv", 0, 0, {}]]]}, {"class_name": "TFOpLambda", "config": {"name": "tf.compat.v1.shape_5", "trainable": true, "dtype": "float32", "function": "compat.v1.shape"}, "name": "tf.compat.v1.shape_5", "inbound_nodes": [["stack7_output", 0, 0, {"name": null, "out_type": "int32"}]]}, {"class_name": "BatchNormalization", "config": {"name": "stack8_ghost_1_cheap_bn", "trainable": true, "dtype": "float32", "axis": [3], "momentum": 0.9, "epsilon": 1e-05, "center": true, "scale": true, "beta_initializer": {"class_name": "Zeros", "config": {}}, "gamma_initializer": {"class_name": "Ones", "config": {}}, "moving_mean_initializer": {"class_name": "Zeros", "config": {}}, "moving_variance_initializer": {"class_name": "Ones", "config": {}}, "beta_regularizer": null, "gamma_regularizer": null, "beta_constraint": null, "gamma_constraint": null}, "name": "stack8_ghost_1_cheap_bn", "inbound_nodes": [[["stack8_ghost_1_cheap_dw_conv", 0, 0, {}]]]}, {"class_name": "Activation", "config": {"name": "stack8_ghost_1_short_sigmoid", "trainable": true, "dtype": "float32", "activation": "sigmoid"}, "name": "stack8_ghost_1_short_sigmoid", "inbound_nodes": [[["stack8_ghost_1_short_3_bn", 0, 0, {}]]]}, {"class_name": "SlicingOpLambda", "config": {"name": "tf.__operators__.getitem_5", "trainable": true, "dtype": "float32", "function": "__operators__.getitem"}, "name": "tf.__operators__.getitem_5", "inbound_nodes": [["tf.compat.v1.shape_5", 0, 0, {"slice_spec": {"start": 1, "stop": -1, "step": null}}]]}, {"class_name": "Activation", "config": {"name": "stack8_ghost_1_cheap_relu", "trainable": true, "dtype": "float32", "activation": "relu"}, "name": "stack8_ghost_1_cheap_relu", "inbound_nodes": [[["stack8_ghost_1_cheap_bn", 0, 0, {}]]]}, {"class_name": "TFOpLambda", "config": {"name": "tf.image.resize_5", "trainable": true, "dtype": "float32", "function": "image.resize"}, "name": "tf.image.resize_5", "inbound_nodes": [["stack8_ghost_1_short_sigmoid", 0, 0, {"size": ["tf.__operators__.getitem_5", 0, 0], "antialias": false, "method": "nearest"}]]}, {"class_name": "Concatenate", "config": {"name": "concatenate_14", "trainable": true, "dtype": "float32", "axis": -1}, "name": "concatenate_14", "inbound_nodes": [[["stack8_ghost_1_prim_relu", 0, 0, {}], ["stack8_ghost_1_cheap_relu", 0, 0, {}]]]}, {"class_name": "Multiply", "config": {"name": "multiply_5", "trainable": true, "dtype": "float32"}, "name": "multiply_5", "inbound_nodes": [[["tf.image.resize_5", 0, 0, {}], ["concatenate_14", 0, 0, {}]]]}, {"class_name": "Conv2D", "config": {"name": "stack8_ghost_2_prim_conv", "trainable": true, "dtype": "float32", "filters": 40, "kernel_size": [1, 1], "strides": [1, 1], "padding": "valid", "data_format": "channels_last", "dilation_rate": [1, 1], "groups": 1, "activation": "linear", "use_bias": false, "kernel_initializer": {"class_name": "GlorotUniform", "config": {"seed": null}}, "bias_initializer": {"class_name": "Zeros", "config": {}}, "kernel_regularizer": null, "bias_regularizer": null, "activity_regularizer": null, "kernel_constraint": null, "bias_constraint": null}, "name": "stack8_ghost_2_prim_conv", "inbound_nodes": [[["multiply_5", 0, 0, {}]]]}, {"class_name": "BatchNormalization", "config": {"name": "stack8_ghost_2_prim_bn", "trainable": true, "dtype": "float32", "axis": [3], "momentum": 0.9, "epsilon": 1e-05, "center": true, "scale": true, "beta_initializer": {"class_name": "Zeros", "config": {}}, "gamma_initializer": {"class_name": "Ones", "config": {}}, "moving_mean_initializer": {"class_name": "Zeros", "config": {}}, "moving_variance_initializer": {"class_name": "Ones", "config": {}}, "beta_regularizer": null, "gamma_regularizer": null, "beta_constraint": null, "gamma_constraint": null}, "name": "stack8_ghost_2_prim_bn", "inbound_nodes": [[["stack8_ghost_2_prim_conv", 0, 0, {}]]]}, {"class_name": "ZeroPadding2D", "config": {"name": "stack8_ghost_2_cheap_pad", "trainable": true, "dtype": "float32", "padding": [[1, 1], [1, 1]], "data_format": "channels_last"}, "name": "stack8_ghost_2_cheap_pad", "inbound_nodes": [[["stack8_ghost_2_prim_bn", 0, 0, {}]]]}, {"class_name": "DepthwiseConv2D", "config": {"name": "stack8_ghost_2_cheap_dw_conv", "trainable": true, "dtype": "float32", "kernel_size": [3, 3], "strides": [1, 1], "padding": "valid", "data_format": "channels_last", "dilation_rate": [1, 1], "groups": 1, "activation": "linear", "use_bias": false, "bias_initializer": {"class_name": "Zeros", "config": {}}, "bias_regularizer": null, "activity_regularizer": null, "bias_constraint": null, "depth_multiplier": 1, "depthwise_initializer": {"class_name": "GlorotUniform", "config": {"seed": null}}, "depthwise_regularizer": null, "depthwise_constraint": null}, "name": "stack8_ghost_2_cheap_dw_conv", "inbound_nodes": [[["stack8_ghost_2_cheap_pad", 0, 0, {}]]]}, {"class_name": "BatchNormalization", "config": {"name": "stack8_ghost_2_cheap_bn", "trainable": true, "dtype": "float32", "axis": [3], "momentum": 0.9, "epsilon": 1e-05, "center": true, "scale": true, "beta_initializer": {"class_name": "Zeros", "config": {}}, "gamma_initializer": {"class_name": "Ones", "config": {}}, "moving_mean_initializer": {"class_name": "Zeros", "config": {}}, "moving_variance_initializer": {"class_name": "Ones", "config": {}}, "beta_regularizer": null, "gamma_regularizer": null, "beta_constraint": null, "gamma_constraint": null}, "name": "stack8_ghost_2_cheap_bn", "inbound_nodes": [[["stack8_ghost_2_cheap_dw_conv", 0, 0, {}]]]}, {"class_name": "Concatenate", "config": {"name": "concatenate_15", "trainable": true, "dtype": "float32", "axis": -1}, "name": "concatenate_15", "inbound_nodes": [[["stack8_ghost_2_prim_bn", 0, 0, {}], ["stack8_ghost_2_cheap_bn", 0, 0, {}]]]}, {"class_name": "Add", "config": {"name": "stack8_output", "trainable": true, "dtype": "float32"}, "name": "stack8_output", "inbound_nodes": [[["stack7_output", 0, 0, {}], ["concatenate_15", 0, 0, {}]]]}, {"class_name": "AveragePooling2D", "config": {"name": "average_pooling2d_6", "trainable": true, "dtype": "float32", "pool_size": [2, 2], "padding": "valid", "strides": [2, 2], "data_format": "channels_last"}, "name": "average_pooling2d_6", "inbound_nodes": [[["stack8_output", 0, 0, {}]]]}, {"class_name": "Conv2D", "config": {"name": "stack9_ghost_1_short_1_conv", "trainable": true, "dtype": "float32", "filters": 184, "kernel_size": [1, 1], "strides": [1, 1], "padding": "valid", "data_format": "channels_last", "dilation_rate": [1, 1], "groups": 1, "activation": "linear", "use_bias": false, "kernel_initializer": {"class_name": "GlorotUniform", "config": {"seed": null}}, "bias_initializer": {"class_name": "Zeros", "config": {}}, "kernel_regularizer": null, "bias_regularizer": null, "activity_regularizer": null, "kernel_constraint": null, "bias_constraint": null}, "name": "stack9_ghost_1_short_1_conv", "inbound_nodes": [[["average_pooling2d_6", 0, 0, {}]]]}, {"class_name": "BatchNormalization", "config": {"name": "stack9_ghost_1_short_1_bn", "trainable": true, "dtype": "float32", "axis": [3], "momentum": 0.9, "epsilon": 1e-05, "center": true, "scale": true, "beta_initializer": {"class_name": "Zeros", "config": {}}, "gamma_initializer": {"class_name": "Ones", "config": {}}, "moving_mean_initializer": {"class_name": "Zeros", "config": {}}, "moving_variance_initializer": {"class_name": "Ones", "config": {}}, "beta_regularizer": null, "gamma_regularizer": null, "beta_constraint": null, "gamma_constraint": null}, "name": "stack9_ghost_1_short_1_bn", "inbound_nodes": [[["stack9_ghost_1_short_1_conv", 0, 0, {}]]]}, {"class_name": "ZeroPadding2D", "config": {"name": "stack9_ghost_1_short_2_pad", "trainable": true, "dtype": "float32", "padding": [[0, 0], [2, 2]], "data_format": "channels_last"}, "name": "stack9_ghost_1_short_2_pad", "inbound_nodes": [[["stack9_ghost_1_short_1_bn", 0, 0, {}]]]}, {"class_name": "Conv2D", "config": {"name": "stack9_ghost_1_prim_conv", "trainable": true, "dtype": "float32", "filters": 92, "kernel_size": [1, 1], "strides": [1, 1], "padding": "valid", "data_format": "channels_last", "dilation_rate": [1, 1], "groups": 1, "activation": "linear", "use_bias": false, "kernel_initializer": {"class_name": "GlorotUniform", "config": {"seed": null}}, "bias_initializer": {"class_name": "Zeros", "config": {}}, "kernel_regularizer": null, "bias_regularizer": null, "activity_regularizer": null, "kernel_constraint": null, "bias_constraint": null}, "name": "stack9_ghost_1_prim_conv", "inbound_nodes": [[["stack8_output", 0, 0, {}]]]}, {"class_name": "DepthwiseConv2D", "config": {"name": "stack9_ghost_1_short_2_dw_conv", "trainable": true, "dtype": "float32", "kernel_size": [1, 5], "strides": [1, 1], "padding": "valid", "data_format": "channels_last", "dilation_rate": [1, 1], "groups": 1, "activation": "linear", "use_bias": false, "bias_initializer": {"class_name": "Zeros", "config": {}}, "bias_regularizer": null, "activity_regularizer": null, "bias_constraint": null, "depth_multiplier": 1, "depthwise_initializer": {"class_name": "GlorotUniform", "config": {"seed": null}}, "depthwise_regularizer": null, "depthwise_constraint": null}, "name": "stack9_ghost_1_short_2_dw_conv", "inbound_nodes": [[["stack9_ghost_1_short_2_pad", 0, 0, {}]]]}, {"class_name": "BatchNormalization", "config": {"name": "stack9_ghost_1_prim_bn", "trainable": true, "dtype": "float32", "axis": [3], "momentum": 0.9, "epsilon": 1e-05, "center": true, "scale": true, "beta_initializer": {"class_name": "Zeros", "config": {}}, "gamma_initializer": {"class_name": "Ones", "config": {}}, "moving_mean_initializer": {"class_name": "Zeros", "config": {}}, "moving_variance_initializer": {"class_name": "Ones", "config": {}}, "beta_regularizer": null, "gamma_regularizer": null, "beta_constraint": null, "gamma_constraint": null}, "name": "stack9_ghost_1_prim_bn", "inbound_nodes": [[["stack9_ghost_1_prim_conv", 0, 0, {}]]]}, {"class_name": "BatchNormalization", "config": {"name": "stack9_ghost_1_short_2_bn", "trainable": true, "dtype": "float32", "axis": [3], "momentum": 0.9, "epsilon": 1e-05, "center": true, "scale": true, "beta_initializer": {"class_name": "Zeros", "config": {}}, "gamma_initializer": {"class_name": "Ones", "config": {}}, "moving_mean_initializer": {"class_name": "Zeros", "config": {}}, "moving_variance_initializer": {"class_name": "Ones", "config": {}}, "beta_regularizer": null, "gamma_regularizer": null, "beta_constraint": null, "gamma_constraint": null}, "name": "stack9_ghost_1_short_2_bn", "inbound_nodes": [[["stack9_ghost_1_short_2_dw_conv", 0, 0, {}]]]}, {"class_name": "Activation", "config": {"name": "stack9_ghost_1_prim_relu", "trainable": true, "dtype": "float32", "activation": "relu"}, "name": "stack9_ghost_1_prim_relu", "inbound_nodes": [[["stack9_ghost_1_prim_bn", 0, 0, {}]]]}, {"class_name": "ZeroPadding2D", "config": {"name": "stack9_ghost_1_short_3_pad", "trainable": true, "dtype": "float32", "padding": [[2, 2], [0, 0]], "data_format": "channels_last"}, "name": "stack9_ghost_1_short_3_pad", "inbound_nodes": [[["stack9_ghost_1_short_2_bn", 0, 0, {}]]]}, {"class_name": "ZeroPadding2D", "config": {"name": "stack9_ghost_1_cheap_pad", "trainable": true, "dtype": "float32", "padding": [[1, 1], [1, 1]], "data_format": "channels_last"}, "name": "stack9_ghost_1_cheap_pad", "inbound_nodes": [[["stack9_ghost_1_prim_relu", 0, 0, {}]]]}, {"class_name": "DepthwiseConv2D", "config": {"name": "stack9_ghost_1_short_3_dw_conv", "trainable": true, "dtype": "float32", "kernel_size": [5, 1], "strides": [1, 1], "padding": "valid", "data_format": "channels_last", "dilation_rate": [1, 1], "groups": 1, "activation": "linear", "use_bias": false, "bias_initializer": {"class_name": "Zeros", "config": {}}, "bias_regularizer": null, "activity_regularizer": null, "bias_constraint": null, "depth_multiplier": 1, "depthwise_initializer": {"class_name": "GlorotUniform", "config": {"seed": null}}, "depthwise_regularizer": null, "depthwise_constraint": null}, "name": "stack9_ghost_1_short_3_dw_conv", "inbound_nodes": [[["stack9_ghost_1_short_3_pad", 0, 0, {}]]]}, {"class_name": "DepthwiseConv2D", "config": {"name": "stack9_ghost_1_cheap_dw_conv", "trainable": true, "dtype": "float32", "kernel_size": [3, 3], "strides": [1, 1], "padding": "valid", "data_format": "channels_last", "dilation_rate": [1, 1], "groups": 1, "activation": "linear", "use_bias": false, "bias_initializer": {"class_name": "Zeros", "config": {}}, "bias_regularizer": null, "activity_regularizer": null, "bias_constraint": null, "depth_multiplier": 1, "depthwise_initializer": {"class_name": "GlorotUniform", "config": {"seed": null}}, "depthwise_regularizer": null, "depthwise_constraint": null}, "name": "stack9_ghost_1_cheap_dw_conv", "inbound_nodes": [[["stack9_ghost_1_cheap_pad", 0, 0, {}]]]}, {"class_name": "BatchNormalization", "config": {"name": "stack9_ghost_1_short_3_bn", "trainable": true, "dtype": "float32", "axis": [3], "momentum": 0.9, "epsilon": 1e-05, "center": true, "scale": true, "beta_initializer": {"class_name": "Zeros", "config": {}}, "gamma_initializer": {"class_name": "Ones", "config": {}}, "moving_mean_initializer": {"class_name": "Zeros", "config": {}}, "moving_variance_initializer": {"class_name": "Ones", "config": {}}, "beta_regularizer": null, "gamma_regularizer": null, "beta_constraint": null, "gamma_constraint": null}, "name": "stack9_ghost_1_short_3_bn", "inbound_nodes": [[["stack9_ghost_1_short_3_dw_conv", 0, 0, {}]]]}, {"class_name": "TFOpLambda", "config": {"name": "tf.compat.v1.shape_6", "trainable": true, "dtype": "float32", "function": "compat.v1.shape"}, "name": "tf.compat.v1.shape_6", "inbound_nodes": [["stack8_output", 0, 0, {"name": null, "out_type": "int32"}]]}, {"class_name": "BatchNormalization", "config": {"name": "stack9_ghost_1_cheap_bn", "trainable": true, "dtype": "float32", "axis": [3], "momentum": 0.9, "epsilon": 1e-05, "center": true, "scale": true, "beta_initializer": {"class_name": "Zeros", "config": {}}, "gamma_initializer": {"class_name": "Ones", "config": {}}, "moving_mean_initializer": {"class_name": "Zeros", "config": {}}, "moving_variance_initializer": {"class_name": "Ones", "config": {}}, "beta_regularizer": null, "gamma_regularizer": null, "beta_constraint": null, "gamma_constraint": null}, "name": "stack9_ghost_1_cheap_bn", "inbound_nodes": [[["stack9_ghost_1_cheap_dw_conv", 0, 0, {}]]]}, {"class_name": "Activation", "config": {"name": "stack9_ghost_1_short_sigmoid", "trainable": true, "dtype": "float32", "activation": "sigmoid"}, "name": "stack9_ghost_1_short_sigmoid", "inbound_nodes": [[["stack9_ghost_1_short_3_bn", 0, 0, {}]]]}, {"class_name": "SlicingOpLambda", "config": {"name": "tf.__operators__.getitem_6", "trainable": true, "dtype": "float32", "function": "__operators__.getitem"}, "name": "tf.__operators__.getitem_6", "inbound_nodes": [["tf.compat.v1.shape_6", 0, 0, {"slice_spec": {"start": 1, "stop": -1, "step": null}}]]}, {"class_name": "Activation", "config": {"name": "stack9_ghost_1_cheap_relu", "trainable": true, "dtype": "float32", "activation": "relu"}, "name": "stack9_ghost_1_cheap_relu", "inbound_nodes": [[["stack9_ghost_1_cheap_bn", 0, 0, {}]]]}, {"class_name": "TFOpLambda", "config": {"name": "tf.image.resize_6", "trainable": true, "dtype": "float32", "function": "image.resize"}, "name": "tf.image.resize_6", "inbound_nodes": [["stack9_ghost_1_short_sigmoid", 0, 0, {"size": ["tf.__operators__.getitem_6", 0, 0], "antialias": false, "method": "nearest"}]]}, {"class_name": "Concatenate", "config": {"name": "concatenate_16", "trainable": true, "dtype": "float32", "axis": -1}, "name": "concatenate_16", "inbound_nodes": [[["stack9_ghost_1_prim_relu", 0, 0, {}], ["stack9_ghost_1_cheap_relu", 0, 0, {}]]]}, {"class_name": "Multiply", "config": {"name": "multiply_6", "trainable": true, "dtype": "float32"}, "name": "multiply_6", "inbound_nodes": [[["tf.image.resize_6", 0, 0, {}], ["concatenate_16", 0, 0, {}]]]}, {"class_name": "Conv2D", "config": {"name": "stack9_ghost_2_prim_conv", "trainable": true, "dtype": "float32", "filters": 40, "kernel_size": [1, 1], "strides": [1, 1], "padding": "valid", "data_format": "channels_last", "dilation_rate": [1, 1], "groups": 1, "activation": "linear", "use_bias": false, "kernel_initializer": {"class_name": "GlorotUniform", "config": {"seed": null}}, "bias_initializer": {"class_name": "Zeros", "config": {}}, "kernel_regularizer": null, "bias_regularizer": null, "activity_regularizer": null, "kernel_constraint": null, "bias_constraint": null}, "name": "stack9_ghost_2_prim_conv", "inbound_nodes": [[["multiply_6", 0, 0, {}]]]}, {"class_name": "BatchNormalization", "config": {"name": "stack9_ghost_2_prim_bn", "trainable": true, "dtype": "float32", "axis": [3], "momentum": 0.9, "epsilon": 1e-05, "center": true, "scale": true, "beta_initializer": {"class_name": "Zeros", "config": {}}, "gamma_initializer": {"class_name": "Ones", "config": {}}, "moving_mean_initializer": {"class_name": "Zeros", "config": {}}, "moving_variance_initializer": {"class_name": "Ones", "config": {}}, "beta_regularizer": null, "gamma_regularizer": null, "beta_constraint": null, "gamma_constraint": null}, "name": "stack9_ghost_2_prim_bn", "inbound_nodes": [[["stack9_ghost_2_prim_conv", 0, 0, {}]]]}, {"class_name": "ZeroPadding2D", "config": {"name": "stack9_ghost_2_cheap_pad", "trainable": true, "dtype": "float32", "padding": [[1, 1], [1, 1]], "data_format": "channels_last"}, "name": "stack9_ghost_2_cheap_pad", "inbound_nodes": [[["stack9_ghost_2_prim_bn", 0, 0, {}]]]}, {"class_name": "DepthwiseConv2D", "config": {"name": "stack9_ghost_2_cheap_dw_conv", "trainable": true, "dtype": "float32", "kernel_size": [3, 3], "strides": [1, 1], "padding": "valid", "data_format": "channels_last", "dilation_rate": [1, 1], "groups": 1, "activation": "linear", "use_bias": false, "bias_initializer": {"class_name": "Zeros", "config": {}}, "bias_regularizer": null, "activity_regularizer": null, "bias_constraint": null, "depth_multiplier": 1, "depthwise_initializer": {"class_name": "GlorotUniform", "config": {"seed": null}}, "depthwise_regularizer": null, "depthwise_constraint": null}, "name": "stack9_ghost_2_cheap_dw_conv", "inbound_nodes": [[["stack9_ghost_2_cheap_pad", 0, 0, {}]]]}, {"class_name": "BatchNormalization", "config": {"name": "stack9_ghost_2_cheap_bn", "trainable": true, "dtype": "float32", "axis": [3], "momentum": 0.9, "epsilon": 1e-05, "center": true, "scale": true, "beta_initializer": {"class_name": "Zeros", "config": {}}, "gamma_initializer": {"class_name": "Ones", "config": {}}, "moving_mean_initializer": {"class_name": "Zeros", "config": {}}, "moving_variance_initializer": {"class_name": "Ones", "config": {}}, "beta_regularizer": null, "gamma_regularizer": null, "beta_constraint": null, "gamma_constraint": null}, "name": "stack9_ghost_2_cheap_bn", "inbound_nodes": [[["stack9_ghost_2_cheap_dw_conv", 0, 0, {}]]]}, {"class_name": "Concatenate", "config": {"name": "concatenate_17", "trainable": true, "dtype": "float32", "axis": -1}, "name": "concatenate_17", "inbound_nodes": [[["stack9_ghost_2_prim_bn", 0, 0, {}], ["stack9_ghost_2_cheap_bn", 0, 0, {}]]]}, {"class_name": "Add", "config": {"name": "stack9_output", "trainable": true, "dtype": "float32"}, "name": "stack9_output", "inbound_nodes": [[["stack8_output", 0, 0, {}], ["concatenate_17", 0, 0, {}]]]}, {"class_name": "AveragePooling2D", "config": {"name": "average_pooling2d_7", "trainable": true, "dtype": "float32", "pool_size": [2, 2], "padding": "valid", "strides": [2, 2], "data_format": "channels_last"}, "name": "average_pooling2d_7", "inbound_nodes": [[["stack9_output", 0, 0, {}]]]}, {"class_name": "Conv2D", "config": {"name": "stack10_ghost_1_short_1_conv", "trainable": true, "dtype": "float32", "filters": 480, "kernel_size": [1, 1], "strides": [1, 1], "padding": "valid", "data_format": "channels_last", "dilation_rate": [1, 1], "groups": 1, "activation": "linear", "use_bias": false, "kernel_initializer": {"class_name": "GlorotUniform", "config": {"seed": null}}, "bias_initializer": {"class_name": "Zeros", "config": {}}, "kernel_regularizer": null, "bias_regularizer": null, "activity_regularizer": null, "kernel_constraint": null, "bias_constraint": null}, "name": "stack10_ghost_1_short_1_conv", "inbound_nodes": [[["average_pooling2d_7", 0, 0, {}]]]}, {"class_name": "BatchNormalization", "config": {"name": "stack10_ghost_1_short_1_bn", "trainable": true, "dtype": "float32", "axis": [3], "momentum": 0.9, "epsilon": 1e-05, "center": true, "scale": true, "beta_initializer": {"class_name": "Zeros", "config": {}}, "gamma_initializer": {"class_name": "Ones", "config": {}}, "moving_mean_initializer": {"class_name": "Zeros", "config": {}}, "moving_variance_initializer": {"class_name": "Ones", "config": {}}, "beta_regularizer": null, "gamma_regularizer": null, "beta_constraint": null, "gamma_constraint": null}, "name": "stack10_ghost_1_short_1_bn", "inbound_nodes": [[["stack10_ghost_1_short_1_conv", 0, 0, {}]]]}, {"class_name": "ZeroPadding2D", "config": {"name": "stack10_ghost_1_short_2_pad", "trainable": true, "dtype": "float32", "padding": [[0, 0], [2, 2]], "data_format": "channels_last"}, "name": "stack10_ghost_1_short_2_pad", "inbound_nodes": [[["stack10_ghost_1_short_1_bn", 0, 0, {}]]]}, {"class_name": "Conv2D", "config": {"name": "stack10_ghost_1_prim_conv", "trainable": true, "dtype": "float32", "filters": 240, "kernel_size": [1, 1], "strides": [1, 1], "padding": "valid", "data_format": "channels_last", "dilation_rate": [1, 1], "groups": 1, "activation": "linear", "use_bias": false, "kernel_initializer": {"class_name": "GlorotUniform", "config": {"seed": null}}, "bias_initializer": {"class_name": "Zeros", "config": {}}, "kernel_regularizer": null, "bias_regularizer": null, "activity_regularizer": null, "kernel_constraint": null, "bias_constraint": null}, "name": "stack10_ghost_1_prim_conv", "inbound_nodes": [[["stack9_output", 0, 0, {}]]]}, {"class_name": "DepthwiseConv2D", "config": {"name": "stack10_ghost_1_short_2_dw_conv", "trainable": true, "dtype": "float32", "kernel_size": [1, 5], "strides": [1, 1], "padding": "valid", "data_format": "channels_last", "dilation_rate": [1, 1], "groups": 1, "activation": "linear", "use_bias": false, "bias_initializer": {"class_name": "Zeros", "config": {}}, "bias_regularizer": null, "activity_regularizer": null, "bias_constraint": null, "depth_multiplier": 1, "depthwise_initializer": {"class_name": "GlorotUniform", "config": {"seed": null}}, "depthwise_regularizer": null, "depthwise_constraint": null}, "name": "stack10_ghost_1_short_2_dw_conv", "inbound_nodes": [[["stack10_ghost_1_short_2_pad", 0, 0, {}]]]}, {"class_name": "BatchNormalization", "config": {"name": "stack10_ghost_1_prim_bn", "trainable": true, "dtype": "float32", "axis": [3], "momentum": 0.9, "epsilon": 1e-05, "center": true, "scale": true, "beta_initializer": {"class_name": "Zeros", "config": {}}, "gamma_initializer": {"class_name": "Ones", "config": {}}, "moving_mean_initializer": {"class_name": "Zeros", "config": {}}, "moving_variance_initializer": {"class_name": "Ones", "config": {}}, "beta_regularizer": null, "gamma_regularizer": null, "beta_constraint": null, "gamma_constraint": null}, "name": "stack10_ghost_1_prim_bn", "inbound_nodes": [[["stack10_ghost_1_prim_conv", 0, 0, {}]]]}, {"class_name": "BatchNormalization", "config": {"name": "stack10_ghost_1_short_2_bn", "trainable": true, "dtype": "float32", "axis": [3], "momentum": 0.9, "epsilon": 1e-05, "center": true, "scale": true, "beta_initializer": {"class_name": "Zeros", "config": {}}, "gamma_initializer": {"class_name": "Ones", "config": {}}, "moving_mean_initializer": {"class_name": "Zeros", "config": {}}, "moving_variance_initializer": {"class_name": "Ones", "config": {}}, "beta_regularizer": null, "gamma_regularizer": null, "beta_constraint": null, "gamma_constraint": null}, "name": "stack10_ghost_1_short_2_bn", "inbound_nodes": [[["stack10_ghost_1_short_2_dw_conv", 0, 0, {}]]]}, {"class_name": "Activation", "config": {"name": "stack10_ghost_1_prim_relu", "trainable": true, "dtype": "float32", "activation": "relu"}, "name": "stack10_ghost_1_prim_relu", "inbound_nodes": [[["stack10_ghost_1_prim_bn", 0, 0, {}]]]}, {"class_name": "ZeroPadding2D", "config": {"name": "stack10_ghost_1_short_3_pad", "trainable": true, "dtype": "float32", "padding": [[2, 2], [0, 0]], "data_format": "channels_last"}, "name": "stack10_ghost_1_short_3_pad", "inbound_nodes": [[["stack10_ghost_1_short_2_bn", 0, 0, {}]]]}, {"class_name": "ZeroPadding2D", "config": {"name": "stack10_ghost_1_cheap_pad", "trainable": true, "dtype": "float32", "padding": [[1, 1], [1, 1]], "data_format": "channels_last"}, "name": "stack10_ghost_1_cheap_pad", "inbound_nodes": [[["stack10_ghost_1_prim_relu", 0, 0, {}]]]}, {"class_name": "DepthwiseConv2D", "config": {"name": "stack10_ghost_1_short_3_dw_conv", "trainable": true, "dtype": "float32", "kernel_size": [5, 1], "strides": [1, 1], "padding": "valid", "data_format": "channels_last", "dilation_rate": [1, 1], "groups": 1, "activation": "linear", "use_bias": false, "bias_initializer": {"class_name": "Zeros", "config": {}}, "bias_regularizer": null, "activity_regularizer": null, "bias_constraint": null, "depth_multiplier": 1, "depthwise_initializer": {"class_name": "GlorotUniform", "config": {"seed": null}}, "depthwise_regularizer": null, "depthwise_constraint": null}, "name": "stack10_ghost_1_short_3_dw_conv", "inbound_nodes": [[["stack10_ghost_1_short_3_pad", 0, 0, {}]]]}, {"class_name": "DepthwiseConv2D", "config": {"name": "stack10_ghost_1_cheap_dw_conv", "trainable": true, "dtype": "float32", "kernel_size": [3, 3], "strides": [1, 1], "padding": "valid", "data_format": "channels_last", "dilation_rate": [1, 1], "groups": 1, "activation": "linear", "use_bias": false, "bias_initializer": {"class_name": "Zeros", "config": {}}, "bias_regularizer": null, "activity_regularizer": null, "bias_constraint": null, "depth_multiplier": 1, "depthwise_initializer": {"class_name": "GlorotUniform", "config": {"seed": null}}, "depthwise_regularizer": null, "depthwise_constraint": null}, "name": "stack10_ghost_1_cheap_dw_conv", "inbound_nodes": [[["stack10_ghost_1_cheap_pad", 0, 0, {}]]]}, {"class_name": "BatchNormalization", "config": {"name": "stack10_ghost_1_short_3_bn", "trainable": true, "dtype": "float32", "axis": [3], "momentum": 0.9, "epsilon": 1e-05, "center": true, "scale": true, "beta_initializer": {"class_name": "Zeros", "config": {}}, "gamma_initializer": {"class_name": "Ones", "config": {}}, "moving_mean_initializer": {"class_name": "Zeros", "config": {}}, "moving_variance_initializer": {"class_name": "Ones", "config": {}}, "beta_regularizer": null, "gamma_regularizer": null, "beta_constraint": null, "gamma_constraint": null}, "name": "stack10_ghost_1_short_3_bn", "inbound_nodes": [[["stack10_ghost_1_short_3_dw_conv", 0, 0, {}]]]}, {"class_name": "TFOpLambda", "config": {"name": "tf.compat.v1.shape_7", "trainable": true, "dtype": "float32", "function": "compat.v1.shape"}, "name": "tf.compat.v1.shape_7", "inbound_nodes": [["stack9_output", 0, 0, {"name": null, "out_type": "int32"}]]}, {"class_name": "BatchNormalization", "config": {"name": "stack10_ghost_1_cheap_bn", "trainable": true, "dtype": "float32", "axis": [3], "momentum": 0.9, "epsilon": 1e-05, "center": true, "scale": true, "beta_initializer": {"class_name": "Zeros", "config": {}}, "gamma_initializer": {"class_name": "Ones", "config": {}}, "moving_mean_initializer": {"class_name": "Zeros", "config": {}}, "moving_variance_initializer": {"class_name": "Ones", "config": {}}, "beta_regularizer": null, "gamma_regularizer": null, "beta_constraint": null, "gamma_constraint": null}, "name": "stack10_ghost_1_cheap_bn", "inbound_nodes": [[["stack10_ghost_1_cheap_dw_conv", 0, 0, {}]]]}, {"class_name": "Activation", "config": {"name": "stack10_ghost_1_short_sigmoid", "trainable": true, "dtype": "float32", "activation": "sigmoid"}, "name": "stack10_ghost_1_short_sigmoid", "inbound_nodes": [[["stack10_ghost_1_short_3_bn", 0, 0, {}]]]}, {"class_name": "SlicingOpLambda", "config": {"name": "tf.__operators__.getitem_7", "trainable": true, "dtype": "float32", "function": "__operators__.getitem"}, "name": "tf.__operators__.getitem_7", "inbound_nodes": [["tf.compat.v1.shape_7", 0, 0, {"slice_spec": {"start": 1, "stop": -1, "step": null}}]]}, {"class_name": "Activation", "config": {"name": "stack10_ghost_1_cheap_relu", "trainable": true, "dtype": "float32", "activation": "relu"}, "name": "stack10_ghost_1_cheap_relu", "inbound_nodes": [[["stack10_ghost_1_cheap_bn", 0, 0, {}]]]}, {"class_name": "TFOpLambda", "config": {"name": "tf.image.resize_7", "trainable": true, "dtype": "float32", "function": "image.resize"}, "name": "tf.image.resize_7", "inbound_nodes": [["stack10_ghost_1_short_sigmoid", 0, 0, {"size": ["tf.__operators__.getitem_7", 0, 0], "antialias": false, "method": "nearest"}]]}, {"class_name": "Concatenate", "config": {"name": "concatenate_18", "trainable": true, "dtype": "float32", "axis": -1}, "name": "concatenate_18", "inbound_nodes": [[["stack10_ghost_1_prim_relu", 0, 0, {}], ["stack10_ghost_1_cheap_relu", 0, 0, {}]]]}, {"class_name": "Multiply", "config": {"name": "multiply_7", "trainable": true, "dtype": "float32"}, "name": "multiply_7", "inbound_nodes": [[["tf.image.resize_7", 0, 0, {}], ["concatenate_18", 0, 0, {}]]]}, {"class_name": "TFOpLambda", "config": {"name": "tf.math.reduce_mean_2", "trainable": true, "dtype": "float32", "function": "math.reduce_mean"}, "name": "tf.math.reduce_mean_2", "inbound_nodes": [["multiply_7", 0, 0, {"axis": [1, 2], "keepdims": true}]]}, {"class_name": "Conv2D", "config": {"name": "stack10_se_1_conv", "trainable": true, "dtype": "float32", "filters": 120, "kernel_size": [1, 1], "strides": [1, 1], "padding": "valid", "data_format": "channels_last", "dilation_rate": [1, 1], "groups": 1, "activation": "linear", "use_bias": true, "kernel_initializer": {"class_name": "GlorotUniform", "config": {"seed": null}}, "bias_initializer": {"class_name": "Zeros", "config": {}}, "kernel_regularizer": null, "bias_regularizer": null, "activity_regularizer": null, "kernel_constraint": null, "bias_constraint": null}, "name": "stack10_se_1_conv", "inbound_nodes": [[["tf.math.reduce_mean_2", 0, 0, {}]]]}, {"class_name": "Activation", "config": {"name": "stack10_se_relu", "trainable": true, "dtype": "float32", "activation": "relu"}, "name": "stack10_se_relu", "inbound_nodes": [[["stack10_se_1_conv", 0, 0, {}]]]}, {"class_name": "Conv2D", "config": {"name": "stack10_se_2_conv", "trainable": true, "dtype": "float32", "filters": 480, "kernel_size": [1, 1], "strides": [1, 1], "padding": "valid", "data_format": "channels_last", "dilation_rate": [1, 1], "groups": 1, "activation": "linear", "use_bias": true, "kernel_initializer": {"class_name": "GlorotUniform", "config": {"seed": null}}, "bias_initializer": {"class_name": "Zeros", "config": {}}, "kernel_regularizer": null, "bias_regularizer": null, "activity_regularizer": null, "kernel_constraint": null, "bias_constraint": null}, "name": "stack10_se_2_conv", "inbound_nodes": [[["stack10_se_relu", 0, 0, {}]]]}, {"class_name": "Activation", "config": {"name": "stack10_se_hard_sigmoid_torch", "trainable": true, "dtype": "float32", "activation": "kecamCommon>hard_sigmoid_torch"}, "name": "stack10_se_hard_sigmoid_torch", "inbound_nodes": [[["stack10_se_2_conv", 0, 0, {}]]]}, {"class_name": "Multiply", "config": {"name": "stack10_se_out", "trainable": true, "dtype": "float32"}, "name": "stack10_se_out", "inbound_nodes": [[["multiply_7", 0, 0, {}], ["stack10_se_hard_sigmoid_torch", 0, 0, {}]]]}, {"class_name": "Conv2D", "config": {"name": "stack10_ghost_2_prim_conv", "trainable": true, "dtype": "float32", "filters": 56, "kernel_size": [1, 1], "strides": [1, 1], "padding": "valid", "data_format": "channels_last", "dilation_rate": [1, 1], "groups": 1, "activation": "linear", "use_bias": false, "kernel_initializer": {"class_name": "GlorotUniform", "config": {"seed": null}}, "bias_initializer": {"class_name": "Zeros", "config": {}}, "kernel_regularizer": null, "bias_regularizer": null, "activity_regularizer": null, "kernel_constraint": null, "bias_constraint": null}, "name": "stack10_ghost_2_prim_conv", "inbound_nodes": [[["stack10_se_out", 0, 0, {}]]]}, {"class_name": "ZeroPadding2D", "config": {"name": "stack10_short_1_pad", "trainable": true, "dtype": "float32", "padding": [[1, 1], [1, 1]], "data_format": "channels_last"}, "name": "stack10_short_1_pad", "inbound_nodes": [[["stack9_output", 0, 0, {}]]]}, {"class_name": "BatchNormalization", "config": {"name": "stack10_ghost_2_prim_bn", "trainable": true, "dtype": "float32", "axis": [3], "momentum": 0.9, "epsilon": 1e-05, "center": true, "scale": true, "beta_initializer": {"class_name": "Zeros", "config": {}}, "gamma_initializer": {"class_name": "Ones", "config": {}}, "moving_mean_initializer": {"class_name": "Zeros", "config": {}}, "moving_variance_initializer": {"class_name": "Ones", "config": {}}, "beta_regularizer": null, "gamma_regularizer": null, "beta_constraint": null, "gamma_constraint": null}, "name": "stack10_ghost_2_prim_bn", "inbound_nodes": [[["stack10_ghost_2_prim_conv", 0, 0, {}]]]}, {"class_name": "DepthwiseConv2D", "config": {"name": "stack10_short_1_dw_conv", "trainable": true, "dtype": "float32", "kernel_size": [3, 3], "strides": [1, 1], "padding": "valid", "data_format": "channels_last", "dilation_rate": [1, 1], "groups": 1, "activation": "linear", "use_bias": false, "bias_initializer": {"class_name": "Zeros", "config": {}}, "bias_regularizer": null, "activity_regularizer": null, "bias_constraint": null, "depth_multiplier": 1, "depthwise_initializer": {"class_name": "GlorotUniform", "config": {"seed": null}}, "depthwise_regularizer": null, "depthwise_constraint": null}, "name": "stack10_short_1_dw_conv", "inbound_nodes": [[["stack10_short_1_pad", 0, 0, {}]]]}, {"class_name": "ZeroPadding2D", "config": {"name": "stack10_ghost_2_cheap_pad", "trainable": true, "dtype": "float32", "padding": [[1, 1], [1, 1]], "data_format": "channels_last"}, "name": "stack10_ghost_2_cheap_pad", "inbound_nodes": [[["stack10_ghost_2_prim_bn", 0, 0, {}]]]}, {"class_name": "BatchNormalization", "config": {"name": "stack10_short_1_bn", "trainable": true, "dtype": "float32", "axis": [3], "momentum": 0.9, "epsilon": 1e-05, "center": true, "scale": true, "beta_initializer": {"class_name": "Zeros", "config": {}}, "gamma_initializer": {"class_name": "Ones", "config": {}}, "moving_mean_initializer": {"class_name": "Zeros", "config": {}}, "moving_variance_initializer": {"class_name": "Ones", "config": {}}, "beta_regularizer": null, "gamma_regularizer": null, "beta_constraint": null, "gamma_constraint": null}, "name": "stack10_short_1_bn", "inbound_nodes": [[["stack10_short_1_dw_conv", 0, 0, {}]]]}, {"class_name": "DepthwiseConv2D", "config": {"name": "stack10_ghost_2_cheap_dw_conv", "trainable": true, "dtype": "float32", "kernel_size": [3, 3], "strides": [1, 1], "padding": "valid", "data_format": "channels_last", "dilation_rate": [1, 1], "groups": 1, "activation": "linear", "use_bias": false, "bias_initializer": {"class_name": "Zeros", "config": {}}, "bias_regularizer": null, "activity_regularizer": null, "bias_constraint": null, "depth_multiplier": 1, "depthwise_initializer": {"class_name": "GlorotUniform", "config": {"seed": null}}, "depthwise_regularizer": null, "depthwise_constraint": null}, "name": "stack10_ghost_2_cheap_dw_conv", "inbound_nodes": [[["stack10_ghost_2_cheap_pad", 0, 0, {}]]]}, {"class_name": "Conv2D", "config": {"name": "stack10_short_2_conv", "trainable": true, "dtype": "float32", "filters": 112, "kernel_size": [1, 1], "strides": [1, 1], "padding": "valid", "data_format": "channels_last", "dilation_rate": [1, 1], "groups": 1, "activation": "linear", "use_bias": false, "kernel_initializer": {"class_name": "GlorotUniform", "config": {"seed": null}}, "bias_initializer": {"class_name": "Zeros", "config": {}}, "kernel_regularizer": null, "bias_regularizer": null, "activity_regularizer": null, "kernel_constraint": null, "bias_constraint": null}, "name": "stack10_short_2_conv", "inbound_nodes": [[["stack10_short_1_bn", 0, 0, {}]]]}, {"class_name": "BatchNormalization", "config": {"name": "stack10_ghost_2_cheap_bn", "trainable": true, "dtype": "float32", "axis": [3], "momentum": 0.9, "epsilon": 1e-05, "center": true, "scale": true, "beta_initializer": {"class_name": "Zeros", "config": {}}, "gamma_initializer": {"class_name": "Ones", "config": {}}, "moving_mean_initializer": {"class_name": "Zeros", "config": {}}, "moving_variance_initializer": {"class_name": "Ones", "config": {}}, "beta_regularizer": null, "gamma_regularizer": null, "beta_constraint": null, "gamma_constraint": null}, "name": "stack10_ghost_2_cheap_bn", "inbound_nodes": [[["stack10_ghost_2_cheap_dw_conv", 0, 0, {}]]]}, {"class_name": "BatchNormalization", "config": {"name": "stack10_short_2_bn", "trainable": true, "dtype": "float32", "axis": [3], "momentum": 0.9, "epsilon": 1e-05, "center": true, "scale": true, "beta_initializer": {"class_name": "Zeros", "config": {}}, "gamma_initializer": {"class_name": "Ones", "config": {}}, "moving_mean_initializer": {"class_name": "Zeros", "config": {}}, "moving_variance_initializer": {"class_name": "Ones", "config": {}}, "beta_regularizer": null, "gamma_regularizer": null, "beta_constraint": null, "gamma_constraint": null}, "name": "stack10_short_2_bn", "inbound_nodes": [[["stack10_short_2_conv", 0, 0, {}]]]}, {"class_name": "Concatenate", "config": {"name": "concatenate_19", "trainable": true, "dtype": "float32", "axis": -1}, "name": "concatenate_19", "inbound_nodes": [[["stack10_ghost_2_prim_bn", 0, 0, {}], ["stack10_ghost_2_cheap_bn", 0, 0, {}]]]}, {"class_name": "Add", "config": {"name": "stack10_output", "trainable": true, "dtype": "float32"}, "name": "stack10_output", "inbound_nodes": [[["stack10_short_2_bn", 0, 0, {}], ["concatenate_19", 0, 0, {}]]]}, {"class_name": "AveragePooling2D", "config": {"name": "average_pooling2d_8", "trainable": true, "dtype": "float32", "pool_size": [2, 2], "padding": "valid", "strides": [2, 2], "data_format": "channels_last"}, "name": "average_pooling2d_8", "inbound_nodes": [[["stack10_output", 0, 0, {}]]]}, {"class_name": "Conv2D", "config": {"name": "stack11_ghost_1_short_1_conv", "trainable": true, "dtype": "float32", "filters": 672, "kernel_size": [1, 1], "strides": [1, 1], "padding": "valid", "data_format": "channels_last", "dilation_rate": [1, 1], "groups": 1, "activation": "linear", "use_bias": false, "kernel_initializer": {"class_name": "GlorotUniform", "config": {"seed": null}}, "bias_initializer": {"class_name": "Zeros", "config": {}}, "kernel_regularizer": null, "bias_regularizer": null, "activity_regularizer": null, "kernel_constraint": null, "bias_constraint": null}, "name": "stack11_ghost_1_short_1_conv", "inbound_nodes": [[["average_pooling2d_8", 0, 0, {}]]]}, {"class_name": "BatchNormalization", "config": {"name": "stack11_ghost_1_short_1_bn", "trainable": true, "dtype": "float32", "axis": [3], "momentum": 0.9, "epsilon": 1e-05, "center": true, "scale": true, "beta_initializer": {"class_name": "Zeros", "config": {}}, "gamma_initializer": {"class_name": "Ones", "config": {}}, "moving_mean_initializer": {"class_name": "Zeros", "config": {}}, "moving_variance_initializer": {"class_name": "Ones", "config": {}}, "beta_regularizer": null, "gamma_regularizer": null, "beta_constraint": null, "gamma_constraint": null}, "name": "stack11_ghost_1_short_1_bn", "inbound_nodes": [[["stack11_ghost_1_short_1_conv", 0, 0, {}]]]}, {"class_name": "ZeroPadding2D", "config": {"name": "stack11_ghost_1_short_2_pad", "trainable": true, "dtype": "float32", "padding": [[0, 0], [2, 2]], "data_format": "channels_last"}, "name": "stack11_ghost_1_short_2_pad", "inbound_nodes": [[["stack11_ghost_1_short_1_bn", 0, 0, {}]]]}, {"class_name": "Conv2D", "config": {"name": "stack11_ghost_1_prim_conv", "trainable": true, "dtype": "float32", "filters": 336, "kernel_size": [1, 1], "strides": [1, 1], "padding": "valid", "data_format": "channels_last", "dilation_rate": [1, 1], "groups": 1, "activation": "linear", "use_bias": false, "kernel_initializer": {"class_name": "GlorotUniform", "config": {"seed": null}}, "bias_initializer": {"class_name": "Zeros", "config": {}}, "kernel_regularizer": null, "bias_regularizer": null, "activity_regularizer": null, "kernel_constraint": null, "bias_constraint": null}, "name": "stack11_ghost_1_prim_conv", "inbound_nodes": [[["stack10_output", 0, 0, {}]]]}, {"class_name": "DepthwiseConv2D", "config": {"name": "stack11_ghost_1_short_2_dw_conv", "trainable": true, "dtype": "float32", "kernel_size": [1, 5], "strides": [1, 1], "padding": "valid", "data_format": "channels_last", "dilation_rate": [1, 1], "groups": 1, "activation": "linear", "use_bias": false, "bias_initializer": {"class_name": "Zeros", "config": {}}, "bias_regularizer": null, "activity_regularizer": null, "bias_constraint": null, "depth_multiplier": 1, "depthwise_initializer": {"class_name": "GlorotUniform", "config": {"seed": null}}, "depthwise_regularizer": null, "depthwise_constraint": null}, "name": "stack11_ghost_1_short_2_dw_conv", "inbound_nodes": [[["stack11_ghost_1_short_2_pad", 0, 0, {}]]]}, {"class_name": "BatchNormalization", "config": {"name": "stack11_ghost_1_prim_bn", "trainable": true, "dtype": "float32", "axis": [3], "momentum": 0.9, "epsilon": 1e-0…
stack10_short_2_bn/beta", "shape": [112], "dtype": "float32"}, {"name": "stack10_short_2_bn/moving_mean", "shape": [112], "dtype": "float32"}, {"name": "stack10_short_2_bn/moving_variance", "shape": [112], "dtype": "float32"}, {"name": "stack10_short_2_conv/kernel", "shape": [1, 1, 80, 112], "dtype": "float32"}, {"name": "stack11_ghost_1_cheap_bn/gamma", "shape": [336], "dtype": "float32"}, {"name": "stack11_ghost_1_cheap_bn/beta", "shape": [336], "dtype": "float32"}, {"name": "stack11_ghost_1_cheap_bn/moving_mean", "shape": [336], "dtype": "float32"}, {"name": "stack11_ghost_1_cheap_bn/moving_variance", "shape": [336], "dtype": "float32"}, {"name": "stack11_ghost_1_cheap_dw_conv/depthwise_kernel", "shape": [3, 3, 336, 1], "dtype": "float32"}, {"name": "stack11_ghost_1_prim_bn/gamma", "shape": [336], "dtype": "float32"}, {"name": "stack11_ghost_1_prim_bn/beta", "shape": [336], "dtype": "float32"}, {"name": "stack11_ghost_1_prim_bn/moving_mean", "shape": [336], "dtype": "float32"}, {"name": "stack11_ghost_1_prim_bn/moving_variance", "shape": [336], "dtype": "float32"}, {"name": "stack11_ghost_1_prim_conv/kernel", "shape": [1, 1, 112, 336], "dtype": "float32"}, {"name": "stack11_ghost_1_short_1_bn/gamma", "shape": [672], "dtype": "float32"}, {"name": "stack11_ghost_1_short_1_bn/beta", "shape": [672], "dtype": "float32"}, {"name": "stack11_ghost_1_short_1_bn/moving_mean", "shape": [672], "dtype": "float32"}, {"name": "stack11_ghost_1_short_1_bn/moving_variance", "shape": [672], "dtype": "float32"}, {"name": "stack11_ghost_1_short_1_conv/kernel", "shape": [1, 1, 112, 672], "dtype": "float32"}, {"name": "stack11_ghost_1_short_2_bn/gamma", "shape": [672], "dtype": "float32"}, {"name": "stack11_ghost_1_short_2_bn/beta", "shape": [672], "dtype": "float32"}, {"name": "stack11_ghost_1_short_2_bn/moving_mean", "shape": [672], "dtype": "float32"}, {"name": "stack11_ghost_1_short_2_bn/moving_variance", "shape": [672], "dtype": "float32"}, {"name": "stack11_ghost_1_short_2_dw_conv/depthwise_kernel", "shape": [1, 5, 672, 1], "dtype": "float32"}, {"name": "stack11_ghost_1_short_3_bn/gamma", "shape": [672], "dtype": "float32"}, {"name": "stack11_ghost_1_short_3_bn/beta", "shape": [672], "dtype": "float32"}, {"name": "stack11_ghost_1_short_3_bn/moving_mean", "shape": [672], "dtype": "float32"}, {"name": "stack11_ghost_1_short_3_bn/moving_variance", "shape": [672], "dtype": "float32"}, {"name": "stack11_ghost_1_short_3_dw_conv/depthwise_kernel", "shape": [5, 1, 672, 1], "dtype": "float32"}, {"name": "stack11_ghost_2_cheap_bn/gamma", "shape": [56], "dtype": "float32"}, {"name": "stack11_ghost_2_cheap_bn/beta", "shape": [56], "dtype": "float32"}, {"name": "stack11_ghost_2_cheap_bn/moving_mean", "shape": [56], "dtype": "float32"}, {"name": "stack11_ghost_2_cheap_bn/moving_variance", "shape": [56], "dtype": "float32"}, {"name": "stack11_ghost_2_cheap_dw_conv/depthwise_kernel", "shape": [3, 3, 56, 1], "dtype": "float32"}, {"name": "stack11_ghost_2_prim_bn/gamma", "shape": [56], "dtype": "float32"}, {"name": "stack11_ghost_2_prim_bn/beta", "shape": [56], "dtype": "float32"}, {"name": "stack11_ghost_2_prim_bn/moving_mean", "shape": [56], "dtype": "float32"}, {"name": "stack11_ghost_2_prim_bn/moving_variance", "shape": [56], "dtype": "float32"}, {"name": "stack11_ghost_2_prim_conv/kernel", "shape": [1, 1, 672, 56], "dtype": "float32"}, {"name": "stack11_se_1_conv/kernel", "shape": [1, 1, 672, 168], "dtype": "float32"}, {"name": "stack11_se_1_conv/bias", "shape": [168], "dtype": "float32"}, {"name": "stack11_se_2_conv/kernel", "shape": [1, 1, 168, 672], "dtype": "float32"}, {"name": "stack11_se_2_conv/bias", "shape": [672], "dtype": "float32"}, {"name": "stack12_down_bn/gamma", "shape": [672], "dtype": "float32"}, {"name": "stack12_down_bn/beta", "shape": [672], "dtype": "float32"}, {"name": "stack12_down_bn/moving_mean", "shape": [672], "dtype": "float32"}, {"name": "stack12_down_bn/moving_variance", "shape": [672], "dtype": "float32"}, {"name": "stack12_down_dw_conv/depthwise_kernel", "shape": [5, 5, 672, 1], "dtype": "float32"}, {"name": "stack12_ghost_1_cheap_bn/gamma", "shape": [336], "dtype": "float32"}, {"name": "stack12_ghost_1_cheap_bn/beta", "shape": [336], "dtype": "float32"}, {"name": "stack12_ghost_1_cheap_bn/moving_mean", "shape": [336], "dtype": "float32"}, {"name": "stack12_ghost_1_cheap_bn/moving_variance", "shape": [336], "dtype": "float32"}, {"name": "stack12_ghost_1_cheap_dw_conv/depthwise_kernel", "shape": [3, 3, 336, 1], "dtype": "float32"}, {"name": "stack12_ghost_1_prim_bn/gamma", "shape": [336], "dtype": "float32"}, {"name": "stack12_ghost_1_prim_bn/beta", "shape": [336], "dtype": "float32"}, {"name": "stack12_ghost_1_prim_bn/moving_mean", "shape": [336], "dtype": "float32"}, {"name": "stack12_ghost_1_prim_bn/moving_variance", "shape": [336], "dtype": "float32"}, {"name": "stack12_ghost_1_prim_conv/kernel", "shape": [1, 1, 112, 336], "dtype": "float32"}, {"name": "stack12_ghost_1_short_1_bn/gamma", "shape": [672], "dtype": "float32"}, {"name": "stack12_ghost_1_short_1_bn/beta", "shape": [672], "dtype": "float32"}, {"name": "stack12_ghost_1_short_1_bn/moving_mean", "shape": [672], "dtype": "float32"}, {"name": "stack12_ghost_1_short_1_bn/moving_variance", "shape": [672], "dtype": "float32"}, {"name": "stack12_ghost_1_short_1_conv/kernel", "shape": [1, 1, 112, 672], "dtype": "float32"}, {"name": "stack12_ghost_1_short_2_bn/gamma", "shape": [672], "dtype": "float32"}, {"name": "stack12_ghost_1_short_2_bn/beta", "shape": [672], "dtype": "float32"}, {"name": "stack12_ghost_1_short_2_bn/moving_mean", "shape": [672], "dtype": "float32"}, {"name": "stack12_ghost_1_short_2_bn/moving_variance", "shape": [672], "dtype": "float32"}, {"name": "stack12_ghost_1_short_2_dw_conv/depthwise_kernel", "shape": [1, 5, 672, 1], "dtype": "float32"}, {"name": "stack12_ghost_1_short_3_bn/gamma", "shape": [672], "dtype": "float32"}, {"name": "stack12_ghost_1_short_3_bn/beta", "shape": [672], "dtype": "float32"}, {"name": "stack12_ghost_1_short_3_bn/moving_mean", "shape": [672], "dtype": "float32"}, {"name": "stack12_ghost_1_short_3_bn/moving_variance", "shape": [672], "dtype": "float32"}, {"name": "stack12_ghost_1_short_3_dw_conv/depthwise_kernel", "shape": [5, 1, 672, 1], "dtype": "float32"}, {"name": "stack12_ghost_2_cheap_bn/gamma", "shape": [80], "dtype": "float32"}, {"name": "stack12_ghost_2_cheap_bn/beta", "shape": [80], "dtype": "float32"}, {"name": "stack12_ghost_2_cheap_bn/moving_mean", "shape": [80], "dtype": "float32"}, {"name": "stack12_ghost_2_cheap_bn/moving_variance", "shape": [80], "dtype": "float32"}, {"name": "stack12_ghost_2_cheap_dw_conv/depthwise_kernel", "shape": [3, 3, 80, 1], "dtype": "float32"}, {"name": "stack12_ghost_2_prim_bn/gamma", "shape": [80], "dtype": "float32"}, {"name": "stack12_ghost_2_prim_bn/beta", "shape": [80], "dtype": "float32"}, {"name": "stack12_ghost_2_prim_bn/moving_mean", "shape": [80], "dtype": "float32"}, {"name": "stack12_ghost_2_prim_bn/moving_variance", "shape": [80], "dtype": "float32"}, {"name": "stack12_ghost_2_prim_conv/kernel", "shape": [1, 1, 672, 80], "dtype": "float32"}, {"name": "stack12_se_1_conv/kernel", "shape": [1, 1, 672, 168], "dtype": "float32"}, {"name": "stack12_se_1_conv/bias", "shape": [168], "dtype": "float32"}, {"name": "stack12_se_2_conv/kernel", "shape": [1, 1, 168, 672], "dtype": "float32"}, {"name": "stack12_se_2_conv/bias", "shape": [672], "dtype": "float32"}, {"name": "stack12_short_1_bn/gamma", "shape": [112], "dtype": "float32"}, {"name": "stack12_short_1_bn/beta", "shape": [112], "dtype": "float32"}, {"name": "stack12_short_1_bn/moving_mean", "shape": [112], "dtype": "float32"}, {"name": "stack12_short_1_bn/moving_variance", "shape": [112], "dtype": "float32"}, {"name": "stack12_short_1_dw_conv/depthwise_kernel", "shape": [5, 5, 112, 1], "dtype": "float32"}, {"name": "stack12_short_2_bn/gamma", "shape": [160], "dtype": "float32"}, {"name": "stack12_short_2_bn/beta", "shape": [160], "dtype": "float32"}, {"name": "stack12_short_2_bn/moving_mean", "shape": [160], "dtype": "float32"}, {"name": "stack12_short_2_bn/moving_variance", "shape": [160], "dtype": "float32"}, {"name": "stack12_short_2_conv/kernel", "shape": [1, 1, 112, 160], "dtype": "float32"}, {"name": "stack13_ghost_1_cheap_bn/gamma", "shape": [480], "dtype": "float32"}, {"name": "stack13_ghost_1_cheap_bn/beta", "shape": [480], "dtype": "float32"}, {"name": "stack13_ghost_1_cheap_bn/moving_mean", "shape": [480], "dtype": "float32"}, {"name": "stack13_ghost_1_cheap_bn/moving_variance", "shape": [480], "dtype": "float32"}, {"name": "stack13_ghost_1_cheap_dw_conv/depthwise_kernel", "shape": [3, 3, 480, 1], "dtype": "float32"}, {"name": "stack13_ghost_1_prim_bn/gamma", "shape": [480], "dtype": "float32"}, {"name": "stack13_ghost_1_prim_bn/beta", "shape": [480], "dtype": "float32"}, {"name": "stack13_ghost_1_prim_bn/moving_mean", "shape": [480], "dtype": "float32"}, {"name": "stack13_ghost_1_prim_bn/moving_variance", "shape": [480], "dtype": "float32"}, {"name": "stack13_ghost_1_prim_conv/kernel", "shape": [1, 1, 160, 480], "dtype": "float32"}, {"name": "stack13_ghost_1_short_1_bn/gamma", "shape": [960], "dtype": "float32"}, {"name": "stack13_ghost_1_short_1_bn/beta", "shape": [960], "dtype": "float32"}, {"name": "stack13_ghost_1_short_1_bn/moving_mean", "shape": [960], "dtype": "float32"}, {"name": "stack13_ghost_1_short_1_bn/moving_variance", "shape": [960], "dtype": "float32"}, {"name": "stack13_ghost_1_short_1_conv/kernel", "shape": [1, 1, 160, 960], "dtype": "float32"}, {"name": "stack13_ghost_1_short_2_bn/gamma", "shape": [960], "dtype": "float32"}, {"name": "stack13_ghost_1_short_2_bn/beta", "shape": [960], "dtype": "float32"}, {"name": "stack13_ghost_1_short_2_bn/moving_mean", "shape": [960], "dtype": "float32"}, {"name": "stack13_ghost_1_short_2_bn/moving_variance", "shape": [960], "dtype": "float32"}, {"name": "stack13_ghost_1_short_2_dw_conv/depthwise_kernel", "shape": [1, 5, 960, 1], "dtype": "float32"}, {"name": "stack13_ghost_1_short_3_bn/gamma", "shape": [960], "dtype": "float32"}, {"name": "stack13_ghost_1_short_3_bn/beta", "shape": [960], "dtype": "float32"}, {"name": "stack13_ghost_1_short_3_bn/moving_mean", "shape": [960], "dtype": "float32"}, {"name": "stack13_ghost_1_short_3_bn/moving_variance", "shape": [960], "dtype": "float32"}, {"name": "stack13_ghost_1_short_3_dw_conv/depthwise_kernel", "shape": [5, 1, 960, 1], "dtype": "float32"}, {"name": "stack13_ghost_2_cheap_bn/gamma", "shape": [80], "dtype": "float32"}, {"name": "stack13_ghost_2_cheap_bn/beta", "shape": [80], "dtype": "float32"}, {"name": "stack13_ghost_2_cheap_bn/moving_mean", "shape": [80], "dtype": "float32"}, {"name": "stack13_ghost_2_cheap_bn/moving_variance", "shape": [80], "dtype": "float32"}, {"name": "stack13_ghost_2_cheap_dw_conv/depthwise_kernel", "shape": [3, 3, 80, 1], "dtype": "float32"}, {"name": "stack13_ghost_2_prim_bn/gamma", "shape": [80], "dtype": "float32"}, {"name": "stack13_ghost_2_prim_bn/beta", "shape": [80], "dtype": "float32"}, {"name": "stack13_ghost_2_prim_bn/moving_mean", "shape": [80], "dtype": "float32"}, {"name": "stack13_ghost_2_prim_bn/moving_variance", "shape": [80], "dtype": "float32"}, {"name": "stack13_ghost_2_prim_conv/kernel", "shape": [1, 1, 960, 80], "dtype": "float32"}, {"name": "stack14_ghost_1_cheap_bn/gamma", "shape": [480], "dtype": "float32"}, {"name": "stack14_ghost_1_cheap_bn/beta", "shape": [480], "dtype": "float32"}, {"name": "stack14_ghost_1_cheap_bn/moving_mean", "shape": [480], "dtype": "float32"}, {"name": "stack14_ghost_1_cheap_bn/moving_variance", "shape": [480], "dtype": "float32"}, {"name": "stack14_ghost_1_cheap_dw_conv/depthwise_kernel", "shape": [3, 3, 480, 1], "dtype": "float32"}, {"name": "stack14_ghost_1_prim_bn/gamma", "shape": [480], "dtype": "float32"}, {"name": "stack14_ghost_1_prim_bn/beta", "shape": [480], "dtype": "float32"}, {"name": "stack14_ghost_1_prim_bn/moving_mean", "shape": [480], "dtype": "float32"}, {"name": "stack14_ghost_1_prim_bn/moving_variance", "shape": [480], "dtype": "float32"}, {"name": "stack14_ghost_1_prim_conv/kernel", "shape": [1, 1, 160, 480], "dtype": "float32"}, {"name": "stack14_ghost_1_short_1_bn/gamma", "shape": [960], "dtype": "float32"}, {"name": "stack14_ghost_1_short_1_bn/beta", "shape": [960], "dtype": "float32"}, {"name": "stack14_ghost_1_short_1_bn/moving_mean", "shape": [960], "dtype": "float32"}, {"name": "stack14_ghost_1_short_1_bn/moving_variance", "shape": [960], "dtype": "float32"}, {"name": "stack14_ghost_1_short_1_conv/kernel", "shape": [1, 1, 160, 960], "dtype": "float32"}, {"name": "stack14_ghost_1_short_2_bn/gamma", "shape": [960], "dtype": "float32"}, {"name": "stack14_ghost_1_short_2_bn/beta", "shape": [960], "dtype": "float32"}, {"name": "stack14_ghost_1_short_2_bn/moving_mean", "shape": [960], "dtype": "float32"}, {"name": "stack14_ghost_1_short_2_bn/moving_variance", "shape": [960], "dtype": "float32"}, {"name": "stack14_ghost_1_short_2_dw_conv/depthwise_kernel", "shape": [1, 5, 960, 1], "dtype": "float32"}, {"name": "stack14_ghost_1_short_3_bn/gamma", "shape": [960], "dtype": "float32"}, {"name": "stack14_ghost_1_short_3_bn/beta", "shape": [960], "dtype": "float32"}, {"name": "stack14_ghost_1_short_3_bn/moving_mean", "shape": [960], "dtype": "float32"}, {"name": "stack14_ghost_1_short_3_bn/moving_variance", "shape": [960], "dtype": "float32"}, {"name": "stack14_ghost_1_short_3_dw_conv/depthwise_kernel", "shape": [5, 1, 960, 1], "dtype": "float32"}, {"name": "stack14_ghost_2_cheap_bn/gamma", "shape": [80], "dtype": "float32"}, {"name": "stack14_ghost_2_cheap_bn/beta", "shape": [80], "dtype": "float32"}, {"name": "stack14_ghost_2_cheap_bn/moving_mean", "shape": [80], "dtype": "float32"}, {"name": "stack14_ghost_2_cheap_bn/moving_variance", "shape": [80], "dtype": "float32"}, {"name": "stack14_ghost_2_cheap_dw_conv/depthwise_kernel", "shape": [3, 3, 80, 1], "dtype": "float32"}, {"name": "stack14_ghost_2_prim_bn/gamma", "shape": [80], "dtype": "float32"}, {"name": "stack14_ghost_2_prim_bn/beta", "shape": [80], "dtype": "float32"}, {"name": "stack14_ghost_2_prim_bn/moving_mean", "shape": [80], "dtype": "float32"}, {"name": "stack14_ghost_2_prim_bn/moving_variance", "shape": [80], "dtype": "float32"}, {"name": "stack14_ghost_2_prim_conv/kernel", "shape": [1, 1, 960, 80], "dtype": "float32"}, {"name": "stack14_se_1_conv/kernel", "shape": [1, 1, 960, 240], "dtype": "float32"}, {"name": "stack14_se_1_conv/bias", "shape": [240], "dtype": "float32"}, {"name": "stack14_se_2_conv/kernel", "shape": [1, 1, 240, 960], "dtype": "float32"}, {"name": "stack14_se_2_conv/bias", "shape": [960], "dtype": "float32"}, {"name": "stack15_ghost_1_cheap_bn/gamma", "shape": [480], "dtype": "float32"}, {"name": "stack15_ghost_1_cheap_bn/beta", "shape": [480], "dtype": "float32"}, {"name": "stack15_ghost_1_cheap_bn/moving_mean", "shape": [480], "dtype": "float32"}, {"name": "stack15_ghost_1_cheap_bn/moving_variance", "shape": [480], "dtype": "float32"}, {"name": "stack15_ghost_1_cheap_dw_conv/depthwise_kernel", "shape": [3, 3, 480, 1], "dtype": "float32"}, {"name": "stack15_ghost_1_prim_bn/gamma", "shape": [480], "dtype": "float32"}, {"name": "stack15_ghost_1_prim_bn/beta", "shape": [480], "dtype": "float32"}, {"name": "stack15_ghost_1_prim_bn/moving_mean", "shape": [480], "dtype": "float32"}, {"name": "stack15_ghost_1_prim_bn/moving_variance", "shape": [480], "dtype": "float32"}, {"name": "stack15_ghost_1_prim_conv/kernel", "shape": [1, 1, 160, 480], "dtype": "float32"}, {"name": "stack15_ghost_1_short_1_bn/gamma", "shape": [960], "dtype": "float32"}, {"name": "stack15_ghost_1_short_1_bn/beta", "shape": [960], "dtype": "float32"}, {"name": "stack15_ghost_1_short_1_bn/moving_mean", "shape": [960], "dtype": "float32"}, {"name": "stack15_ghost_1_short_1_bn/moving_variance", "shape": [960], "dtype": "float32"}, {"name": "stack15_ghost_1_short_1_conv/kernel", "shape": [1, 1, 160, 960], "dtype": "float32"}, {"name": "stack15_ghost_1_short_2_bn/gamma", "shape": [960], "dtype": "float32"}, {"name": "stack15_ghost_1_short_2_bn/beta", "shape": [960], "dtype": "float32"}, {"name": "stack15_ghost_1_short_2_bn/moving_mean", "shape": [960], "dtype": "float32"}, {"name": "stack15_ghost_1_short_2_bn/moving_variance", "shape": [960], "dtype": "float32"}, {"name": "stack15_ghost_1_short_2_dw_conv/depthwise_kernel", "shape": [1, 5, 960, 1], "dtype": "float32"}, {"name": "stack15_ghost_1_short_3_bn/gamma", "shape": [960], "dtype": "float32"}, {"name": "stack15_ghost_1_short_3_bn/beta", "shape": [960], "dtype": "float32"}, {"name": "stack15_ghost_1_short_3_bn/moving_mean", "shape": [960], "dtype": "float32"}, {"name": "stack15_ghost_1_short_3_bn/moving_variance", "shape": [960], "dtype": "float32"}, {"name": "stack15_ghost_1_short_3_dw_conv/depthwise_kernel", "shape": [5, 1, 960, 1], "dtype": "float32"}, {"name": "stack15_ghost_2_cheap_bn/gamma", "shape": [80], "dtype": "float32"}, {"name": "stack15_ghost_2_cheap_bn/beta", "shape": [80], "dtype": "float32"}, {"name": "stack15_ghost_2_cheap_bn/moving_mean", "shape": [80], "dtype": "float32"}, {"name": "stack15_ghost_2_cheap_bn/moving_variance", "shape": [80], "dtype": "float32"}, {"name": "stack15_ghost_2_cheap_dw_conv/depthwise_kernel", "shape": [3, 3, 80, 1], "dtype": "float32"}, {"name": "stack15_ghost_2_prim_bn/gamma", "shape": [80], "dtype": "float32"}, {"name": "stack15_ghost_2_prim_bn/beta", "shape": [80], "dtype": "float32"}, {"name": "stack15_ghost_2_prim_bn/moving_mean", "shape": [80], "dtype": "float32"}, {"name": "stack15_ghost_2_prim_bn/moving_variance", "shape": [80], "dtype": "float32"}, {"name": "stack15_ghost_2_prim_conv/kernel", "shape": [1, 1, 960, 80], "dtype": "float32"}, {"name": "stack16_ghost_1_cheap_bn/gamma", "shape": [480], "dtype": "float32"}, {"name": "stack16_ghost_1_cheap_bn/beta", "shape": [480], "dtype": "float32"}, {"name": "stack16_ghost_1_cheap_bn/moving_mean", "shape": [480], "dtype": "float32"}, {"name": "stack16_ghost_1_cheap_bn/moving_variance", "shape": [480], "dtype": "float32"}, {"name": "stack16_ghost_1_cheap_dw_conv/depthwise_kernel", "shape": [3, 3, 480, 1], "dtype": "float32"}, {"name": "stack16_ghost_1_prim_bn/gamma", "shape": [480], "dtype": "float32"}, {"name": "stack16_ghost_1_prim_bn/beta", "shape": [480], "dtype": "float32"}, {"name": "stack16_ghost_1_prim_bn/moving_mean", "shape": [480], "dtype": "float32"}, {"name": "stack16_ghost_1_prim_bn/moving_variance", "shape": [480], "dtype": "float32"}, {"name": "stack16_ghost_1_prim_conv/kernel", "shape": [1, 1, 160, 480], "dtype": "float32"}, {"name": "stack16_ghost_1_short_1_bn/gamma", "shape": [960], "dtype": "float32"}, {"name": "stack16_ghost_1_short_1_bn/beta", "shape": [960], "dtype": "float32"}, {"name": "stack16_ghost_1_short_1_bn/moving_mean", "shape": [960], "dtype": "float32"}, {"name": "stack16_ghost_1_short_1_bn/moving_variance", "shape": [960], "dtype": "float32"}, {"name": "stack16_ghost_1_short_1_conv/kernel", "shape": [1, 1, 160, 960], "dtype": "float32"}, {"name": "stack16_ghost_1_short_2_bn/gamma", "shape": [960], "dtype": "float32"}, {"name": "stack16_ghost_1_short_2_bn/beta", "shape": [960], "dtype": "float32"}, {"name": "stack16_ghost_1_short_2_bn/moving_mean", "shape": [960], "dtype": "float32"}, {"name": "stack16_ghost_1_short_2_bn/moving_variance", "shape": [960], "dtype": "float32"}, {"name": "stack16_ghost_1_short_2_dw_conv/depthwise_kernel", "shape": [1, 5, 960, 1], "dtype": "float32"}, {"name": "stack16_ghost_1_short_3_bn/gamma", "shape": [960], "dtype": "float32"}, {"name": "stack16_ghost_1_short_3_bn/beta", "shape": [960], "dtype": "float32"}, {"name": "stack16_ghost_1_short_3_bn/moving_mean", "shape": [960], "dtype": "float32"}, {"name": "stack16_ghost_1_short_3_bn/moving_variance", "shape": [960], "dtype": "float32"}, {"name": "stack16_ghost_1_short_3_dw_conv/depthwise_kernel", "shape": [5, 1, 960, 1], "dtype": "float32"}, {"name": "stack16_ghost_2_cheap_bn/gamma", "shape": [80], "dtype": "float32"}, {"name": "stack16_ghost_2_cheap_bn/beta", "shape": [80], "dtype": "float32"}, {"name": "stack16_ghost_2_cheap_bn/moving_mean", "shape": [80], "dtype": "float32"}, {"name": "stack16_ghost_2_cheap_bn/moving_variance", "shape": [80], "dtype": "float32"}, {"name": "stack16_ghost_2_cheap_dw_conv/depthwise_kernel", "shape": [3, 3, 80, 1], "dtype": "float32"}, {"name": "stack16_ghost_2_prim_bn/gamma", "shape": [80], "dtype": "float32"}, {"name": "stack16_ghost_2_prim_bn/beta", "shape": [80], "dtype": "float32"}, {"name": "stack16_ghost_2_prim_bn/moving_mean", "shape": [80], "dtype": "float32"}, {"name": "stack16_ghost_2_prim_bn/moving_variance", "shape": [80], "dtype": "float32"}, {"name": "stack16_ghost_2_prim_conv/kernel", "shape": [1, 1, 960, 80], "dtype": "float32"}, {"name": "stack16_se_1_conv/kernel", "shape": [1, 1, 960, 240], "dtype": "float32"}, {"name": "stack16_se_1_conv/bias", "shape": [240], "dtype": "float32"}, {"name": "stack16_se_2_conv/kernel", "shape": [1, 1, 240, 960], "dtype": "float32"}, {"name": "stack16_se_2_conv/bias", "shape": [960], "dtype": "float32"}, {"name": "stack1_ghost_1_cheap_bn/gamma", "shape": [8], "dtype": "float32"}, {"name": "stack1_ghost_1_cheap_bn/beta", "shape": [8], "dtype": "float32"}, {"name": "stack1_ghost_1_cheap_bn/moving_mean", "shape": [8], "dtype": "float32"}, {"name": "stack1_ghost_1_cheap_bn/moving_variance", "shape": [8], "dtype": "float32"}, {"name": "stack1_ghost_1_cheap_dw_conv/depthwise_kernel", "shape": [3, 3, 8, 1], "dtype": "float32"}, {"name": "stack1_ghost_1_prim_bn/gamma", "shape": [8], "dtype": "float32"}, {"name": "stack1_ghost_1_prim_bn/beta", "shape": [8], "dtype": "float32"}, {"name": "stack1_ghost_1_prim_bn/moving_mean", "shape": [8], "dtype": "float32"}, {"name": "stack1_ghost_1_prim_bn/moving_variance", "shape": [8], "dtype": "float32"}, {"name": "stack1_ghost_1_prim_conv/kernel", "shape": [1, 1, 16, 8], "dtype": "float32"}, {"name": "stack1_ghost_2_cheap_bn/gamma", "shape": [8], "dtype": "float32"}, {"name": "stack1_ghost_2_cheap_bn/beta", "shape": [8], "dtype": "float32"}, {"name": "stack1_ghost_2_cheap_bn/moving_mean", "shape": [8], "dtype": "float32"}, {"name": "stack1_ghost_2_cheap_bn/moving_variance", "shape": [8], "dtype": "float32"}, {"name": "stack1_ghost_2_cheap_dw_conv/depthwise_kernel", "shape": [3, 3, 8, 1], "dtype": "float32"}, {"name": "stack1_ghost_2_prim_bn/gamma", "shape": [8], "dtype": "float32"}, {"name": "stack1_ghost_2_prim_bn/beta", "shape": [8], "dtype": "float32"}, {"name": "stack1_ghost_2_prim_bn/moving_mean", "shape": [8], "dtype": "float32"}, {"name": "stack1_ghost_2_prim_bn/moving_variance", "shape": [8], "dtype": "float32"}, {"name": "stack1_ghost_2_prim_conv/kernel", "shape": [1, 1, 16, 8], "dtype": "float32"}, {"name": "stack2_down_bn/gamma", "shape": [48], "dtype": "float32"}, {"name": "stack2_down_bn/beta", "shape": [48], "dtype": "float32"}, {"name": "stack2_down_bn/moving_mean", "shape": [48], "dtype": "float32"}, {"name": "stack2_down_bn/moving_variance", "shape": [48], "dtype": "float32"}, {"name": "stack2_down_dw_conv/depthwise_kernel", "shape": [3, 3, 48, 1], "dtype": "float32"}, {"name": "stack2_ghost_1_cheap_bn/gamma", "shape": [24], "dtype": "float32"}, {"name": "stack2_ghost_1_cheap_bn/beta", "shape": [24], "dtype": "float32"}, {"name": "stack2_ghost_1_cheap_bn/moving_mean", "shape": [24], "dtype": "float32"}, {"name": "stack2_ghost_1_cheap_bn/moving_variance", "shape": [24], "dtype": "float32"}, {"name": "stack2_ghost_1_cheap_dw_conv/depthwise_kernel", "shape": [3, 3, 24, 1], "dtype": "float32"}, {"name": "stack2_ghost_1_prim_bn/gamma", "shape": [24], "dtype": "float32"}, {"name": "stack2_ghost_1_prim_bn/beta", "shape": [24], "dtype": "float32"}, {"name": "stack2_ghost_1_prim_bn/moving_mean", "shape": [24], "dtype": "float32"}, {"name": "stack2_ghost_1_prim_bn/moving_variance", "shape": [24], "dtype": "float32"}, {"name": "stack2_ghost_1_prim_conv/kernel", "shape": [1, 1, 16, 24], "dtype": "float32"}, {"name": "stack2_ghost_2_cheap_bn/gamma", "shape": [12], "dtype": "float32"}, {"name": "stack2_ghost_2_cheap_bn/beta", "shape": [12], "dtype": "float32"}, {"name": "stack2_ghost_2_cheap_bn/moving_mean", "shape": [12], "dtype": "float32"}, {"name": "stack2_ghost_2_cheap_bn/moving_variance", "shape": [12], "dtype": "float32"}, {"name": "stack2_ghost_2_cheap_dw_conv/depthwise_kernel", "shape": [3, 3, 12, 1], "dtype": "float32"}, {"name": "stack2_ghost_2_prim_bn/gamma", "shape": [12], "dtype": "float32"}, {"name": "stack2_ghost_2_prim_bn/beta", "shape": [12], "dtype": "float32"}, {"name": "stack2_ghost_2_prim_bn/moving_mean", "shape": [12], "dtype": "float32"}, {"name": "stack2_ghost_2_prim_bn/moving_variance", "shape": [12], "dtype": "float32"}, {"name": "stack2_ghost_2_prim_conv/kernel", "shape": [1, 1, 48, 12], "dtype": "float32"}, {"name": "stack2_short_1_bn/gamma", "shape": [16], "dtype": "float32"}, {"name": "stack2_short_1_bn/beta", "shape": [16], "dtype": "float32"}, {"name": "stack2_short_1_bn/moving_mean", "shape": [16], "dtype": "float32"}, {"name": "stack2_short_1_bn/moving_variance", "shape": [16], "dtype": "float32"}, {"name": "stack2_short_1_dw_conv/depthwise_kernel", "shape": [3, 3, 16, 1], "dtype": "float32"}, {"name": "stack2_short_2_bn/gamma", "shape": [24], "dtype": "float32"}, {"name": "stack2_short_2_bn/beta", "shape": [24], "dtype": "float32"}, {"name": "stack2_short_2_bn/moving_mean", "shape": [24], "dtype": "float32"}, {"name": "stack2_short_2_bn/moving_variance", "shape": [24], "dtype": "float32"}, {"name": "stack2_short_2_conv/kernel", "shape": [1, 1, 16, 24], "dtype": "float32"}, {"name": "stack3_ghost_1_cheap_bn/gamma", "shape": [36], "dtype": "float32"}, {"name": "stack3_ghost_1_cheap_bn/beta", "shape": [36], "dtype": "float32"}, {"name": "stack3_ghost_1_cheap_bn/moving_mean", "shape": [36], "dtype": "float32"}, {"name": "stack3_ghost_1_cheap_bn/moving_variance", "shape": [36], "dtype": "float32"}, {"name": "stack3_ghost_1_cheap_dw_conv/depthwise_kernel", "shape": [3, 3, 36, 1], "dtype": "float32"}, {"name": "stack3_ghost_1_prim_bn/gamma", "shape": [36], "dtype": "float32"}, {"name": "stack3_ghost_1_prim_bn/beta", "shape": [36], "dtype": "float32"}, {"name": "stack3_ghost_1_prim_bn/moving_mean", "shape": [36], "dtype": "float32"}, {"name": "stack3_ghost_1_prim_bn/moving_variance", "shape": [36], "dtype": "float32"}, {"name": "stack3_ghost_1_prim_conv/kernel", "shape": [1, 1, 24, 36], "dtype": "float32"}, {"name": "stack3_ghost_1_short_1_bn/gamma", "shape": [72], "dtype": "float32"}, {"name": "stack3_ghost_1_short_1_bn/beta", "shape": [72], "dtype": "float32"}, {"name": "stack3_ghost_1_short_1_bn/moving_mean", "shape": [72], "dtype": "float32"}, {"name": "stack3_ghost_1_short_1_bn/moving_variance", "shape": [72], "dtype": "float32"}, {"name": "stack3_ghost_1_short_1_conv/kernel", "shape": [1, 1, 24, 72], "dtype": "float32"}, {"name": "stack3_ghost_1_short_2_bn/gamma", "shape": [72], "dtype": "float32"}, {"name": "stack3_ghost_1_short_2_bn/beta", "shape": [72], "dtype": "float32"}, {"name": "stack3_ghost_1_short_2_bn/moving_mean", "shape": [72], "dtype": "float32"}, {"name": "stack3_ghost_1_short_2_bn/moving_variance", "shape": [72], "dtype": "float32"}, {"name": "stack3_ghost_1_short_2_dw_conv/depthwise_kernel", "shape": [1, 5, 72, 1], "dtype": "float32"}, {"name": "stack3_ghost_1_short_3_bn/gamma", "shape": [72], "dtype": "float32"}, {"name": "stack3_ghost_1_short_3_bn/beta", "shape": [72], "dtype": "float32"}, {"name": "stack3_ghost_1_short_3_bn/moving_mean", "shape": [72], "dtype": "float32"}, {"name": "stack3_ghost_1_short_3_bn/moving_variance", "shape": [72], "dtype": "float32"}, {"name": "stack3_ghost_1_short_3_dw_conv/depthwise_kernel", "shape": [5, 1, 72, 1], "dtype": "float32"}, {"name": "stack3_ghost_2_cheap_bn/gamma", "shape": [12], "dtype": "float32"}, {"name": "stack3_ghost_2_cheap_bn/beta", "shape": [12], "dtype": "float32"}, {"name": "stack3_ghost_2_cheap_bn/moving_mean", "shape": [12], "dtype": "float32"}, {"name": "stack3_ghost_2_cheap_bn/moving_variance", "shape": [12], "dtype": "float32"}, {"name": "stack3_ghost_2_cheap_dw_conv/depthwise_kernel", "shape": [3, 3, 12, 1], "dtype": "float32"}, {"name": "stack3_ghost_2_prim_bn/gamma", "shape": [12], "dtype": "float32"}, {"name": "stack3_ghost_2_prim_bn/beta", "shape": [12], "dtype": "float32"}, {"name": "stack3_ghost_2_prim_bn/moving_mean", "shape": [12], "dtype": "float32"}, {"name": "stack3_ghost_2_prim_bn/moving_variance", "shape": [12], "dtype": "float32"}, {"name": "stack3_ghost_2_prim_conv/kernel", "shape": [1, 1, 72, 12], "dtype": "float32"}, {"name": "stack4_down_bn/gamma", "shape": [72], "dtype": "float32"}, {"name": "stack4_down_bn/beta", "shape": [72], "dtype": "float32"}, {"name": "stack4_down_bn/moving_mean", "shape": [72], "dtype": "float32"}, {"name": "stack4_down_bn/moving_variance", "shape": [72], "dtype": "float32"}, {"name": "stack4_down_dw_conv/depthwise_kernel", "shape": [5, 5, 72, 1], "dtype": "float32"}, {"name": "stack4_ghost_1_cheap_bn/gamma", "shape": [36], "dtype": "float32"}, {"name": "stack4_ghost_1_cheap_bn/beta", "shape": [36], "dtype": "float32"}, {"name": "stack4_ghost_1_cheap_bn/moving_mean", "shape": [36], "dtype": "float32"}, {"name": "stack4_ghost_1_cheap_bn/moving_variance", "shape": [36], "dtype": "float32"}, {"name": "stack4_ghost_1_cheap_dw_conv/depthwise_kernel", "shape": [3, 3, 36, 1], "dtype": "float32"}, {"name": "stack4_ghost_1_prim_bn/gamma", "shape": [36], "dtype": "float32"}, {"name": "stack4_ghost_1_prim_bn/beta", "shape": [36], "dtype": "float32"}, {"name": "stack4_ghost_1_prim_bn/moving_mean", "shape": [36], "dtype": "float32"}, {"name": "stack4_ghost_1_prim_bn/moving_variance", "shape": [36], "dtype": "float32"}, {"name": "stack4_ghost_1_prim_conv/kernel", "shape": [1, 1, 24, 36], "dtype": "float32"}, {"name": "stack4_ghost_1_short_1_bn/gamma", "shape": [72], "dtype": "float32"}, {"name": "stack4_ghost_1_short_1_bn/beta", "shape": [72], "dtype": "float32"}, {"name": "stack4_ghost_1_short_1_bn/moving_mean", "shape": [72], "dtype": "float32"}, {"name": "stack4_ghost_1_short_1_bn/moving_variance", "shape": [72], "dtype": "float32"}, {"name": "stack4_ghost_1_short_1_conv/kernel", "shape": [1, 1, 24, 72], "dtype": "float32"}, {"name": "stack4_ghost_1_short_2_bn/gamma", "shape": [72], "dtype": "float32"}, {"name": "stack4_ghost_1_short_2_bn/beta", "shape": [72], "dtype": "float32"}, {"name": "stack4_ghost_1_short_2_bn/moving_mean", "shape": [72], "dtype": "float32"}, {"name": "stack4_ghost_1_short_2_bn/moving_variance", "shape": [72], "dtype": "float32"}, {"name": "stack4_ghost_1_short_2_dw_conv/depthwise_kernel", "shape": [1, 5, 72, 1], "dtype": "float32"}, {"name": "stack4_ghost_1_short_3_bn/gamma", "shape": [72], "dtype": "float32"}, {"name": "stack4_ghost_1_short_3_bn/beta", "shape": [72], "dtype": "float32"}, {"name": "stack4_ghost_1_short_3_bn/moving_mean", "shape": [72], "dtype": "float32"}, {"name": "stack4_ghost_1_short_3_bn/moving_variance", "shape": [72], "dtype": "float32"}, {"name": "stack4_ghost_1_short_3_dw_conv/depthwise_kernel", "shape": [5, 1, 72, 1], "dtype": "float32"}, {"name": "stack4_ghost_2_cheap_bn/gamma", "shape": [20], "dtype": "float32"}, {"name": "stack4_ghost_2_cheap_bn/beta", "shape": [20], "dtype": "float32"}, {"name": "stack4_ghost_2_cheap_bn/moving_mean", "shape": [20], "dtype": "float32"}, {"name": "stack4_ghost_2_cheap_bn/moving_variance", "shape": [20], "dtype": "float32"}, {"name": "stack4_ghost_2_cheap_dw_conv/depthwise_kernel", "shape": [3, 3, 20, 1], "dtype": "float32"}, {"name": "stack4_ghost_2_prim_bn/gamma", "shape": [20], "dtype": "float32"}, {"name": "stack4_ghost_2_prim_bn/beta", "shape": [20], "dtype": "float32"}, {"name": "stack4_ghost_2_prim_bn/moving_mean", "shape": [20], "dtype": "float32"}, {"name": "stack4_ghost_2_prim_bn/moving_variance", "shape": [20], "dtype": "float32"}, {"name": "stack4_ghost_2_prim_conv/kernel", "shape": [1, 1, 72, 20], "dtype": "float32"}, {"name": "stack4_se_1_conv/kernel", "shape": [1, 1, 72, 20], "dtype": "float32"}, {"name": "stack4_se_1_conv/bias", "shape": [20], "dtype": "float32"}, {"name": "stack4_se_2_conv/kernel", "shape": [1, 1, 20, 72], "dtype": "float32"}, {"name": "stack4_se_2_conv/bias", "shape": [72], "dtype": "float32"}, {"name": "stack4_short_1_bn/gamma", "shape": [24], "dtype": "float32"}, {"name": "stack4_short_1_bn/beta", "shape": [24], "dtype": "float32"}, {"name": "stack4_short_1_bn/moving_mean", "shape": [24], "dtype": "float32"}, {"name": "stack4_short_1_bn/moving_variance", "shape": [24], "dtype": "float32"}, {"name": "stack4_short_1_dw_conv/depthwise_kernel", "shape": [5, 5, 24, 1], "dtype": "float32"}, {"name": "stack4_short_2_bn/gamma", "shape": [40], "dtype": "float32"}, {"name": "stack4_short_2_bn/beta", "shape": [40], "dtype": "float32"}, {"name": "stack4_short_2_bn/moving_mean", "shape": [40], "dtype": "float32"}, {"name": "stack4_short_2_bn/moving_variance", "shape": [40], "dtype": "float32"}, {"name": "stack4_short_2_conv/kernel", "shape": [1, 1, 24, 40], "dtype": "float32"}, {"name": "stack5_ghost_1_cheap_bn/gamma", "shape": [60], "dtype": "float32"}, {"name": "stack5_ghost_1_cheap_bn/beta", "shape": [60], "dtype": "float32"}, {"name": "stack5_ghost_1_cheap_bn/moving_mean", "shape": [60], "dtype": "float32"}, {"name": "stack5_ghost_1_cheap_bn/moving_variance", "shape": [60], "dtype": "float32"}, {"name": "stack5_ghost_1_cheap_dw_conv/depthwise_kernel", "shape": [3, 3, 60, 1], "dtype": "float32"}, {"name": "stack5_ghost_1_prim_bn/gamma", "shape": [60], "dtype": "float32"}, {"name": "stack5_ghost_1_prim_bn/beta", "shape": [60], "dtype": "float32"}, {"name": "stack5_ghost_1_prim_bn/moving_mean", "shape": [60], "dtype": "float32"}, {"name": "stack5_ghost_1_prim_bn/moving_variance", "shape": [60], "dtype": "float32"}, {"name": "stack5_ghost_1_prim_conv/kernel", "shape": [1, 1, 40, 60], "dtype": "float32"}, {"name": "stack5_ghost_1_short_1_bn/gamma", "shape": [120], "dtype": "float32"}, {"name": "stack5_ghost_1_short_1_bn/beta", "shape": [120], "dtype": "float32"}, {"name": "stack5_ghost_1_short_1_bn/moving_mean", "shape": [120], "dtype": "float32"}, {"name": "stack5_ghost_1_short_1_bn/moving_variance", "shape": [120], "dtype": "float32"}, {"name": "stack5_ghost_1_short_1_conv/kernel", "shape": [1, 1, 40, 120], "dtype": "float32"}, {"name": "stack5_ghost_1_short_2_bn/gamma", "shape": [120], "dtype": "float32"}, {"name": "stack5_ghost_1_short_2_bn/beta", "shape": [120], "dtype": "float32"}, {"name": "stack5_ghost_1_short_2_bn/moving_mean", "shape": [120], "dtype": "float32"}, {"name": "stack5_ghost_1_short_2_bn/moving_variance", "shape": [120], "dtype": "float32"}, {"name": "stack5_ghost_1_short_2_dw_conv/depthwise_kernel", "shape": [1, 5, 120, 1], "dtype": "float32"}, {"name": "stack5_ghost_1_short_3_bn/gamma", "shape": [120], "dtype": "float32"}, {"name": "stack5_ghost_1_short_3_bn/beta", "shape": [120], "dtype": "float32"}, {"name": "stack5_ghost_1_short_3_bn/moving_mean", "shape": [120], "dtype": "float32"}, {"name": "stack5_ghost_1_short_3_bn/moving_variance", "shape": [120], "dtype": "float32"}, {"name": "stack5_ghost_1_short_3_dw_conv/depthwise_kernel", "shape": [5, 1, 120, 1], "dtype": "float32"}, {"name": "stack5_ghost_2_cheap_bn/gamma", "shape": [20], "dtype": "float32"}, {"name": "stack5_ghost_2_cheap_bn/beta", "shape": [20], "dtype": "float32"}, {"name": "stack5_ghost_2_cheap_bn/moving_mean", "shape": [20], "dtype": "float32"}, {"name": "stack5_ghost_2_cheap_bn/moving_variance", "shape": [20], "dtype": "float32"}, {"name": "stack5_ghost_2_cheap_dw_conv/depthwise_kernel", "shape": [3, 3, 20, 1], "dtype": "float32"}, {"name": "stack5_ghost_2_prim_bn/gamma", "shape": [20], "dtype": "float32"}, {"name": "stack5_ghost_2_prim_bn/beta", "shape": [20], "dtype": "float32"}, {"name": "stack5_ghost_2_prim_bn/moving_mean", "shape": [20], "dtype": "float32"}, {"name": "stack5_ghost_2_prim_bn/moving_variance", "shape": [20], "dtype": "float32"}, {"name": "stack5_ghost_2_prim_conv/kernel", "shape": [1, 1, 120, 20], "dtype": "float32"}, {"name": "stack5_se_1_conv/kernel", "shape": [1, 1, 120, 32], "dtype": "float32"}, {"name": "stack5_se_1_conv/bias", "shape": [32], "dtype": "float32"}, {"name": "stack5_se_2_conv/kernel", "shape": [1, 1, 32, 120], "dtype": "float32"}, {"name": "stack5_se_2_conv/bias", "shape": [120], "dtype": "float32"}, {"name": "stack6_down_bn/gamma", "shape": [240], "dtype": "float32"}, {"name": "stack6_down_bn/beta", "shape": [240], "dtype": "float32"}, {"name": "stack6_down_bn/moving_mean", "shape": [240], "dtype": "float32"}, {"name": "stack6_down_bn/moving_variance", "shape": [240], "dtype": "float32"}, {"name": "stack6_down_dw_conv/depthwise_kernel", "shape": [3, 3, 240, 1], "dtype": "float32"}, {"name": "stack6_ghost_1_cheap_bn/gamma", "shape": [120], "dtype": "float32"}, {"name": "stack6_ghost_1_cheap_bn/beta", "shape": [120], "dtype": "float32"}, {"name": "stack6_ghost_1_cheap_bn/moving_mean", "shape": [120], "dtype": "float32"}, {"name": "stack6_ghost_1_cheap_bn/moving_variance", "shape": [120], "dtype": "float32"}, {"name": "stack6_ghost_1_cheap_dw_conv/depthwise_kernel", "shape": [3, 3, 120, 1], "dtype": "float32"}, {"name": "stack6_ghost_1_prim_bn/gamma", "shape": [120], "dtype": "float32"}, {"name": "stack6_ghost_1_prim_bn/beta", "shape": [120], "dtype": "float32"}, {"name": "stack6_ghost_1_prim_bn/moving_mean", "shape": [120], "dtype": "float32"}, {"name": "stack6_ghost_1_prim_bn/moving_variance", "shape": [120], "dtype": "float32"}, {"name": "stack6_ghost_1_prim_conv/kernel", "shape": [1, 1, 40, 120], "dtype": "float32"}, {"name": "stack6_ghost_1_short_1_bn/gamma", "shape": [240], "dtype": "float32"}, {"name": "stack6_ghost_1_short_1_bn/beta", "shape": [240], "dtype": "float32"}, {"name": "stack6_ghost_1_short_1_bn/moving_mean", "shape": [240], "dtype": "float32"}, {"name": "stack6_ghost_1_short_1_bn/moving_variance", "shape": [240], "dtype": "float32"}, {"name": "stack6_ghost_1_short_1_conv/kernel", "shape": [1, 1, 40, 240], "dtype": "float32"}, {"name": "stack6_ghost_1_short_2_bn/gamma", "shape": [240], "dtype": "float32"}, {"name": "stack6_ghost_1_short_2_bn/beta", "shape": [240], "dtype": "float32"}, {"name": "stack6_ghost_1_short_2_bn/moving_mean", "shape": [240], "dtype": "float32"}, {"name": "stack6_ghost_1_short_2_bn/moving_variance", "shape": [240], "dtype": "float32"}, {"name": "stack6_ghost_1_short_2_dw_conv/depthwise_kernel", "shape": [1, 5, 240, 1], "dtype": "float32"}, {"name": "stack6_ghost_1_short_3_bn/gamma", "shape": [240], "dtype": "float32"}, {"name": "stack6_ghost_1_short_3_bn/beta", "shape": [240], "dtype": "float32"}, {"name": "stack6_ghost_1_short_3_bn/moving_mean", "shape": [240], "dtype": "float32"}, {"name": "stack6_ghost_1_short_3_bn/moving_variance", "shape": [240], "dtype": "float32"}, {"name": "stack6_ghost_1_short_3_dw_conv/depthwise_kernel", "shape": [5, 1, 240, 1], "dtype": "float32"}, {"name": "stack6_ghost_2_cheap_bn/gamma", "shape": [40], "dtype": "float32"}, {"name": "stack6_ghost_2_cheap_bn/beta", "shape": [40], "dtype": "float32"}, {"name": "stack6_ghost_2_cheap_bn/moving_mean", "shape": [40], "dtype": "float32"}, {"name": "stack6_ghost_2_cheap_bn/moving_variance", "shape": [40], "dtype": "float32"}, {"name": "stack6_ghost_2_cheap_dw_conv/depthwise_kernel", "shape": [3, 3, 40, 1], "dtype": "float32"}, {"name": "stack6_ghost_2_prim_bn/gamma", "shape": [40], "dtype": "float32"}, {"name": "stack6_ghost_2_prim_bn/beta", "shape": [40], "dtype": "float32"}, {"name": "stack6_ghost_2_prim_bn/moving_mean", "shape": [40], "dtype": "float32"}, {"name": "stack6_ghost_2_prim_bn/moving_variance", "shape": [40], "dtype": "float32"}, {"name": "stack6_ghost_2_prim_conv/kernel", "shape": [1, 1, 240, 40], "dtype": "float32"}, {"name": "stack6_short_1_bn/gamma", "shape": [40], "dtype": "float32"}, {"name": "stack6_short_1_bn/beta", "shape": [40], "dtype": "float32"}, {"name": "stack6_short_1_bn/moving_mean", "shape": [40], "dtype": "float32"}, {"name": "stack6_short_1_bn/moving_variance", "shape": [40], "dtype": "float32"}, {"name": "stack6_short_1_dw_conv/depthwise_kernel", "shape": [3, 3, 40, 1], "dtype": "float32"}, {"name": "stack6_short_2_bn/gamma", "shape": [80], "dtype": "float32"}, {"name": "stack6_short_2_bn/beta", "shape": [80], "dtype": "float32"}, {"name": "stack6_short_2_bn/moving_mean", "shape": [80], "dtype": "float32"}, {"name": "stack6_short_2_bn/moving_variance", "shape": [80], "dtype": "float32"}, {"name": "stack6_short_2_conv/kernel", "shape": [1, 1, 40, 80], "dtype": "float32"}, {"name": "stack7_ghost_1_cheap_bn/gamma", "shape": [100], "dtype": "float32"}, {"name": "stack7_ghost_1_cheap_bn/beta", "shape": [100], "dtype": "float32"}, {"name": "stack7_ghost_1_cheap_bn/moving_mean", "shape": [100], "dtype": "float32"}, {"name": "stack7_ghost_1_cheap_bn/moving_variance", "shape": [100], "dtype": "float32"}, {"name": "stack7_ghost_1_cheap_dw_conv/depthwise_kernel", "shape": [3, 3, 100, 1], "dtype": "float32"}, {"name": "stack7_ghost_1_prim_bn/gamma", "shape": [100], "dtype": "float32"}, {"name": "stack7_ghost_1_prim_bn/beta", "shape": [100], "dtype": "float32"}, {"name": "stack7_ghost_1_prim_bn/moving_mean", "shape": [100], "dtype": "float32"}, {"name": "stack7_ghost_1_prim_bn/moving_variance", "shape": [100], "dtype": "float32"}, {"name": "stack7_ghost_1_prim_conv/kernel", "shape": [1, 1, 80, 100], "dtype": "float32"}, {"name": "stack7_ghost_1_short_1_bn/gamma", "shape": [200], "dtype": "float32"}, {"name": "stack7_ghost_1_short_1_bn/beta", "shape": [200], "dtype": "float32"}, {"name": "stack7_ghost_1_short_1_bn/moving_mean", "shape": [200], "dtype": "float32"}, {"name": "stack7_ghost_1_short_1_bn/moving_variance", "shape": [200], "dtype": "float32"}, {"name": "stack7_ghost_1_short_1_conv/kernel", "shape": [1, 1, 80, 200], "dtype": "float32"}, {"name": "stack7_ghost_1_short_2_bn/gamma", "shape": [200], "dtype": "float32"}, {"name": "stack7_ghost_1_short_2_bn/beta", "shape": [200], "dtype": "float32"}, {"name": "stack7_ghost_1_short_2_bn/moving_mean", "shape": [200], "dtype": "float32"}, {"name": "stack7_ghost_1_short_2_bn/moving_variance", "shape": [200], "dtype": "float32"}, {"name": "stack7_ghost_1_short_2_dw_conv/depthwise_kernel", "shape": [1, 5, 200, 1], "dtype": "float32"}, {"name": "stack7_ghost_1_short_3_bn/gamma", "shape": [200], "dtype": "float32"}, {"name": "stack7_ghost_1_short_3_bn/beta", "shape": [200], "dtype": "float32"}, {"name": "stack7_ghost_1_short_3_bn/moving_mean", "shape": [200], "dtype": "float32"}, {"name": "stack7_ghost_1_short_3_bn/moving_variance", "shape": [200], "dtype": "float32"}, {"name": "stack7_ghost_1_short_3_dw_conv/depthwise_kernel", "shape": [5, 1, 200, 1], "dtype": "float32"}, {"name": "stack7_ghost_2_cheap_bn/gamma", "shape": [40], "dtype": "float32"}, {"name": "stack7_ghost_2_cheap_bn/beta", "shape": [40], "dtype": "float32"}, {"name": "stack7_ghost_2_cheap_bn/moving_mean", "shape": [40], "dtype": "float32"}, {"name": "stack7_ghost_2_cheap_bn/moving_variance", "shape": [40], "dtype": "float32"}, {"name": "stack7_ghost_2_cheap_dw_conv/depthwise_kernel", "shape": [3, 3, 40, 1], "dtype": "float32"}, {"name": "stack7_ghost_2_prim_bn/gamma", "shape": [40], "dtype": "float32"}, {"name": "stack7_ghost_2_prim_bn/beta", "shape": [40], "dtype": "float32"}, {"name": "stack7_ghost_2_prim_bn/moving_mean", "shape": [40], "dtype": "float32"}, {"name": "stack7_ghost_2_prim_bn/moving_variance", "shape": [40], "dtype": "float32"}, {"name": "stack7_ghost_2_prim_conv/kernel", "shape": [1, 1, 200, 40], "dtype": "float32"}, {"name": "stack8_ghost_1_cheap_bn/gamma", "shape": [92], "dtype": "float32"}, {"name": "stack8_ghost_1_cheap_bn/beta", "shape": [92], "dtype": "float32"}, {"name": "stack8_ghost_1_cheap_bn/moving_mean", "shape": [92], "dtype": "float32"}, {"name": "stack8_ghost_1_cheap_bn/moving_variance", "shape": [92], "dtype": "float32"}, {"name": "stack8_ghost_1_cheap_dw_conv/depthwise_kernel", "shape": [3, 3, 92, 1], "dtype": "float32"}, {"name": "stack8_ghost_1_prim_bn/gamma", "shape": [92], "dtype": "float32"}, {"name": "stack8_ghost_1_prim_bn/beta", "shape": [92], "dtype": "float32"}, {"name": "stack8_ghost_1_prim_bn/moving_mean", "shape": [92], "dtype": "float32"}, {"name": "stack8_ghost_1_prim_bn/moving_variance", "shape": [92], "dtype": "float32"}, {"name": "stack8_ghost_1_prim_conv/kernel", "shape": [1, 1, 80, 92], "dtype": "float32"}, {"name": "stack8_ghost_1_short_1_bn/gamma", "shape": [184], "dtype": "float32"}, {"name": "stack8_ghost_1_short_1_bn/beta", "shape": [184], "dtype": "float32"}, {"name": "stack8_ghost_1_short_1_bn/moving_mean", "shape": [184], "dtype": "float32"}, {"name": "stack8_ghost_1_short_1_bn/moving_variance", "shape": [184], "dtype": "float32"}, {"name": "stack8_ghost_1_short_1_conv/kernel", "shape": [1, 1, 80, 184], "dtype": "float32"}, {"name": "stack8_ghost_1_short_2_bn/gamma", "shape": [184], "dtype": "float32"}, {"name": "stack8_ghost_1_short_2_bn/beta", "shape": [184], "dtype": "float32"}, {"name": "stack8_ghost_1_short_2_bn/moving_mean", "shape": [184], "dtype": "float32"}, {"name": "stack8_ghost_1_short_2_bn/moving_variance", "shape": [184], "dtype": "float32"}, {"name": "stack8_ghost_1_short_2_dw_conv/depthwise_kernel", "shape": [1, 5, 184, 1], "dtype": "float32"}, {"name": "stack8_ghost_1_short_3_bn/gamma", "shape": [184], "dtype": "float32"}, {"name": "stack8_ghost_1_short_3_bn/beta", "shape": [184], "dtype": "float32"}, {"name": "stack8_ghost_1_short_3_bn/moving_mean", "shape": [184], "dtype": "float32"}, {"name": "stack8_ghost_1_short_3_bn/moving_variance", "shape": [184], "dtype": "float32"}, {"name": "stack8_ghost_1_short_3_dw_conv/depthwise_kernel", "shape": [5, 1, 184, 1], "dtype": "float32"}, {"name": "stack8_ghost_2_cheap_bn/gamma", "shape": [40], "dtype": "float32"}, {"name": "stack8_ghost_2_cheap_bn/beta", "shape": [40], "dtype": "float32"}, {"name": "stack8_ghost_2_cheap_bn/moving_mean", "shape": [40], "dtype": "float32"}, {"name": "stack8_ghost_2_cheap_bn/moving_variance", "shape": [40], "dtype": "float32"}, {"name": "stack8_ghost_2_cheap_dw_conv/depthwise_kernel", "shape": [3, 3, 40, 1], "dtype": "float32"}, {"name": "stack8_ghost_2_prim_bn/gamma", "shape": [40], "dtype": "float32"}, {"name": "stack8_ghost_2_prim_bn/beta", "shape": [40], "dtype": "float32"}, {"name": "stack8_ghost_2_prim_bn/moving_mean", "shape": [40], "dtype": "float32"}, {"name": "stack8_ghost_2_prim_bn/moving_variance", "shape": [40], "dtype": "float32"}, {"name": "stack8_ghost_2_prim_conv/kernel", "shape": [1, 1, 184, 40], "dtype": "float32"}, {"name": "stack9_ghost_1_cheap_bn/gamma", "shape": [92], "dtype": "float32"}, {"name": "stack9_ghost_1_cheap_bn/beta", "shape": [92], "dtype": "float32"}, {"name": "stack9_ghost_1_cheap_bn/moving_mean", "shape": [92], "dtype": "float32"}, {"name": "stack9_ghost_1_cheap_bn/moving_variance", "shape": [92], "dtype": "float32"}, {"name": "stack9_ghost_1_cheap_dw_conv/depthwise_kernel", "shape": [3, 3, 92, 1], "dtype": "float32"}, {"name": "stack9_ghost_1_prim_bn/gamma", "shape": [92], "dtype": "float32"}, {"name": "stack9_ghost_1_prim_bn/beta", "shape": [92], "dtype": "float32"}, {"name": "stack9_ghost_1_prim_bn/moving_mean", "shape": [92], "dtype": "float32"}, {"name": "stack9_ghost_1_prim_bn/moving_variance", "shape": [92], "dtype": "float32"}, {"name": "stack9_ghost_1_prim_conv/kernel", "shape": [1, 1, 80, 92], "dtype": "float32"}, {"name": "stack9_ghost_1_short_1_bn/gamma", "shape": [184], "dtype": "float32"}, {"name": "stack9_ghost_1_short_1_bn/beta", "shape": [184], "dtype": "float32"}, {"name": "stack9_ghost_1_short_1_bn/moving_mean", "shape": [184], "dtype": "float32"}, {"name": "stack9_ghost_1_short_1_bn/moving_variance", "shape": [184], "dtype": "float32"}, {"name": "stack9_ghost_1_short_1_conv/kernel", "shape": [1, 1, 80, 184], "dtype": "float32"}, {"name": "stack9_ghost_1_short_2_bn/gamma", "shape": [184], "dtype": "float32"}, {"name": "stack9_ghost_1_short_2_bn/beta", "shape": [184], "dtype": "float32"}, {"name": "stack9_ghost_1_short_2_bn/moving_mean", "shape": [184], "dtype": "float32"}, {"name": "stack9_ghost_1_short_2_bn/moving_variance", "shape": [184], "dtype": "float32"}, {"name": "stack9_ghost_1_short_2_dw_conv/depthwise_kernel", "shape": [1, 5, 184, 1], "dtype": "float32"}, {"name": "stack9_ghost_1_short_3_bn/gamma", "shape": [184], "dtype": "float32"}, {"name": "stack9_ghost_1_short_3_bn/beta", "shape": [184], "dtype": "float32"}, {"name": "stack9_ghost_1_short_3_bn/moving_mean", "shape": [184], "dtype": "float32"}, {"name": "stack9_ghost_1_short_3_bn/moving_variance", "shape": [184], "dtype": "float32"}, {"name": "stack9_ghost_1_short_3_dw_conv/depthwise_kernel", "shape": [5, 1, 184, 1], "dtype": "float32"}, {"name": "stack9_ghost_2_cheap_bn/gamma", "shape": [40], "dtype": "float32"}, {"name": "stack9_ghost_2_cheap_bn/beta", "shape": [40], "dtype": "float32"}, {"name": "stack9_ghost_2_cheap_bn/moving_mean", "shape": [40], "dtype": "float32"}, {"name": "stack9_ghost_2_cheap_bn/moving_variance", "shape": [40], "dtype": "float32"}, {"name": "stack9_ghost_2_cheap_dw_conv/depthwise_kernel", "shape": [3, 3, 40, 1], "dtype": "float32"}, {"name": "stack9_ghost_2_prim_bn/gamma", "shape": [40], "dtype": "float32"}, {"name": "stack9_ghost_2_prim_bn/beta", "shape": [40], "dtype": "float32"}, {"name": "stack9_ghost_2_prim_bn/moving_mean", "shape": [40], "dtype": "float32"}, {"name": "stack9_ghost_2_prim_bn/moving_variance", "shape": [40], "dtype": "float32"}, {"name": "stack9_ghost_2_prim_conv/kernel", "shape": [1, 1, 184, 40], "dtype": "float32"}, {"name": "stem_bn/gamma", "shape": [16], "dtype": "float32"}, {"name": "stem_bn/beta", "shape": [16], "dtype": "float32"}, {"name": "stem_bn/moving_mean", "shape": [16], "dtype": "float32"}, {"name": "stem_bn/moving_variance", "shape": [16], "dtype": "float32"}, {"name": "stem_conv/kernel", "shape": [3, 3, 3, 16], "dtype": "float32"}]}]}