{"format": "layers-model", "generatedBy": "keras v2.12.0", "convertedBy": "TensorFlow.js Converter v4.21.0", "modelTopology": {"keras_version": "2.12.0", "backend": "tensorflow", "model_config": {"class_name": "Functional", "config": {"name": "fastvit_t8", "trainable": true, "layers": [{"class_name": "InputLayer", "config": {"batch_input_shape": [null, 256, 256, 3], "dtype": "float32", "sparse": false, "ragged": false, "name": "input_1"}, "name": "input_1", "inbound_nodes": []}, {"class_name": "ZeroPadding2D", "config": {"name": "stem_1_REPARAM_1_pad", "trainable": true, "dtype": "float32", "padding": [[1, 1], [1, 1]], "data_format": "channels_last"}, "name": "stem_1_REPARAM_1_pad", "inbound_nodes": [[["input_1", 0, 0, {}]]]}, {"class_name": "Conv2D", "config": {"name": "stem_1_REPARAM_1_conv", "trainable": true, "dtype": "float32", "filters": 48, "kernel_size": [3, 3], "strides": [2, 2], "padding": "valid", "data_format": "channels_last", "dilation_rate": [1, 1], "groups": 1, "activation": "linear", "use_bias": false, "kernel_initializer": {"class_name": "GlorotUniform", "config": {"seed": null}}, "bias_initializer": {"class_name": "Zeros", "config": {}}, "kernel_regularizer": null, "bias_regularizer": null, "activity_regularizer": null, "kernel_constraint": null, "bias_constraint": null}, "name": "stem_1_REPARAM_1_conv", "inbound_nodes": [[["stem_1_REPARAM_1_pad", 0, 0, {}]]]}, {"class_name": "Conv2D", "config": {"name": "stem_1_REPARAM_2_conv", "trainable": true, "dtype": "float32", "filters": 48, "kernel_size": [1, 1], "strides": [2, 2], "padding": "valid", "data_format": "channels_last", "dilation_rate": [1, 1], "groups": 1, "activation": "linear", "use_bias": false, "kernel_initializer": {"class_name": "GlorotUniform", "config": {"seed": null}}, "bias_initializer": {"class_name": "Zeros", "config": {}}, "kernel_regularizer": null, "bias_regularizer": null, "activity_regularizer": null, "kernel_constraint": null, "bias_constraint": null}, "name": "stem_1_REPARAM_2_conv", "inbound_nodes": [[["input_1", 0, 0, {}]]]}, {"class_name": "BatchNormalization", "config": {"name": "stem_1_REPARAM_1_bn", "trainable": true, "dtype": "float32", "axis": [3], "momentum": 0.9, "epsilon": 1e-05, "center": true, "scale": true, "beta_initializer": {"class_name": "Zeros", "config": {}}, "gamma_initializer": {"class_name": "Ones", "config": {}}, "moving_mean_initializer": {"class_name": "Zeros", "config": {}}, "moving_variance_initializer": {"class_name": "Ones", "config": {}}, "beta_regularizer": null, "gamma_regularizer": null, "beta_constraint": null, "gamma_constraint": null}, "name": "stem_1_REPARAM_1_bn", "inbound_nodes": [[["stem_1_REPARAM_1_conv", 0, 0, {}]]]}, {"class_name": "BatchNormalization", "config": {"name": "stem_1_REPARAM_2_bn", "trainable": true, "dtype": "float32", "axis": [3], "momentum": 0.9, "epsilon": 1e-05, "center": true, "scale": true, "beta_initializer": {"class_name": "Zeros", "config": {}}, "gamma_initializer": {"class_name": "Ones", "config": {}}, "moving_mean_initializer": {"class_name": "Zeros", "config": {}}, "moving_variance_initializer": {"class_name": "Ones", "config": {}}, "beta_regularizer": null, "gamma_regularizer": null, "beta_constraint": null, "gamma_constraint": null}, "name": "stem_1_REPARAM_2_bn", "inbound_nodes": [[["stem_1_REPARAM_2_conv", 0, 0, {}]]]}, {"class_name": "Add", "config": {"name": "stem_1_REPARAM_out", "trainable": true, "dtype": "float32"}, "name": "stem_1_REPARAM_out", "inbound_nodes": [[["stem_1_REPARAM_1_bn", 0, 0, {}], ["stem_1_REPARAM_2_bn", 0, 0, {}]]]}, {"class_name": "Activation", "config": {"name": "stem_1_outgelu", "trainable": true, "dtype": "float32", "activation": "gelu"}, "name": "stem_1_outgelu", "inbound_nodes": [[["stem_1_REPARAM_out", 0, 0, {}]]]}, {"class_name": "ZeroPadding2D", "config": {"name": "stem_2_REPARAM_1_pad", "trainable": true, "dtype": "float32", "padding": [[1, 1], [1, 1]], "data_format": "channels_last"}, "name": "stem_2_REPARAM_1_pad", "inbound_nodes": [[["stem_1_outgelu", 0, 0, {}]]]}, {"class_name": "DepthwiseConv2D", "config": {"name": "stem_2_REPARAM_1_dw_conv", "trainable": true, "dtype": "float32", "kernel_size": [3, 3], "strides": [2, 2], "padding": "valid", "data_format": "channels_last", "dilation_rate": [1, 1], "groups": 1, "activation": "linear", "use_bias": false, "bias_initializer": {"class_name": "Zeros", "config": {}}, "bias_regularizer": null, "activity_regularizer": null, "bias_constraint": null, "depth_multiplier": 1, "depthwise_initializer": {"class_name": "GlorotUniform", "config": {"seed": null}}, "depthwise_regularizer": null, "depthwise_constraint": null}, "name": "stem_2_REPARAM_1_dw_conv", "inbound_nodes": [[["stem_2_REPARAM_1_pad", 0, 0, {}]]]}, {"class_name": "DepthwiseConv2D", "config": {"name": "stem_2_REPARAM_2_dw_conv", "trainable": true, "dtype": "float32", "kernel_size": [1, 1], "strides": [2, 2], "padding": "valid", "data_format": "channels_last", "dilation_rate": [1, 1], "groups": 1, "activation": "linear", "use_bias": false, "bias_initializer": {"class_name": "Zeros", "config": {}}, "bias_regularizer": null, "activity_regularizer": null, "bias_constraint": null, "depth_multiplier": 1, "depthwise_initializer": {"class_name": "GlorotUniform", "config": {"seed": null}}, "depthwise_regularizer": null, "depthwise_constraint": null}, "name": "stem_2_REPARAM_2_dw_conv", "inbound_nodes": [[["stem_1_outgelu", 0, 0, {}]]]}, {"class_name": "BatchNormalization", "config": {"name": "stem_2_REPARAM_1_bn", "trainable": true, "dtype": "float32", "axis": [3], "momentum": 0.9, "epsilon": 1e-05, "center": true, "scale": true, "beta_initializer": {"class_name": "Zeros", "config": {}}, "gamma_initializer": {"class_name": "Ones", "config": {}}, "moving_mean_initializer": {"class_name": "Zeros", "config": {}}, "moving_variance_initializer": {"class_name": "Ones", "config": {}}, "beta_regularizer": null, "gamma_regularizer": null, "beta_constraint": null, "gamma_constraint": null}, "name": "stem_2_REPARAM_1_bn", "inbound_nodes": [[["stem_2_REPARAM_1_dw_conv", 0, 0, {}]]]}, {"class_name": "BatchNormalization", "config": {"name": "stem_2_REPARAM_2_bn", "trainable": true, "dtype": "float32", "axis": [3], "momentum": 0.9, "epsilon": 1e-05, "center": true, "scale": true, "beta_initializer": {"class_name": "Zeros", "config": {}}, "gamma_initializer": {"class_name": "Ones", "config": {}}, "moving_mean_initializer": {"class_name": "Zeros", "config": {}}, "moving_variance_initializer": {"class_name": "Ones", "config": {}}, "beta_regularizer": null, "gamma_regularizer": null, "beta_constraint": null, "gamma_constraint": null}, "name": "stem_2_REPARAM_2_bn", "inbound_nodes": [[["stem_2_REPARAM_2_dw_conv", 0, 0, {}]]]}, {"class_name": "Add", "config": {"name": "stem_2_REPARAM_out", "trainable": true, "dtype": "float32"}, "name": "stem_2_REPARAM_out", "inbound_nodes": [[["stem_2_REPARAM_1_bn", 0, 0, {}], ["stem_2_REPARAM_2_bn", 0, 0, {}]]]}, {"class_name": "Activation", "config": {"name": "stem_2_outgelu", "trainable": true, "dtype": "float32", "activation": "gelu"}, "name": "stem_2_outgelu", "inbound_nodes": [[["stem_2_REPARAM_out", 0, 0, {}]]]}, {"class_name": "Conv2D", "config": {"name": "stem_3_REPARAM_1_conv", "trainable": true, "dtype": "float32", "filters": 48, "kernel_size": [1, 1], "strides": [1, 1], "padding": "valid", "data_format": "channels_last", "dilation_rate": [1, 1], "groups": 1, "activation": "linear", "use_bias": false, "kernel_initializer": {"class_name": "GlorotUniform", "config": {"seed": null}}, "bias_initializer": {"class_name": "Zeros", "config": {}}, "kernel_regularizer": null, "bias_regularizer": null, "activity_regularizer": null, "kernel_constraint": null, "bias_constraint": null}, "name": "stem_3_REPARAM_1_conv", "inbound_nodes": [[["stem_2_outgelu", 0, 0, {}]]]}, {"class_name": "BatchNormalization", "config": {"name": "stem_3_REPARAM_1_bn", "trainable": true, "dtype": "float32", "axis": [3], "momentum": 0.9, "epsilon": 1e-05, "center": true, "scale": true, "beta_initializer": {"class_name": "Zeros", "config": {}}, "gamma_initializer": {"class_name": "Ones", "config": {}}, "moving_mean_initializer": {"class_name": "Zeros", "config": {}}, "moving_variance_initializer": {"class_name": "Ones", "config": {}}, "beta_regularizer": null, "gamma_regularizer": null, "beta_constraint": null, "gamma_constraint": null}, "name": "stem_3_REPARAM_1_bn", "inbound_nodes": [[["stem_3_REPARAM_1_conv", 0, 0, {}]]]}, {"class_name": "BatchNormalization", "config": {"name": "stem_3_REPARAM_0_bn", "trainable": true, "dtype": "float32", "axis": [3], "momentum": 0.9, "epsilon": 1e-05, "center": true, "scale": true, "beta_initializer": {"class_name": "Zeros", "config": {}}, "gamma_initializer": {"class_name": "Ones", "config": {}}, "moving_mean_initializer": {"class_name": "Zeros", "config": {}}, "moving_variance_initializer": {"class_name": "Ones", "config": {}}, "beta_regularizer": null, "gamma_regularizer": null, "beta_constraint": null, "gamma_constraint": null}, "name": "stem_3_REPARAM_0_bn", "inbound_nodes": [[["stem_2_outgelu", 0, 0, {}]]]}, {"class_name": "Add", "config": {"name": "stem_3_REPARAM_out", "trainable": true, "dtype": "float32"}, "name": "stem_3_REPARAM_out", "inbound_nodes": [[["stem_3_REPARAM_1_bn", 0, 0, {}], ["stem_3_REPARAM_0_bn", 0, 0, {}]]]}, {"class_name": "Activation", "config": {"name": "stem_3_outgelu", "trainable": true, "dtype": "float32", "activation": "gelu"}, "name": "stem_3_outgelu", "inbound_nodes": [[["stem_3_REPARAM_out", 0, 0, {}]]]}, {"class_name": "ZeroPadding2D", "config": {"name": "stack1_block1_mixer_REPARAM_1_pad", "trainable": true, "dtype": "float32", "padding": [[1, 1], [1, 1]], "data_format": "channels_last"}, "name": "stack1_block1_mixer_REPARAM_1_pad", "inbound_nodes": [[["stem_3_outgelu", 0, 0, {}]]]}, {"class_name": "DepthwiseConv2D", "config": {"name": "stack1_block1_mixer_REPARAM_1_dw_conv", "trainable": true, "dtype": "float32", "kernel_size": [3, 3], "strides": [1, 1], "padding": "valid", "data_format": "channels_last", "dilation_rate": [1, 1], "groups": 1, "activation": "linear", "use_bias": false, "bias_initializer": {"class_name": "Zeros", "config": {}}, "bias_regularizer": null, "activity_regularizer": null, "bias_constraint": null, "depth_multiplier": 1, "depthwise_initializer": {"class_name": "GlorotUniform", "config": {"seed": null}}, "depthwise_regularizer": null, "depthwise_constraint": null}, "name": "stack1_block1_mixer_REPARAM_1_dw_conv", "inbound_nodes": [[["stack1_block1_mixer_REPARAM_1_pad", 0, 0, {}]]]}, {"class_name": "DepthwiseConv2D", "config": {"name": "stack1_block1_mixer_REPARAM_2_dw_conv", "trainable": true, "dtype": "float32", "kernel_size": [1, 1], "strides": [1, 1], "padding": "valid", "data_format": "channels_last", "dilation_rate": [1, 1], "groups": 1, "activation": "linear", "use_bias": false, "bias_initializer": {"class_name": "Zeros", "config": {}}, "bias_regularizer": null, "activity_regularizer": null, "bias_constraint": null, "depth_multiplier": 1, "depthwise_initializer": {"class_name": "GlorotUniform", "config": {"seed": null}}, "depthwise_regularizer": null, "depthwise_constraint": null}, "name": "stack1_block1_mixer_REPARAM_2_dw_conv", "inbound_nodes": [[["stem_3_outgelu", 0, 0, {}]]]}, {"class_name": "BatchNormalization", "config": {"name": "stack1_block1_mixer_REPARAM_1_bn", "trainable": true, "dtype": "float32", "axis": [3], "momentum": 0.9, "epsilon": 1e-05, "center": true, "scale": true, "beta_initializer": {"class_name": "Zeros", "config": {}}, "gamma_initializer": {"class_name": "Ones", "config": {}}, "moving_mean_initializer": {"class_name": "Zeros", "config": {}}, "moving_variance_initializer": {"class_name": "Ones", "config": {}}, "beta_regularizer": null, "gamma_regularizer": null, "beta_constraint": null, "gamma_constraint": null}, "name": "stack1_block1_mixer_REPARAM_1_bn", "inbound_nodes": [[["stack1_block1_mixer_REPARAM_1_dw_conv", 0, 0, {}]]]}, {"class_name": "BatchNormalization", "config": {"name": "stack1_block1_mixer_REPARAM_2_bn", "trainable": true, "dtype": "float32", "axis": [3], "momentum": 0.9, "epsilon": 1e-05, "center": true, "scale": true, "beta_initializer": {"class_name": "Zeros", "config": {}}, "gamma_initializer": {"class_name": "Ones", "config": {}}, "moving_mean_initializer": {"class_name": "Zeros", "config": {}}, "moving_variance_initializer": {"class_name": "Ones", "config": {}}, "beta_regularizer": null, "gamma_regularizer": null, "beta_constraint": null, "gamma_constraint": null}, "name": "stack1_block1_mixer_REPARAM_2_bn", "inbound_nodes": [[["stack1_block1_mixer_REPARAM_2_dw_conv", 0, 0, {}]]]}, {"class_name": "BatchNormalization", "config": {"name": "stack1_block1_mixer_REPARAM_0_bn", "trainable": true, "dtype": "float32", "axis": [3], "momentum": 0.9, "epsilon": 1e-05, "center": true, "scale": true, "beta_initializer": {"class_name": "Zeros", "config": {}}, "gamma_initializer": {"class_name": "Ones", "config": {}}, "moving_mean_initializer": {"class_name": "Zeros", "config": {}}, "moving_variance_initializer": {"class_name": "Ones", "config": {}}, "beta_regularizer": null, "gamma_regularizer": null, "beta_constraint": null, "gamma_constraint": null}, "name": "stack1_block1_mixer_REPARAM_0_bn", "inbound_nodes": [[["stem_3_outgelu", 0, 0, {}]]]}, {"class_name": "Add", "config": {"name": "stack1_block1_mixer_REPARAM_out", "trainable": true, "dtype": "float32"}, "name": "stack1_block1_mixer_REPARAM_out", "inbound_nodes": [[["stack1_block1_mixer_REPARAM_1_bn", 0, 0, {}], ["stack1_block1_mixer_REPARAM_2_bn", 0, 0, {}], ["stack1_block1_mixer_REPARAM_0_bn", 0, 0, {}]]]}, {"class_name": "BatchNormalization", "config": {"name": "stack1_block1_mixer_bn", "trainable": true, "dtype": "float32", "axis": [3], "momentum": 0.9, "epsilon": 1e-05, "center": true, "scale": true, "beta_initializer": {"class_name": "Zeros", "config": {}}, "gamma_initializer": {"class_name": "Ones", "config": {}}, "moving_mean_initializer": {"class_name": "Zeros", "config": {}}, "moving_variance_initializer": {"class_name": "Ones", "config": {}}, "beta_regularizer": null, "gamma_regularizer": null, "beta_constraint": null, "gamma_constraint": null}, "name": "stack1_block1_mixer_bn", "inbound_nodes": [[["stem_3_outgelu", 0, 0, {}]]]}, {"class_name": "TFOpLambda", "config": {"name": "tf.math.subtract", "trainable": true, "dtype": "float32", "function": "math.subtract"}, "name": "tf.math.subtract", "inbound_nodes": [["stack1_block1_mixer_REPARAM_out", 0, 0, {"y": ["stack1_block1_mixer_bn", 0, 0], "name": null}]]}, {"class_name": "resmlp>ChannelAffine", "config": {"name": "stack1_block1_1_gamma", "trainable": true, "dtype": "float32", "use_bias": false, "weight_init_value": 1e-05, "axis": -1}, "name": "stack1_block1_1_gamma", "inbound_nodes": [[["tf.math.subtract", 0, 0, {}]]]}, {"class_name": "Add", "config": {"name": "stack1_block1_1_output", "trainable": true, "dtype": "float32"}, "name": "stack1_block1_1_output", "inbound_nodes": [[["stem_3_outgelu", 0, 0, {}], ["stack1_block1_1_gamma", 0, 0, {}]]]}, {"class_name": "ZeroPadding2D", "config": {"name": "stack1_block1_mlp_pre_pad", "trainable": true, "dtype": "float32", "padding": [[3, 3], [3, 3]], "data_format": "channels_last"}, "name": "stack1_block1_mlp_pre_pad", "inbound_nodes": [[["stack1_block1_1_output", 0, 0, {}]]]}, {"class_name": "Conv2D", "config": {"name": "stack1_block1_mlp_pre_conv", "trainable": true, "dtype": "float32", "filters": 48, "kernel_size": [7, 7], "strides": [1, 1], "padding": "valid", "data_format": "channels_last", "dilation_rate": [1, 1], "groups": 48, "activation": "linear", "use_bias": false, "kernel_initializer": {"class_name": "GlorotUniform", "config": {"seed": null}}, "bias_initializer": {"class_name": "Zeros", "config": {}}, "kernel_regularizer": null, "bias_regularizer": null, "activity_regularizer": null, "kernel_constraint": null, "bias_constraint": null}, "name": "stack1_block1_mlp_pre_conv", "inbound_nodes": [[["stack1_block1_mlp_pre_pad", 0, 0, {}]]]}, {"class_name": "BatchNormalization", "config": {"name": "stack1_block1_mlp_pre_bn", "trainable": true, "dtype": "float32", "axis": [3], "momentum": 0.9, "epsilon": 1e-05, "center": true, "scale": true, "beta_initializer": {"class_name": "Zeros", "config": {}}, "gamma_initializer": {"class_name": "Ones", "config": {}}, "moving_mean_initializer": {"class_name": "Zeros", "config": {}}, "moving_variance_initializer": {"class_name": "Ones", "config": {}}, "beta_regularizer": null, "gamma_regularizer": null, "beta_constraint": null, "gamma_constraint": null}, "name": "stack1_block1_mlp_pre_bn", "inbound_nodes": [[["stack1_block1_mlp_pre_conv", 0, 0, {}]]]}, {"class_name": "Conv2D", "config": {"name": "stack1_block1_mlp_Conv_0", "trainable": true, "dtype": "float32", "filters": 144, "kernel_size": [1, 1], "strides": [1, 1], "padding": "valid", "data_format": "channels_last", "dilation_rate": [1, 1], "groups": 1, "activation": "linear", "use_bias": true, "kernel_initializer": {"class_name": "GlorotUniform", "config": {"seed": null}}, "bias_initializer": {"class_name": "Zeros", "config": {}}, "kernel_regularizer": null, "bias_regularizer": null, "activity_regularizer": null, "kernel_constraint": null, "bias_constraint": null}, "name": "stack1_block1_mlp_Conv_0", "inbound_nodes": [[["stack1_block1_mlp_pre_bn", 0, 0, {}]]]}, {"class_name": "Activation", "config": {"name": "stack1_block1_mlp_gelu", "trainable": true, "dtype": "float32", "activation": "gelu"}, "name": "stack1_block1_mlp_gelu", "inbound_nodes": [[["stack1_block1_mlp_Conv_0", 0, 0, {}]]]}, {"class_name": "Conv2D", "config": {"name": "stack1_block1_mlp_Conv_1", "trainable": true, "dtype": "float32", "filters": 48, "kernel_size": [1, 1], "strides": [1, 1], "padding": "valid", "data_format": "channels_last", "dilation_rate": [1, 1], "groups": 1, "activation": "linear", "use_bias": true, "kernel_initializer": {"class_name": "GlorotUniform", "config": {"seed": null}}, "bias_initializer": {"class_name": "Zeros", "config": {}}, "kernel_regularizer": null, "bias_regularizer": null, "activity_regularizer": null, "kernel_constraint": null, "bias_constraint": null}, "name": "stack1_block1_mlp_Conv_1", "inbound_nodes": [[["stack1_block1_mlp_gelu", 0, 0, {}]]]}, {"class_name": "resmlp>ChannelAffine", "config": {"name": "stack1_block1_2_gamma", "trainable": true, "dtype": "float32", "use_bias": false, "weight_init_value": 1e-05, "axis": -1}, "name": "stack1_block1_2_gamma", "inbound_nodes": [[["stack1_block1_mlp_Conv_1", 0, 0, {}]]]}, {"class_name": "Add", "config": {"name": "stack1_block1_2_output", "trainable": true, "dtype": "float32"}, "name": "stack1_block1_2_output", "inbound_nodes": [[["stack1_block1_1_output", 0, 0, {}], ["stack1_block1_2_gamma", 0, 0, {}]]]}, {"class_name": "ZeroPadding2D", "config": {"name": "stack1_block2_mixer_REPARAM_1_pad", "trainable": true, "dtype": "float32", "padding": [[1, 1], [1, 1]], "data_format": "channels_last"}, "name": "stack1_block2_mixer_REPARAM_1_pad", "inbound_nodes": [[["stack1_block1_2_output", 0, 0, {}]]]}, {"class_name": "DepthwiseConv2D", "config": {"name": "stack1_block2_mixer_REPARAM_1_dw_conv", "trainable": true, "dtype": "float32", "kernel_size": [3, 3], "strides": [1, 1], "padding": "valid", "data_format": "channels_last", "dilation_rate": [1, 1], "groups": 1, "activation": "linear", "use_bias": false, "bias_initializer": {"class_name": "Zeros", "config": {}}, "bias_regularizer": null, "activity_regularizer": null, "bias_constraint": null, "depth_multiplier": 1, "depthwise_initializer": {"class_name": "GlorotUniform", "config": {"seed": null}}, "depthwise_regularizer": null, "depthwise_constraint": null}, "name": "stack1_block2_mixer_REPARAM_1_dw_conv", "inbound_nodes": [[["stack1_block2_mixer_REPARAM_1_pad", 0, 0, {}]]]}, {"class_name": "DepthwiseConv2D", "config": {"name": "stack1_block2_mixer_REPARAM_2_dw_conv", "trainable": true, "dtype": "float32", "kernel_size": [1, 1], "strides": [1, 1], "padding": "valid", "data_format": "channels_last", "dilation_rate": [1, 1], "groups": 1, "activation": "linear", "use_bias": false, "bias_initializer": {"class_name": "Zeros", "config": {}}, "bias_regularizer": null, "activity_regularizer": null, "bias_constraint": null, "depth_multiplier": 1, "depthwise_initializer": {"class_name": "GlorotUniform", "config": {"seed": null}}, "depthwise_regularizer": null, "depthwise_constraint": null}, "name": "stack1_block2_mixer_REPARAM_2_dw_conv", "inbound_nodes": [[["stack1_block1_2_output", 0, 0, {}]]]}, {"class_name": "BatchNormalization", "config": {"name": "stack1_block2_mixer_REPARAM_1_bn", "trainable": true, "dtype": "float32", "axis": [3], "momentum": 0.9, "epsilon": 1e-05, "center": true, "scale": true, "beta_initializer": {"class_name": "Zeros", "config": {}}, "gamma_initializer": {"class_name": "Ones", "config": {}}, "moving_mean_initializer": {"class_name": "Zeros", "config": {}}, "moving_variance_initializer": {"class_name": "Ones", "config": {}}, "beta_regularizer": null, "gamma_regularizer": null, "beta_constraint": null, "gamma_constraint": null}, "name": "stack1_block2_mixer_REPARAM_1_bn", "inbound_nodes": [[["stack1_block2_mixer_REPARAM_1_dw_conv", 0, 0, {}]]]}, {"class_name": "BatchNormalization", "config": {"name": "stack1_block2_mixer_REPARAM_2_bn", "trainable": true, "dtype": "float32", "axis": [3], "momentum": 0.9, "epsilon": 1e-05, "center": true, "scale": true, "beta_initializer": {"class_name": "Zeros", "config": {}}, "gamma_initializer": {"class_name": "Ones", "config": {}}, "moving_mean_initializer": {"class_name": "Zeros", "config": {}}, "moving_variance_initializer": {"class_name": "Ones", "config": {}}, "beta_regularizer": null, "gamma_regularizer": null, "beta_constraint": null, "gamma_constraint": null}, "name": "stack1_block2_mixer_REPARAM_2_bn", "inbound_nodes": [[["stack1_block2_mixer_REPARAM_2_dw_conv", 0, 0, {}]]]}, {"class_name": "BatchNormalization", "config": {"name": "stack1_block2_mixer_REPARAM_0_bn", "trainable": true, "dtype": "float32", "axis": [3], "momentum": 0.9, "epsilon": 1e-05, "center": true, "scale": true, "beta_initializer": {"class_name": "Zeros", "config": {}}, "gamma_initializer": {"class_name": "Ones", "config": {}}, "moving_mean_initializer": {"class_name": "Zeros", "config": {}}, "moving_variance_initializer": {"class_name": "Ones", "config": {}}, "beta_regularizer": null, "gamma_regularizer": null, "beta_constraint": null, "gamma_constraint": null}, "name": "stack1_block2_mixer_REPARAM_0_bn", "inbound_nodes": [[["stack1_block1_2_output", 0, 0, {}]]]}, {"class_name": "Add", "config": {"name": "stack1_block2_mixer_REPARAM_out", "trainable": true, "dtype": "float32"}, "name": "stack1_block2_mixer_REPARAM_out", "inbound_nodes": [[["stack1_block2_mixer_REPARAM_1_bn", 0, 0, {}], ["stack1_block2_mixer_REPARAM_2_bn", 0, 0, {}], ["stack1_block2_mixer_REPARAM_0_bn", 0, 0, {}]]]}, {"class_name": "BatchNormalization", "config": {"name": "stack1_block2_mixer_bn", "trainable": true, "dtype": "float32", "axis": [3], "momentum": 0.9, "epsilon": 1e-05, "center": true, "scale": true, "beta_initializer": {"class_name": "Zeros", "config": {}}, "gamma_initializer": {"class_name": "Ones", "config": {}}, "moving_mean_initializer": {"class_name": "Zeros", "config": {}}, "moving_variance_initializer": {"class_name": "Ones", "config": {}}, "beta_regularizer": null, "gamma_regularizer": null, "beta_constraint": null, "gamma_constraint": null}, "name": "stack1_block2_mixer_bn", "inbound_nodes": [[["stack1_block1_2_output", 0, 0, {}]]]}, {"class_name": "TFOpLambda", "config": {"name": "tf.math.subtract_1", "trainable": true, "dtype": "float32", "function": "math.subtract"}, "name": "tf.math.subtract_1", "inbound_nodes": [["stack1_block2_mixer_REPARAM_out", 0, 0, {"y": ["stack1_block2_mixer_bn", 0, 0], "name": null}]]}, {"class_name": "resmlp>ChannelAffine", "config": {"name": "stack1_block2_1_gamma", "trainable": true, "dtype": "float32", "use_bias": false, "weight_init_value": 1e-05, "axis": -1}, "name": "stack1_block2_1_gamma", "inbound_nodes": [[["tf.math.subtract_1", 0, 0, {}]]]}, {"class_name": "Add", "config": {"name": "stack1_block2_1_output", "trainable": true, "dtype": "float32"}, "name": "stack1_block2_1_output", "inbound_nodes": [[["stack1_block1_2_output", 0, 0, {}], ["stack1_block2_1_gamma", 0, 0, {}]]]}, {"class_name": "ZeroPadding2D", "config": {"name": "stack1_block2_mlp_pre_pad", "trainable": true, "dtype": "float32", "padding": [[3, 3], [3, 3]], "data_format": "channels_last"}, "name": "stack1_block2_mlp_pre_pad", "inbound_nodes": [[["stack1_block2_1_output", 0, 0, {}]]]}, {"class_name": "Conv2D", "config": {"name": "stack1_block2_mlp_pre_conv", "trainable": true, "dtype": "float32", "filters": 48, "kernel_size": [7, 7], "strides": [1, 1], "padding": "valid", "data_format": "channels_last", "dilation_rate": [1, 1], "groups": 48, "activation": "linear", "use_bias": false, "kernel_initializer": {"class_name": "GlorotUniform", "config": {"seed": null}}, "bias_initializer": {"class_name": "Zeros", "config": {}}, "kernel_regularizer": null, "bias_regularizer": null, "activity_regularizer": null, "kernel_constraint": null, "bias_constraint": null}, "name": "stack1_block2_mlp_pre_conv", "inbound_nodes": [[["stack1_block2_mlp_pre_pad", 0, 0, {}]]]}, {"class_name": "BatchNormalization", "config": {"name": "stack1_block2_mlp_pre_bn", "trainable": true, "dtype": "float32", "axis": [3], "momentum": 0.9, "epsilon": 1e-05, "center": true, "scale": true, "beta_initializer": {"class_name": "Zeros", "config": {}}, "gamma_initializer": {"class_name": "Ones", "config": {}}, "moving_mean_initializer": {"class_name": "Zeros", "config": {}}, "moving_variance_initializer": {"class_name": "Ones", "config": {}}, "beta_regularizer": null, "gamma_regularizer": null, "beta_constraint": null, "gamma_constraint": null}, "name": "stack1_block2_mlp_pre_bn", "inbound_nodes": [[["stack1_block2_mlp_pre_conv", 0, 0, {}]]]}, {"class_name": "Conv2D", "config": {"name": "stack1_block2_mlp_Conv_0", "trainable": true, "dtype": "float32", "filters": 144, "kernel_size": [1, 1], "strides": [1, 1], "padding": "valid", "data_format": "channels_last", "dilation_rate": [1, 1], "groups": 1, "activation": "linear", "use_bias": true, "kernel_initializer": {"class_name": "GlorotUniform", "config": {"seed": null}}, "bias_initializer": {"class_name": "Zeros", "config": {}}, "kernel_regularizer": null, "bias_regularizer": null, "activity_regularizer": null, "kernel_constraint": null, "bias_constraint": null}, "name": "stack1_block2_mlp_Conv_0", "inbound_nodes": [[["stack1_block2_mlp_pre_bn", 0, 0, {}]]]}, {"class_name": "Activation", "config": {"name": "stack1_block2_mlp_gelu", "trainable": true, "dtype": "float32", "activation": "gelu"}, "name": "stack1_block2_mlp_gelu", "inbound_nodes": [[["stack1_block2_mlp_Conv_0", 0, 0, {}]]]}, {"class_name": "Conv2D", "config": {"name": "stack1_block2_mlp_Conv_1", "trainable": true, "dtype": "float32", "filters": 48, "kernel_size": [1, 1], "strides": [1, 1], "padding": "valid", "data_format": "channels_last", "dilation_rate": [1, 1], "groups": 1, "activation": "linear", "use_bias": true, "kernel_initializer": {"class_name": "GlorotUniform", "config": {"seed": null}}, "bias_initializer": {"class_name": "Zeros", "config": {}}, "kernel_regularizer": null, "bias_regularizer": null, "activity_regularizer": null, "kernel_constraint": null, "bias_constraint": null}, "name": "stack1_block2_mlp_Conv_1", "inbound_nodes": [[["stack1_block2_mlp_gelu", 0, 0, {}]]]}, {"class_name": "resmlp>ChannelAffine", "config": {"name": "stack1_block2_2_gamma", "trainable": true, "dtype": "float32", "use_bias": false, "weight_init_value": 1e-05, "axis": -1}, "name": "stack1_block2_2_gamma", "inbound_nodes": [[["stack1_block2_mlp_Conv_1", 0, 0, {}]]]}, {"class_name": "Add", "config": {"name": "stack1_block2_2_output", "trainable": true, "dtype": "float32"}, "name": "stack1_block2_2_output", "inbound_nodes": [[["stack1_block2_1_output", 0, 0, {}], ["stack1_block2_2_gamma", 0, 0, {}]]]}, {"class_name": "ZeroPadding2D", "config": {"name": "stack2_downsample_REPARAM_1_pad", "trainable": true, "dtype": "float32", "padding": [[3, 3], [3, 3]], "data_format": "channels_last"}, "name": "stack2_downsample_REPARAM_1_pad", "inbound_nodes": [[["stack1_block2_2_output", 0, 0, {}]]]}, {"class_name": "ZeroPadding2D", "config": {"name": "stack2_downsample_REPARAM_2_pad", "trainable": true, "dtype": "float32", "padding": [[1, 1], [1, 1]], "data_format": "channels_last"}, "name": "stack2_downsample_REPARAM_2_pad", "inbound_nodes": [[["stack1_block2_2_output", 0, 0, {}]]]}, {"class_name": "Conv2D", "config": {"name": "stack2_downsample_REPARAM_1_conv", "trainable": true, "dtype": "float32", "filters": 96, "kernel_size": [7, 7], "strides": [2, 2], "padding": "valid", "data_format": "channels_last", "dilation_rate": [1, 1], "groups": 48, "activation": "linear", "use_bias": false, "kernel_initializer": {"class_name": "GlorotUniform", "config": {"seed": null}}, "bias_initializer": {"class_name": "Zeros", "config": {}}, "kernel_regularizer": null, "bias_regularizer": null, "activity_regularizer": null, "kernel_constraint": null, "bias_constraint": null}, "name": "stack2_downsample_REPARAM_1_conv", "inbound_nodes": [[["stack2_downsample_REPARAM_1_pad", 0, 0, {}]]]}, {"class_name": "Conv2D", "config": {"name": "stack2_downsample_REPARAM_2_conv", "trainable": true, "dtype": "float32", "filters": 96, "kernel_size": [3, 3], "strides": [2, 2], "padding": "valid", "data_format": "channels_last", "dilation_rate": [1, 1], "groups": 48, "activation": "linear", "use_bias": false, "kernel_initializer": {"class_name": "GlorotUniform", "config": {"seed": null}}, "bias_initializer": {"class_name": "Zeros", "config": {}}, "kernel_regularizer": null, "bias_regularizer": null, "activity_regularizer": null, "kernel_constraint": null, "bias_constraint": null}, "name": "stack2_downsample_REPARAM_2_conv", "inbound_nodes": [[["stack2_downsample_REPARAM_2_pad", 0, 0, {}]]]}, {"class_name": "BatchNormalization", "config": {"name": "stack2_downsample_REPARAM_1_bn", "trainable": true, "dtype": "float32", "axis": [3], "momentum": 0.9, "epsilon": 1e-05, "center": true, "scale": true, "beta_initializer": {"class_name": "Zeros", "config": {}}, "gamma_initializer": {"class_name": "Ones", "config": {}}, "moving_mean_initializer": {"class_name": "Zeros", "config": {}}, "moving_variance_initializer": {"class_name": "Ones", "config": {}}, "beta_regularizer": null, "gamma_regularizer": null, "beta_constraint": null, "gamma_constraint": null}, "name": "stack2_downsample_REPARAM_1_bn", "inbound_nodes": [[["stack2_downsample_REPARAM_1_conv", 0, 0, {}]]]}, {"class_name": "BatchNormalization", "config": {"name": "stack2_downsample_REPARAM_2_bn", "trainable": true, "dtype": "float32", "axis": [3], "momentum": 0.9, "epsilon": 1e-05, "center": true, "scale": true, "beta_initializer": {"class_name": "Zeros", "config": {}}, "gamma_initializer": {"class_name": "Ones", "config": {}}, "moving_mean_initializer": {"class_name": "Zeros", "config": {}}, "moving_variance_initializer": {"class_name": "Ones", "config": {}}, "beta_regularizer": null, "gamma_regularizer": null, "beta_constraint": null, "gamma_constraint": null}, "name": "stack2_downsample_REPARAM_2_bn", "inbound_nodes": [[["stack2_downsample_REPARAM_2_conv", 0, 0, {}]]]}, {"class_name": "Add", "config": {"name": "stack2_downsample_REPARAM_out", "trainable": true, "dtype": "float32"}, "name": "stack2_downsample_REPARAM_out", "inbound_nodes": [[["stack2_downsample_REPARAM_1_bn", 0, 0, {}], ["stack2_downsample_REPARAM_2_bn", 0, 0, {}]]]}, {"class_name": "Conv2D", "config": {"name": "stack2_downsample_2_REPARAM_1_conv", "trainable": true, "dtype": "float32", "filters": 96, "kernel_size": [1, 1], "strides": [1, 1], "padding": "valid", "data_format": "channels_last", "dilation_rate": [1, 1], "groups": 1, "activation": "linear", "use_bias": false, "kernel_initializer": {"class_name": "GlorotUniform", "config": {"seed": null}}, "bias_initializer": {"class_name": "Zeros", "config": {}}, "kernel_regularizer": null, "bias_regularizer": null, "activity_regularizer": null, "kernel_constraint": null, "bias_constraint": null}, "name": "stack2_downsample_2_REPARAM_1_conv", "inbound_nodes": [[["stack2_downsample_REPARAM_out", 0, 0, {}]]]}, {"class_name": "BatchNormalization", "config": {"name": "stack2_downsample_2_REPARAM_1_bn", "trainable": true, "dtype": "float32", "axis": [3], "momentum": 0.9, "epsilon": 1e-05, "center": true, "scale": true, "beta_initializer": {"class_name": "Zeros", "config": {}}, "gamma_initializer": {"class_name": "Ones", "config": {}}, "moving_mean_initializer": {"class_name": "Zeros", "config": {}}, "moving_variance_initializer": {"class_name": "Ones", "config": {}}, "beta_regularizer": null, "gamma_regularizer": null, "beta_constraint": null, "gamma_constraint": null}, "name": "stack2_downsample_2_REPARAM_1_bn", "inbound_nodes": [[["stack2_downsample_2_REPARAM_1_conv", 0, 0, {}]]]}, {"class_name": "BatchNormalization", "config": {"name": "stack2_downsample_2_REPARAM_0_bn", "trainable": true, "dtype": "float32", "axis": [3], "momentum": 0.9, "epsilon": 1e-05, "center": true, "scale": true, "beta_initializer": {"class_name": "Zeros", "config": {}}, "gamma_initializer": {"class_name": "Ones", "config": {}}, "moving_mean_initializer": {"class_name": "Zeros", "config": {}}, "moving_variance_initializer": {"class_name": "Ones", "config": {}}, "beta_regularizer": null, "gamma_regularizer": null, "beta_constraint": null, "gamma_constraint": null}, "name": "stack2_downsample_2_REPARAM_0_bn", "inbound_nodes": [[["stack2_downsample_REPARAM_out", 0, 0, {}]]]}, {"class_name": "Add", "config": {"name": "stack2_downsample_2_REPARAM_out", "trainable": true, "dtype": "float32"}, "name": "stack2_downsample_2_REPARAM_out", "inbound_nodes": [[["stack2_downsample_2_REPARAM_1_bn", 0, 0, {}], ["stack2_downsample_2_REPARAM_0_bn", 0, 0, {}]]]}, {"class_name": "Activation", "config": {"name": "stack2_downsample_2_outgelu", "trainable": true, "dtype": "float32", "activation": "gelu"}, "name": "stack2_downsample_2_outgelu", "inbound_nodes": [[["stack2_downsample_2_REPARAM_out", 0, 0, {}]]]}, {"class_name": "ZeroPadding2D", "config": {"name": "stack2_block1_mixer_REPARAM_1_pad", "trainable": true, "dtype": "float32", "padding": [[1, 1], [1, 1]], "data_format": "channels_last"}, "name": "stack2_block1_mixer_REPARAM_1_pad", "inbound_nodes": [[["stack2_downsample_2_outgelu", 0, 0, {}]]]}, {"class_name": "DepthwiseConv2D", "config": {"name": "stack2_block1_mixer_REPARAM_1_dw_conv", "trainable": true, "dtype": "float32", "kernel_size": [3, 3], "strides": [1, 1], "padding": "valid", "data_format": "channels_last", "dilation_rate": [1, 1], "groups": 1, "activation": "linear", "use_bias": false, "bias_initializer": {"class_name": "Zeros", "config": {}}, "bias_regularizer": null, "activity_regularizer": null, "bias_constraint": null, "depth_multiplier": 1, "depthwise_initializer": {"class_name": "GlorotUniform", "config": {"seed": null}}, "depthwise_regularizer": null, "depthwise_constraint": null}, "name": "stack2_block1_mixer_REPARAM_1_dw_conv", "inbound_nodes": [[["stack2_block1_mixer_REPARAM_1_pad", 0, 0, {}]]]}, {"class_name": "DepthwiseConv2D", "config": {"name": "stack2_block1_mixer_REPARAM_2_dw_conv", "trainable": true, "dtype": "float32", "kernel_size": [1, 1], "strides": [1, 1], "padding": "valid", "data_format": "channels_last", "dilation_rate": [1, 1], "groups": 1, "activation": "linear", "use_bias": false, "bias_initializer": {"class_name": "Zeros", "config": {}}, "bias_regularizer": null, "activity_regularizer": null, "bias_constraint": null, "depth_multiplier": 1, "depthwise_initializer": {"class_name": "GlorotUniform", "config": {"seed": null}}, "depthwise_regularizer": null, "depthwise_constraint": null}, "name": "stack2_block1_mixer_REPARAM_2_dw_conv", "inbound_nodes": [[["stack2_downsample_2_outgelu", 0, 0, {}]]]}, {"class_name": "BatchNormalization", "config": {"name": "stack2_block1_mixer_REPARAM_1_bn", "trainable": true, "dtype": "float32", "axis": [3], "momentum": 0.9, "epsilon": 1e-05, "center": true, "scale": true, "beta_initializer": {"class_name": "Zeros", "config": {}}, "gamma_initializer": {"class_name": "Ones", "config": {}}, "moving_mean_initializer": {"class_name": "Zeros", "config": {}}, "moving_variance_initializer": {"class_name": "Ones", "config": {}}, "beta_regularizer": null, "gamma_regularizer": null, "beta_constraint": null, "gamma_constraint": null}, "name": "stack2_block1_mixer_REPARAM_1_bn", "inbound_nodes": [[["stack2_block1_mixer_REPARAM_1_dw_conv", 0, 0, {}]]]}, {"class_name": "BatchNormalization", "config": {"name": "stack2_block1_mixer_REPARAM_2_bn", "trainable": true, "dtype": "float32", "axis": [3], "momentum": 0.9, "epsilon": 1e-05, "center": true, "scale": true, "beta_initializer": {"class_name": "Zeros", "config": {}}, "gamma_initializer": {"class_name": "Ones", "config": {}}, "moving_mean_initializer": {"class_name": "Zeros", "config": {}}, "moving_variance_initializer": {"class_name": "Ones", "config": {}}, "beta_regularizer": null, "gamma_regularizer": null, "beta_constraint": null, "gamma_constraint": null}, "name": "stack2_block1_mixer_REPARAM_2_bn", "inbound_nodes": [[["stack2_block1_mixer_REPARAM_2_dw_conv", 0, 0, {}]]]}, {"class_name": "BatchNormalization", "config": {"name": "stack2_block1_mixer_REPARAM_0_bn", "trainable": true, "dtype": "float32", "axis": [3], "momentum": 0.9, "epsilon": 1e-05, "center": true, "scale": true, "beta_initializer": {"class_name": "Zeros", "config": {}}, "gamma_initializer": {"class_name": "Ones", "config": {}}, "moving_mean_initializer": {"class_name": "Zeros", "config": {}}, "moving_variance_initializer": {"class_name": "Ones", "config": {}}, "beta_regularizer": null, "gamma_regularizer": null, "beta_constraint": null, "gamma_constraint": null}, "name": "stack2_block1_mixer_REPARAM_0_bn", "inbound_nodes": [[["stack2_downsample_2_outgelu", 0, 0, {}]]]}, {"class_name": "Add", "config": {"name": "stack2_block1_mixer_REPARAM_out", "trainable": true, "dtype": "float32"}, "name": "stack2_block1_mixer_REPARAM_out", "inbound_nodes": [[["stack2_block1_mixer_REPARAM_1_bn", 0, 0, {}], ["stack2_block1_mixer_REPARAM_2_bn", 0, 0, {}], ["stack2_block1_mixer_REPARAM_0_bn", 0, 0, {}]]]}, {"class_name": "BatchNormalization", "config": {"name": "stack2_block1_mixer_bn", "trainable": true, "dtype": "float32", "axis": [3], "momentum": 0.9, "epsilon": 1e-05, "center": true, "scale": true, "beta_initializer": {"class_name": "Zeros", "config": {}}, "gamma_initializer": {"class_name": "Ones", "config": {}}, "moving_mean_initializer": {"class_name": "Zeros", "config": {}}, "moving_variance_initializer": {"class_name": "Ones", "config": {}}, "beta_regularizer": null, "gamma_regularizer": null, "beta_constraint": null, "gamma_constraint": null}, "name": "stack2_block1_mixer_bn", "inbound_nodes": [[["stack2_downsample_2_outgelu", 0, 0, {}]]]}, {"class_name": "TFOpLambda", "config": {"name": "tf.math.subtract_2", "trainable": true, "dtype": "float32", "function": "math.subtract"}, "name": "tf.math.subtract_2", "inbound_nodes": [["stack2_block1_mixer_REPARAM_out", 0, 0, {"y": ["stack2_block1_mixer_bn", 0, 0], "name": null}]]}, {"class_name": "resmlp>ChannelAffine", "config": {"name": "stack2_block1_1_gamma", "trainable": true, "dtype": "float32", "use_bias": false, "weight_init_value": 1e-05, "axis": -1}, "name": "stack2_block1_1_gamma", "inbound_nodes": [[["tf.math.subtract_2", 0, 0, {}]]]}, {"class_name": "Add", "config": {"name": "stack2_block1_1_output", "trainable": true, "dtype": "float32"}, "name": "stack2_block1_1_output", "inbound_nodes": [[["stack2_downsample_2_outgelu", 0, 0, {}], ["stack2_block1_1_gamma", 0, 0, {}]]]}, {"class_name": "ZeroPadding2D", "config": {"name": "stack2_block1_mlp_pre_pad", "trainable": true, "dtype": "float32", "padding": [[3, 3], [3, 3]], "data_format": "channels_last"}, "name": "stack2_block1_mlp_pre_pad", "inbound_nodes": [[["stack2_block1_1_output", 0, 0, {}]]]}, {"class_name": "Conv2D", "config": {"name": "stack2_block1_mlp_pre_conv", "trainable": true, "dtype": "float32", "filters": 96, "kernel_size": [7, 7], "strides": [1, 1], "padding": "valid", "data_format": "channels_last", "dilation_rate": [1, 1], "groups": 96, "activation": "linear", "use_bias": false, "kernel_initializer": {"class_name": "GlorotUniform", "config": {"seed": null}}, "bias_initializer": {"class_name": "Zeros", "config": {}}, "kernel_regularizer": null, "bias_regularizer": null, "activity_regularizer": null, "kernel_constraint": null, "bias_constraint": null}, "name": "stack2_block1_mlp_pre_conv", "inbound_nodes": [[["stack2_block1_mlp_pre_pad", 0, 0, {}]]]}, {"class_name": "BatchNormalization", "config": {"name": "stack2_block1_mlp_pre_bn", "trainable": true, "dtype": "float32", "axis": [3], "momentum": 0.9, "epsilon": 1e-05, "center": true, "scale": true, "beta_initializer": {"class_name": "Zeros", "config": {}}, "gamma_initializer": {"class_name": "Ones", "config": {}}, "moving_mean_initializer": {"class_name": "Zeros", "config": {}}, "moving_variance_initializer": {"class_name": "Ones", "config": {}}, "beta_regularizer": null, "gamma_regularizer": null, "beta_constraint": null, "gamma_constraint": null}, "name": "stack2_block1_mlp_pre_bn", "inbound_nodes": [[["stack2_block1_mlp_pre_conv", 0, 0, {}]]]}, {"class_name": "Conv2D", "config": {"name": "stack2_block1_mlp_Conv_0", "trainable": true, "dtype": "float32", "filters": 288, "kernel_size": [1, 1], "strides": [1, 1], "padding": "valid", "data_format": "channels_last", "dilation_rate": [1, 1], "groups": 1, "activation": "linear", "use_bias": true, "kernel_initializer": {"class_name": "GlorotUniform", "config": {"seed": null}}, "bias_initializer": {"class_name": "Zeros", "config": {}}, "kernel_regularizer": null, "bias_regularizer": null, "activity_regularizer": null, "kernel_constraint": null, "bias_constraint": null}, "name": "stack2_block1_mlp_Conv_0", "inbound_nodes": [[["stack2_block1_mlp_pre_bn", 0, 0, {}]]]}, {"class_name": "Activation", "config": {"name": "stack2_block1_mlp_gelu", "trainable": true, "dtype": "float32", "activation": "gelu"}, "name": "stack2_block1_mlp_gelu", "inbound_nodes": [[["stack2_block1_mlp_Conv_0", 0, 0, {}]]]}, {"class_name": "Conv2D", "config": {"name": "stack2_block1_mlp_Conv_1", "trainable": true, "dtype": "float32", "filters": 96, "kernel_size": [1, 1], "strides": [1, 1], "padding": "valid", "data_format": "channels_last", "dilation_rate": [1, 1], "groups": 1, "activation": "linear", "use_bias": true, "kernel_initializer": {"class_name": "GlorotUniform", "config": {"seed": null}}, "bias_initializer": {"class_name": "Zeros", "config": {}}, "kernel_regularizer": null, "bias_regularizer": null, "activity_regularizer": null, "kernel_constraint": null, "bias_constraint": null}, "name": "stack2_block1_mlp_Conv_1", "inbound_nodes": [[["stack2_block1_mlp_gelu", 0, 0, {}]]]}, {"class_name": "resmlp>ChannelAffine", "config": {"name": "stack2_block1_2_gamma", "trainable": true, "dtype": "float32", "use_bias": false, "weight_init_value": 1e-05, "axis": -1}, "name": "stack2_block1_2_gamma", "inbound_nodes": [[["stack2_block1_mlp_Conv_1", 0, 0, {}]]]}, {"class_name": "Add", "config": {"name": "stack2_block1_2_output", "trainable": true, "dtype": "float32"}, "name": "stack2_block1_2_output", "inbound_nodes": [[["stack2_block1_1_output", 0, 0, {}], ["stack2_block1_2_gamma", 0, 0, {}]]]}, {"class_name": "ZeroPadding2D", "config": {"name": "stack2_block2_mixer_REPARAM_1_pad", "trainable": true, "dtype": "float32", "padding": [[1, 1], [1, 1]], "data_format": "channels_last"}, "name": "stack2_block2_mixer_REPARAM_1_pad", "inbound_nodes": [[["stack2_block1_2_output", 0, 0, {}]]]}, {"class_name": "DepthwiseConv2D", "config": {"name": "stack2_block2_mixer_REPARAM_1_dw_conv", "trainable": true, "dtype": "float32", "kernel_size": [3, 3], "strides": [1, 1], "padding": "valid", "data_format": "channels_last", "dilation_rate": [1, 1], "groups": 1, "activation": "linear", "use_bias": false, "bias_initializer": {"class_name": "Zeros", "config": {}}, "bias_regularizer": null, "activity_regularizer": null, "bias_constraint": null, "depth_multiplier": 1, "depthwise_initializer": {"class_name": "GlorotUniform", "config": {"seed": null}}, "depthwise_regularizer": null, "depthwise_constraint": null}, "name": "stack2_block2_mixer_REPARAM_1_dw_conv", "inbound_nodes": [[["stack2_block2_mixer_REPARAM_1_pad", 0, 0, {}]]]}, {"class_name": "DepthwiseConv2D", "config": {"name": "stack2_block2_mixer_REPARAM_2_dw_conv", "trainable": true, "dtype": "float32", "kernel_size": [1, 1], "strides": [1, 1], "padding": "valid", "data_format": "channels_last", "dilation_rate": [1, 1], "groups": 1, "activation": "linear", "use_bias": false, "bias_initializer": {"class_name": "Zeros", "config": {}}, "bias_regularizer": null, "activity_regularizer": null, "bias_constraint": null, "depth_multiplier": 1, "depthwise_initializer": {"class_name": "GlorotUniform", "config": {"seed": null}}, "depthwise_regularizer": null, "depthwise_constraint": null}, "name": "stack2_block2_mixer_REPARAM_2_dw_conv", "inbound_nodes": [[["stack2_block1_2_output", 0, 0, {}]]]}, {"class_name": "BatchNormalization", "config": {"name": "stack2_block2_mixer_REPARAM_1_bn", "trainable": true, "dtype": "float32", "axis": [3], "momentum": 0.9, "epsilon": 1e-05, "center": true, "scale": true, "beta_initializer": {"class_name": "Zeros", "config": {}}, "gamma_initializer": {"class_name": "Ones", "config": {}}, "moving_mean_initializer": {"class_name": "Zeros", "config": {}}, "moving_variance_initializer": {"class_name": "Ones", "config": {}}, "beta_regularizer": null, "gamma_regularizer": null, "beta_constraint": null, "gamma_constraint": null}, "name": "stack2_block2_mixer_REPARAM_1_bn", "inbound_nodes": [[["stack2_block2_mixer_REPARAM_1_dw_conv", 0, 0, {}]]]}, {"class_name": "BatchNormalization", "config": {"name": "stack2_block2_mixer_REPARAM_2_bn", "trainable": true, "dtype": "float32", "axis": [3], "momentum": 0.9, "epsilon": 1e-05, "center": true, "scale": true, "beta_initializer": {"class_name": "Zeros", "config": {}}, "gamma_initializer": {"class_name": "Ones", "config": {}}, "moving_mean_initializer": {"class_name": "Zeros", "config": {}}, "moving_variance_initializer": {"class_name": "Ones", "config": {}}, "beta_regularizer": null, "gamma_regularizer": null, "beta_constraint": null, "gamma_constraint": null}, "name": "stack2_block2_mixer_REPARAM_2_bn", "inbound_nodes": [[["stack2_block2_mixer_REPARAM_2_dw_conv", 0, 0, {}]]]}, {"class_name": "BatchNormalization", "config": {"name": "stack2_block2_mixer_REPARAM_0_bn", "trainable": true, "dtype": "float32", "axis": [3], "momentum": 0.9, "epsilon": 1e-05, "center": true, "scale": true, "beta_initializer": {"class_name": "Zeros", "config": {}}, "gamma_initializer": {"class_name": "Ones", "config": {}}, "moving_mean_initializer": {"class_name": "Zeros", "config": {}}, "moving_variance_initializer": {"class_name": "Ones", "config": {}}, "beta_regularizer": null, "gamma_regularizer": null, "beta_constraint": null, "gamma_constraint": null}, "name": "stack2_block2_mixer_REPARAM_0_bn", "inbound_nodes": [[["stack2_block1_2_output", 0, 0, {}]]]}, {"class_name": "Add", "config": {"name": "stack2_block2_mixer_REPARAM_out", "trainable": true, "dtype": "float32"}, "name": "stack2_block2_mixer_REPARAM_out", "inbound_nodes": [[["stack2_block2_mixer_REPARAM_1_bn", 0, 0, {}], ["stack2_block2_mixer_REPARAM_2_bn", 0, 0, {}], ["stack2_block2_mixer_REPARAM_0_bn", 0, 0, {}]]]}, {"class_name": "BatchNormalization", "config": {"name": "stack2_block2_mixer_bn", "trainable": true, "dtype": "float32", "axis": [3], "momentum": 0.9, "epsilon": 1e-05, "center": true, "scale": true, "beta_initializer": {"class_name": "Zeros", "config": {}}, "gamma_initializer": {"class_name": "Ones", "config": {}}, "moving_mean_initializer": {"class_name": "Zeros", "config": {}}, "moving_variance_initializer": {"class_name": "Ones", "config": {}}, "beta_regularizer": null, "gamma_regularizer": null, "beta_constraint": null, "gamma_constraint": null}, "name": "stack2_block2_mixer_bn", "inbound_nodes": [[["stack2_block1_2_output", 0, 0, {}]]]}, {"class_name": "TFOpLambda", "config": {"name": "tf.math.subtract_3", "trainable": true, "dtype": "float32", "function": "math.subtract"}, "name": "tf.math.subtract_3", "inbound_nodes": [["stack2_block2_mixer_REPARAM_out", 0, 0, {"y": ["stack2_block2_mixer_bn", 0, 0], "name": null}]]}, {"class_name": "resmlp>ChannelAffine", "config": {"name": "stack2_block2_1_gamma", "trainable": true, "dtype": "float32", "use_bias": false, "weight_init_value": 1e-05, "axis": -1}, "name": "stack2_block2_1_gamma", "inbound_nodes": [[["tf.math.subtract_3", 0, 0, {}]]]}, {"class_name": "Add", "config": {"name": "stack2_block2_1_output", "trainable": true, "dtype": "float32"}, "name": "stack2_block2_1_output", "inbound_nodes": [[["stack2_block1_2_output", 0, 0, {}], ["stack2_block2_1_gamma", 0, 0, {}]]]}, {"class_name": "ZeroPadding2D", "config": {"name": "stack2_block2_mlp_pre_pad", "trainable": true, "dtype": "float32", "padding": [[3, 3], [3, 3]], "data_format": "channels_last"}, "name": "stack2_block2_mlp_pre_pad", "inbound_nodes": [[["stack2_block2_1_output", 0, 0, {}]]]}, {"class_name": "Conv2D", "config": {"name": "stack2_block2_mlp_pre_conv", "trainable": true, "dtype": "float32", "filters": 96, "kernel_size": [7, 7], "strides": [1, 1], "padding": "valid", "data_format": "channels_last", "dilation_rate": [1, 1], "groups": 96, "activation": "linear", "use_bias": false, "kernel_initializer": {"class_name": "GlorotUniform", "config": {"seed": null}}, "bias_initializer": {"class_name": "Zeros", "config": {}}, "kernel_regularizer": null, "bias_regularizer": null, "activity_regularizer": null, "kernel_constraint": null, "bias_constraint": null}, "name": "stack2_block2_mlp_pre_conv", "inbound_nodes": [[["stack2_block2_mlp_pre_pad", 0, 0, {}]]]}, {"class_name": "BatchNormalization", "config": {"name": "stack2_block2_mlp_pre_bn", "trainable": true, "dtype": "float32", "axis": [3], "momentum": 0.9, "epsilon": 1e-05, "center": true, "scale": true, "beta_initializer": {"class_name": "Zeros", "config": {}}, "gamma_initializer": {"class_name": "Ones", "config": {}}, "moving_mean_initializer": {"class_name": "Zeros", "config": {}}, "moving_variance_initializer": {"class_name": "Ones", "config": {}}, "beta_regularizer": null, "gamma_regularizer": null, "beta_constraint": null, "gamma_constraint": null}, "name": "stack2_block2_mlp_pre_bn", "inbound_nodes": [[["stack2_block2_mlp_pre_conv", 0, 0, {}]]]}, {"class_name": "Conv2D", "config": {"name": "stack2_block2_mlp_Conv_0", "trainable": true, "dtype": "float32", "filters": 288, "kernel_size": [1, 1], "strides": [1, 1], "padding": "valid", "data_format": "channels_last", "dilation_rate": [1, 1], "groups": 1, "activation": "linear", "use_bias": true, "kernel_initializer": {"class_name": "GlorotUniform", "config": {"seed": null}}, "bias_initializer": {"class_name": "Zeros", "config": {}}, "kernel_regularizer": null, "bias_regularizer": null, "activity_regularizer": null, "kernel_constraint": null, "bias_constraint": null}, "name": "stack2_block2_mlp_Conv_0", "inbound_nodes": [[["stack2_block2_mlp_pre_bn", 0, 0, {}]]]}, {"class_name": "Activation", "config": {"name": "stack2_block2_mlp_gelu", "trainable": true, "dtype": "float32", "activation": "gelu"}, "name": "stack2_block2_mlp_gelu", "inbound_nodes": [[["stack2_block2_mlp_Conv_0", 0, 0, {}]]]}, {"class_name": "Conv2D", "config": {"name": "stack2_block2_mlp_Conv_1", "trainable": true, "dtype": "float32", "filters": 96, "kernel_size": [1, 1], "strides": [1, 1], "padding": "valid", "data_format": "channels_last", "dilation_rate": [1, 1], "groups": 1, "activation": "linear", "use_bias": true, "kernel_initializer": {"class_name": "GlorotUniform", "config": {"seed": null}}, "bias_initializer": {"class_name": "Zeros", "config": {}}, "kernel_regularizer": null, "bias_regularizer": null, "activity_regularizer": null, "kernel_constraint": null, "bias_constraint": null}, "name": "stack2_block2_mlp_Conv_1", "inbound_nodes": [[["stack2_block2_mlp_gelu", 0, 0, {}]]]}, {"class_name": "resmlp>ChannelAffine", "config": {"name": "stack2_block2_2_gamma", "trainable": true, "dtype": "float32", "use_bias": false, "weight_init_value": 1e-05, "axis": -1}, "name": "stack2_block2_2_gamma", "inbound_nodes": [[["stack2_block2_mlp_Conv_1", 0, 0, {}]]]}, {"class_name": "Add", "config": {"name": "stack2_block2_2_output", "trainable": true, "dtype": "float32"}, "name": "stack2_block2_2_output", "inbound_nodes": [[["stack2_block2_1_output", 0, 0, {}], ["stack2_block2_2_gamma", 0, 0, {}]]]}, {"class_name": "ZeroPadding2D", "config": {"name": "stack3_downsample_REPARAM_1_pad", "trainable": true, "dtype": "float32", "padding": [[3, 3], [3, 3]], "data_format": "channels_last"}, "name": "stack3_downsample_REPARAM_1_pad", "inbound_nodes": [[["stack2_block2_2_output", 0, 0, {}]]]}, {"class_name": "ZeroPadding2D", "config": {"name": "stack3_downsample_REPARAM_2_pad", "trainable": true, "dtype": "float32", "padding": [[1, 1], [1, 1]], "data_format": "channels_last"}, "name": "stack3_downsample_REPARAM_2_pad", "inbound_nodes": [[["stack2_block2_2_output", 0, 0, {}]]]}, {"class_name": "Conv2D", "config": {"name": "stack3_downsample_REPARAM_1_conv", "trainable": true, "dtype": "float32", "filters": 192, "kernel_size": [7, 7], "strides": [2, 2], "padding": "valid", "data_format": "channels_last", "dilation_rate": [1, 1], "groups": 96, "activation": "linear", "use_bias": false, "kernel_initializer": {"class_name": "GlorotUniform", "config": {"seed": null}}, "bias_initializer": {"class_name": "Zeros", "config": {}}, "kernel_regularizer": null, "bias_regularizer": null, "activity_regularizer": null, "kernel_constraint": null, "bias_constraint": null}, "name": "stack3_downsample_REPARAM_1_conv", "inbound_nodes": [[["stack3_downsample_REPARAM_1_pad", 0, 0, {}]]]}, {"class_name": "Conv2D", "config": {"name": "stack3_downsample_REPARAM_2_conv", "trainable": true, "dtype": "float32", "filters": 192, "kernel_size": [3, 3], "strides": [2, 2], "padding": "valid", "data_format": "channels_last", "dilation_rate": [1, 1], "groups": 96, "activation": "linear", "use_bias": false, "kernel_initializer": {"class_name": "GlorotUniform", "config": {"seed": null}}, "bias_initializer": {"class_name": "Zeros", "config": {}}, "kernel_regularizer": null, "bias_regularizer": null, "activity_regularizer": null, "kernel_constraint": null, "bias_constraint": null}, "name": "stack3_downsample_REPARAM_2_conv", "inbound_nodes": [[["stack3_downsample_REPARAM_2_pad", 0, 0, {}]]]}, {"class_name": "BatchNormalization", "config": {"name": "stack3_downsample_REPARAM_1_bn", "trainable": true, "dtype": "float32", "axis": [3], "momentum": 0.9, "epsilon": 1e-05, "center": true, "scale": true, "beta_initializer": {"class_name": "Zeros", "config": {}}, "gamma_initializer": {"class_name": "Ones", "config": {}}, "moving_mean_initializer": {"class_name": "Zeros", "config": {}}, "moving_variance_initializer": {"class_name": "Ones", "config": {}}, "beta_regularizer": null, "gamma_regularizer": null, "beta_constraint": null, "gamma_constraint": null}, "name": "stack3_downsample_REPARAM_1_bn", "inbound_nodes": [[["stack3_downsample_REPARAM_1_conv", 0, 0, {}]]]}, {"class_name": "BatchNormalization", "config": {"name": "stack3_downsample_REPARAM_2_bn", "trainable": true, "dtype": "float32", "axis": [3], "momentum": 0.9, "epsilon": 1e-05, "center": true, "scale": true, "beta_initializer": {"class_name": "Zeros", "config": {}}, "gamma_initializer": {"class_name": "Ones", "config": {}}, "moving_mean_initializer": {"class_name": "Zeros", "config": {}}, "moving_variance_initializer": {"class_name": "Ones", "config": {}}, "beta_regularizer": null, "gamma_regularizer": null, "beta_constraint": null, "gamma_constraint": null}, "name": "stack3_downsample_REPARAM_2_bn", "inbound_nodes": [[["stack3_downsample_REPARAM_2_conv", 0, 0, {}]]]}, {"class_name": "Add", "config": {"name": "stack3_downsample_REPARAM_out", "trainable": true, "dtype": "float32"}, "name": "stack3_downsample_REPARAM_out", "inbound_nodes": [[["stack3_downsample_REPARAM_1_bn", 0, 0, {}], ["stack3_downsample_REPARAM_2_bn", 0, 0, {}]]]}, {"class_name": "Conv2D", "config": {"name": "stack3_downsample_2_REPARAM_1_conv", "trainable": true, "dtype": "float32", "filters": 192, "kernel_size": [1, 1], "strides": [1, 1], "padding": "valid", "data_format": "channels_last", "dilation_rate": [1, 1], "groups": 1, "activation": "linear", "use_bias": false, "kernel_initializer": {"class_name": "GlorotUniform", "config": {"seed": null}}, "bias_initializer": {"class_name": "Zeros", "config": {}}, "kernel_regularizer": null, "bias_regularizer": null, "activity_regularizer": null, "kernel_constraint": null, "bias_constraint": null}, "name": "stack3_downsample_2_REPARAM_1_conv", "inbound_nodes": [[["stack3_downsample_REPARAM_out", 0, 0, {}]]]}, {"class_name": "BatchNormalization", "config": {"name": "stack3_downsample_2_REPARAM_1_bn", "trainable": true, "dtype": "float32", "axis": [3], "momentum": 0.9, "epsilon": 1e-05, "center": true, "scale": true, "beta_initializer": {"class_name": "Zeros", "config": {}}, "gamma_initializer": {"class_name": "Ones", "config": {}}, "moving_mean_initializer": {"class_name": "Zeros", "config": {}}, "moving_variance_initializer": {"class_name": "Ones", "config": {}}, "beta_regularizer": null, "gamma_regularizer": null, "beta_constraint": null, "gamma_constraint": null}, "name": "stack3_downsample_2_REPARAM_1_bn", "inbound_nodes": [[["stack3_downsample_2_REPARAM_1_conv", 0, 0, {}]]]}, {"class_name": "BatchNormalization", "config": {"name": "stack3_downsample_2_REPARAM_0_bn", "trainable": true, "dtype": "float32", "axis": [3], "momentum": 0.9, "epsilon": 1e-05, "center": true, "scale": true, "beta_initializer": {"class_name": "Zeros", "config": {}}, "gamma_initializer": {"class_name": "Ones", "config": {}}, "moving_mean_initializer": {"class_name": "Zeros", "config": {}}, "moving_variance_initializer": {"class_name": "Ones", "config": {}}, "beta_regularizer": null, "gamma_regularizer": null, "beta_constraint": null, "gamma_constraint": null}, "name": "stack3_downsample_2_REPARAM_0_bn", "inbound_nodes": [[["stack3_downsample_REPARAM_out", 0, 0, {}]]]}, {"class_name": "Add", "config": {"name": "stack3_downsample_2_REPARAM_out", "trainable": true, "dtype": "float32"}, "name": "stack3_downsample_2_REPARAM_out", "inbound_nodes": [[["stack3_downsample_2_REPARAM_1_bn", 0, 0, {}], ["stack3_downsample_2_REPARAM_0_bn", 0, 0, {}]]]}, {"class_name": "Activation", "config": {"name": "stack3_downsample_2_outgelu", "trainable": true, "dtype": "float32", "activation": "gelu"}, "name": "stack3_downsample_2_outgelu", "inbound_nodes": [[["stack3_downsample_2_REPARAM_out", 0, 0, {}]]]}, {"class_name": "ZeroPadding2D", "config": {"name": "stack3_block1_mixer_REPARAM_1_pad", "trainable": true, "dtype": "float32", "padding": [[1, 1], [1, 1]], "data_format": "channels_last"}, "name": "stack3_block1_mixer_REPARAM_1_pad", "inbound_nodes": [[["stack3_downsample_2_outgelu", 0, 0, {}]]]}, {"class_name": "DepthwiseConv2D", "config": {"name": "stack3_block1_mixer_REPARAM_1_dw_conv", "trainable": true, "dtype": "float32", "kernel_size": [3, 3], "strides": [1, 1], "padding": "valid", "data_format": "channels_last", "dilation_rate": [1, 1], "groups": 1, "activation": "linear", "use_bias": false, "bias_initializer": {"class_name": "Zeros", "config": {}}, "bias_regularizer": null, "activity_regularizer": null, "bias_constraint": null, "depth_multiplier": 1, "depthwise_initializer": {"class_name": "GlorotUniform", "config": {"seed": null}}, "depthwise_regularizer": null, "depthwise_constraint": null}, "name": "stack3_block1_mixer_REPARAM_1_dw_conv", "inbound_nodes": [[["stack3_block1_mixer_REPARAM_1_pad", 0, 0, {}]]]}, {"class_name": "DepthwiseConv2D", "config": {"name": "stack3_block1_mixer_REPARAM_2_dw_conv", "trainable": true, "dtype": "float32", "kernel_size": [1, 1], "strides": [1, 1], "padding": "valid", "data_format": "channels_last", "dilation_rate": [1, 1], "groups": 1, "activation": "linear", "use_bias": false, "bias_initializer": {"class_name": "Zeros", "config": {}}, "bias_regularizer": null, "activity_regularizer": null, "bias_constraint": null, "depth_multiplier": 1, "depthwise_initializer": {"class_name": "GlorotUniform", "config": {"seed": null}}, "depthwise_regularizer": null, "depthwise_constraint": null}, "name": "stack3_block1_mixer_REPARAM_2_dw_conv", "inbound_nodes": [[["stack3_downsample_2_outgelu", 0, 0, {}]]]}, {"class_name": "BatchNormalization", "config": {"name": "stack3_block1_mixer_REPARAM_1_bn", "trainable": true, "dtype": "float32", "axis": [3], "momentum": 0.9, "epsilon": 1e-05, "center": true, "scale": true, "beta_initializer": {"class_name": "Zeros", "config": {}}, "gamma_initializer": {"class_name": "Ones", "config": {}}, "moving_mean_initializer": {"class_name": "Zeros", "config": {}}, "moving_variance_initializer": {"class_name": "Ones", "config": {}}, "beta_regularizer": null, "gamma_regularizer": null, "beta_constraint": null, "gamma_constraint": null}, "name": "stack3_block1_mixer_REPARAM_1_bn", "inbound_nodes": [[["stack3_block1_mixer_REPARAM_1_dw_conv", 0, 0, {}]]]}, {"class_name": "BatchNormalization", "config": {"name": "stack3_block1_mixer_REPARAM_2_bn", "trainable": true, "dtype": "float32", "axis": [3], "momentum": 0.9, "epsilon": 1e-05, "center": true, "scale": true, "beta_initializer": {"class_name": "Zeros", "config": {}}, "gamma_initializer": {"class_name": "Ones", "config": {}}, "moving_mean_initializer": {"class_name": "Zeros", "config": {}}, "moving_variance_initializer": {"class_name": "Ones", "config": {}}, "beta_regularizer": null, "gamma_regularizer": null, "beta_constraint": null, "gamma_constraint": null}, "name": "stack3_block1_mixer_REPARAM_2_bn", "inbound_nodes": [[["stack3_block1_mixer_REPARAM_2_dw_conv", 0, 0, {}]]]}, {"class_name": "BatchNormalization", "config": {"name": "stack3_block1_mixer_REPARAM_0_bn", "trainable": true, "dtype": "float32", "axis": [3], "momentum": 0.9, "epsilon": 1e-05, "center": true, "scale": true, "beta_initializer": {"class_name": "Zeros", "config": {}}, "gamma_initializer": {"class_name": "Ones", "config": {}}, "moving_mean_initializer": {"class_name": "Zeros", "config": {}}, "moving_variance_initializer": {"class_name": "Ones", "config": {}}, "beta_regularizer": null, "gamma_regularizer": null, "beta_constraint": null, "gamma_constraint": null}, "name": "stack3_block1_mixer_REPARAM_0_bn", "inbound_nodes": [[["stack3_downsample_2_outgelu", 0, 0, {}]]]}, {"class_name": "Add", "config": {"name": "stack3_block1_mixer_REPARAM_out", "trainable": true, "dtype": "float32"}, "name": "stack3_block1_mixer_REPARAM_out", "inbound_nodes": [[["stack3_block1_mixer_REPARAM_1_bn", 0, 0, {}], ["stack3_block1_mixer_REPARAM_2_bn", 0, 0, {}], ["stack3_block1_mixer_REPARAM_0_bn", 0, 0, {}]]]}, {"class_name": "BatchNormalization", "config": {"name": "stack3_block1_mixer_bn", "trainable": true, "dtype": "float32", "axis": [3], "momentum": 0.9, "epsilon": 1e-05, "center": true, "scale": true, "beta_initializer": {"class_name": "Zeros", "config": {}}, "gamma_initializer": {"class_name": "Ones", "config": {}}, "moving_mean_initializer": {"class_name": "Zeros", "config": {}}, "moving_variance_initializer": {"class_name": "Ones", "config": {}}, "beta_regularizer": null, "gamma_regularizer": null, "beta_constraint": null, "gamma_constraint": null}, "name": "stack3_block1_mixer_bn", "inbound_nodes": [[["stack3_downsample_2_outgelu", 0, 0, {}]]]}, {"class_name": "TFOpLambda", "config": {"name": "tf.math.subtract_4", "trainable": true, "dtype": "float32", "function": "math.subtract"}, "name": "tf.math.subtract_4", "inbound_nodes": [["stack3_block1_mixer_REPARAM_out", 0, 0, {"y": ["stack3_block1_mixer_bn", 0, 0], "name": null}]]}, {"class_name": "resmlp>ChannelAffine", "config": {"name": "stack3_block1_1_gamma", "trainable": true, "dtype": "float32", "use_bias": false, "weight_init_value": 1e-05, "axis": -1}, "name": "stack3_block1_1_gamma", "inbound_nodes": [[["tf.math.subtract_4", 0, 0, {}]]]}, {"class_name": "Add", "config": {"name": "stack3_block1_1_output", "trainable": true, "dtype": "float32"}, "name": "stack3_block1_1_output", "inbound_nodes": [[["stack3_downsample_2_outgelu", 0, 0, {}], ["stack3_block1_1_gamma", 0, 0, {}]]]}, {"class_name": "ZeroPadding2D", "config": {"name": "stack3_block1_mlp_pre_pad", "trainable": true, "dtype": "float32", "padding": [[3, 3], [3, 3]], "data_format": "channels_last"}, "name": "stack3_block1_mlp_pre_pad", "inbound_nodes": [[["stack3_block1_1_output", 0, 0, {}]]]}, {"class_name": "Conv2D", "config": {"name": "stack3_block1_mlp_pre_conv", "trainable": true, "dtype": "float32", "filters": 192, "kernel_size": [7, 7], "strides": [1, 1], "padding": "valid", "data_format": "channels_last", "dilation_rate": [1, 1], "groups": 192, "activation": "linear", "use_bias": false, "kernel_initializer": {"class_name": "GlorotUniform", "config": {"seed": null}}, "bias_initializer": {"class_name": "Zeros", "config": {}}, "kernel_regularizer": null, "bias_regularizer": null, "activity_regularizer": null, "kernel_constraint": null, "bias_constraint": null}, "name": "stack3_block1_mlp_pre_conv", "inbound_nodes": [[["stack3_block1_mlp_pre_pad", 0, 0, {}]]]}, {"class_name": "BatchNormalization", "config": {"name": "stack3_block1_mlp_pre_bn", "trainable": true, "dtype": "float32", "axis": [3], "momentum": 0.9, "epsilon": 1e-05, "center": true, "scale": true, "beta_initializer": {"class_name": "Zeros", "config": {}}, "gamma_initializer": {"class_name": "Ones", "config": {}}, "moving_mean_initializer": {"class_name": "Zeros", "config": {}}, "moving_variance_initializer": {"class_name": "Ones", "config": {}}, "beta_regularizer": null, "gamma_regularizer": null, "beta_constraint": null, "gamma_constraint": null}, "name": "stack3_block1_mlp_pre_bn", "inbound_nodes": [[["stack3_block1_mlp_pre_conv", 0, 0, {}]]]}, {"class_name": "Conv2D", "config": {"name": "stack3_block1_mlp_Conv_0", "trainable": true, "dtype": "float32", "filters": 576, "kernel_size": [1, 1], "strides": [1, 1], "padding": "valid", "data_format": "channels_last", "dilation_rate": [1, 1], "groups": 1, "activation": "linear", "use_bias": true, "kernel_initializer": {"class_name": "GlorotUniform", "config": {"seed": null}}, "bias_initializer": {"class_name": "Zeros", "config": {}}, "kernel_regularizer": null, "bias_regularizer": null, "activity_regularizer": null, "kernel_constraint": null, "bias_constraint": null}, "name": "stack3_block1_mlp_Conv_0", "inbound_nodes": [[["stack3_block1_mlp_pre_bn", 0, 0, {}]]]}, {"class_name": "Activation", "config": {"name": "stack3_block1_mlp_gelu", "trainable": true, "dtype": "float32", "activation": "gelu"}, "name": "stack3_block1_mlp_gelu", "inbound_nodes": [[["stack3_block1_mlp_Conv_0", 0, 0, {}]]]}, {"class_name": "Conv2D", "config": {"name": "stack3_block1_mlp_Conv_1", "trainable": true, "dtype": "float32", "filters": 192, "kernel_size": [1, 1], "strides": [1, 1], "padding": "valid", "data_format": "channels_last", "dilation_rate": [1, 1], "groups": 1, "activation": "linear", "use_bias": true, "kernel_initializer": {"class_name": "GlorotUniform", "config": {"seed": null}}, "bias_initializer": {"class_name": "Zeros", "config": {}}, "kernel_regularizer": null, "bias_regularizer": null, "activity_regularizer": null, "kernel_constraint": null, "bias_constraint": null}, "name": "stack3_block1_mlp_Conv_1", "inbound_nodes": [[["stack3_block1_mlp_gelu", 0, 0, {}]]]}, {"class_name": "resmlp>ChannelAffine", "config": {"name": "stack3_block1_2_gamma", "trainable": true, "dtype": "float32", "use_bias": false, "weight_init_value": 1e-05, "axis": -1}, "name": "stack3_block1_2_gamma", "inbound_nodes": [[["stack3_block1_mlp_Conv_1", 0, 0, {}]]]}, {"class_name": "Add", "config": {"name": "stack3_block1_2_output", "trainable": true, "dtype": "float32"}, "name": "stack3_block1_2_output", "inbound_nodes": [[["stack3_block1_1_output", 0, 0, {}], ["stack3_block1_2_gamma", 0, 0, {}]]]}, {"class_name": "ZeroPadding2D", "config": {"name": "stack3_block2_mixer_REPARAM_1_pad", "trainable": true, "dtype": "float32", "padding": [[1, 1], [1, 1]], "data_format": "channels_last"}, "name": "stack3_block2_mixer_REPARAM_1_pad", "inbound_nodes": [[["stack3_block1_2_output", 0, 0, {}]]]}, {"class_name": "DepthwiseConv2D", "config": {"name": "stack3_block2_mixer_REPARAM_1_dw_conv", "trainable": true, "dtype": "float32", "kernel_size": [3, 3], "strides": [1, 1], "padding": "valid", "data_format": "channels_last", "dilation_rate": [1, 1], "groups": 1, "activation": "linear", "use_bias": false, "bias_initializer": {"class_name": "Zeros", "config": {}}, "bias_regularizer": null, "activity_regularizer": null, "bias_constraint": null, "depth_multiplier": 1, "depthwise_initializer": {"class_name": "GlorotUniform", "config": {"seed": null}}, "depthwise_regularizer": null, "depthwise_constraint": null}, "name": "stack3_block2_mixer_REPARAM_1_dw_conv", "inbound_nodes": [[["stack3_block2_mixer_REPARAM_1_pad", 0, 0, {}]]]}, {"class_name": "DepthwiseConv2D", "config": {"name": "stack3_block2_mixer_REPARAM_2_dw_conv", "trainable": true, "dtype": "float32", "kernel_size": [1, 1], "strides": [1, 1], "padding": "valid", "data_format": "channels_last", "dilation_rate": [1, 1], "groups": 1, "activation": "linear", "use_bias": false, "bias_initializer": {"class_name": "Zeros", "config": {}}, "bias_regularizer": null, "activity_regularizer": null, "bias_constraint": null, "depth_multiplier": 1, "depthwise_initializer": {"class_name": "GlorotUniform", "config": {"seed": null}}, "depthwise_regularizer": null, "depthwise_constraint": null}, "name": "stack3_block2_mixer_REPARAM_2_dw_conv", "inbound_nodes": [[["stack3_block1_2_output", 0, 0, {}]]]}, {"class_name": "BatchNormalization", "config": {"name": "stack3_block2_mixer_REPARAM_1_bn", "trainable": true, "dtype": "float32", "axis": [3], "momentum": 0.9, "epsilon": 1e-05, "center": true, "scale": true, "beta_initializer": {"class_name": "Zeros", "config": {}}, "gamma_initializer": {"class_name": "Ones", "config": {}}, "moving_mean_initializer": {"class_name": "Zeros", "config": {}}, "moving_variance_initializer": {"class_name": "Ones", "config": {}}, "beta_regularizer": null, "gamma_regularizer": null, "beta_constraint": null, "gamma_constraint": null}, "name": "stack3_block2_mixer_REPARAM_1_bn", "inbound_nodes": [[["stack3_block2_mixer_REPARAM_1_dw_conv", 0, 0, {}]]]}, {"class_name": "BatchNormalization", "config": {"name": "stack3_block2_mixer_REPARAM_2_bn", "trainable": true, "dtype": "float32", "axis": [3], "momentum": 0.9, "epsilon": 1e-05, "center": true, "scale": true, "beta_initializer": {"class_name": "Zeros", "config": {}}, "gamma_initializer": {"class_name": "Ones", "config": {}}, "moving_mean_initializer": {"class_name": "Zeros", "config": {}}, "moving_variance_initializer": {"class_name": "Ones", "config": {}}, "beta_regularizer": null, "gamma_regularizer": null, "beta_constraint": null, "gamma_constraint": null}, "name": "stack3_block2_mixer_REPARAM_2_bn", "inbound_nodes": [[["stack3_block2_mixer_REPARAM_2_dw_conv", 0, 0, {}]]]}, {"class_name": "BatchNormalization", "config": {"name": "stack3_block2_mixer_REPARAM_0_bn", "trainable": true, "dtype": "float32", "axis": [3], "momentum": 0.9, "epsilon": 1e-05, "center": true, "scale": true, "beta_initializer": {"class_name": "Zeros", "config": {}}, "gamma_initializer": {"class_name": "Ones", "config": {}}, "moving_mean_initializer": {"class_name": "Zeros", "config": {}}, "moving_variance_initializer": {"class_name": "Ones", "config": {}}, "beta_regularizer": null, "gamma_regularizer": null, "beta_constraint": null, "gamma_constraint": null}, "name": "stack3_block2_mixer_REPARAM_0_bn", "inbound_nodes": [[["stack3_block1_2_output", 0, 0, {}]]]}, {"class_name": "Add", "config": {"name": "stack3_block2_mixer_REPARAM_out", "trainable": true, "dtype": "float32"}, "name": "stack3_block2_mixer_REPARAM_out", "inbound_nodes": [[["stack3_block2_mixer_REPARAM_1_bn", 0, 0, {}], ["stack3_block2_mixer_REPARAM_2_bn", 0, 0, {}], ["stack3_block2_mixer_REPARAM_0_bn", 0, 0, {}]]]}, {"class_name": "BatchNormalization", "config": {"name": "stack3_block2_mixer_bn", "trainable": true, "dtype": "float32", "axis": [3], "momentum": 0.9, "epsilon": 1e-05, "center": true, "scale": true, "beta_initializer": {"class_name": "Zeros", "config": {}}, "gamma_initializer": {"class_name": "Ones", "config": {}}, "moving_mean_initializer": {"class_name": "Zeros", "config": {}}, "moving_variance_initializer": {"class_name": "Ones", "config": {}}, "beta_regularizer": null, "gamma_regularizer": null, "beta_constraint": null, "gamma_constraint": null}, "name": "stack3_block2_mixer_bn", "inbound_nodes": [[["stack3_block1_2_output", 0, 0, {}]]]}, {"class_name": "TFOpLambda", "config": {"name": "tf.math.subtract_5", "trainable": true, "dtype": "float32", "function": "math.subtract"}, "name": "tf.math.subtract_5", "inbound_nodes": [["stack3_block2_mixer_REPARAM_out", 0, 0, {"y": ["stack3_block2_mixer_bn", 0, 0], "name": null}]]}, {"class_name": "resmlp>ChannelAffine", "config": {"name": "stack3_block2_1_gamma", "trainable": true, "dtype": "float32", "use_bias": false, "weight_init_value": 1e-05, "axis": -1}, "name": "stack3_block2_1_gamma", "inbound_nodes": [[["tf.math.subtract_5", 0, 0, {}]]]}, {"class_name": "Add", "config": {"name": "stack3_block2_1_output", "trainable": true, "dtype": "float32"}, "name": "stack3_block2_1_output", "inbound_nodes": [[["stack3_block1_2_output", 0, 0, {}], ["stack3_block2_1_gamma", 0, 0, {}]]]}, {"class_name": "ZeroPadding2D", "config": {"name": "stack3_block2_mlp_pre_pad", "trainable": true, "dtype": "float32", "padding": [[3, 3], [3, 3]], "data_format": "channels_last"}, "name": "stack3_block2_mlp_pre_pad", "inbound_nodes": [[["stack3_block2_1_output", 0, 0, {}]]]}, {"class_name": "Conv2D", "config": {"name": "stack3_block2_mlp_pre_conv", "trainable": true, "dtype": "float32", "filters": 192, "kernel_size": [7, 7], "strides": [1, 1], "padding": "valid", "data_format": "channels_last", "dilation_rate": [1, 1], "groups": 192, "activation": "linear", "use_bias": false, "kernel_initializer": {"class_name": "GlorotUniform", "config": {"seed": null}}, "bias_initializer": {"class_name": "Zeros", "config": {}}, "kernel_regularizer": null, "bias_regularizer": null, "activity_regularizer": null, "kernel_constraint": null, "bias_constraint": null}, "name": "stack3_block2_mlp_pre_conv", "inbound_nodes": [[["stack3_block2_mlp_pre_pad", 0, 0, {}]]]}, {"class_name": "BatchNormalization", "config": {"name": "stack3_block2_mlp_pre_bn", "trainable": true, "dtype": "float32", "axis": [3], "momentum": 0.9, "epsilon": 1e-05, "center": true, "scale": true, "beta_initializer": {"class_name": "Zeros", "config": {}}, "gamma_initializer": {"class_name": "Ones", "config": {}}, "moving_mean_initializer": {"class_name": "Zeros", "config": {}}, "moving_variance_initializer": {"class_name": "Ones", "config": {}}, "beta_regularizer": null, "gamma_regularizer": null, "beta_constraint": null, "gamma_constraint": null}, "name": "stack3_block2_mlp_pre_bn", "inbound_nodes": [[["stack3_block2_mlp_pre_conv", 0, 0, {}]]]}, {"class_name": "Conv2D", "config": {"name": "stack3_block2_mlp_Conv_0", "trainable": true, "dtype": "float32", "filters": 576, "kernel_size": [1, 1], "strides": [1, 1], "padding": "valid", "data_format": "channels_last", "dilation_rate": [1, 1], "groups": 1, "activation": "linear", "use_bias": true, "kernel_initializer": {"class_name": "GlorotUniform", "config": {"seed": null}}, "bias_initializer": {"class_name": "Zeros", "config": {}}, "kernel_regularizer": null, "bias_regularizer": null, "activity_regularizer": null, "kernel_constraint": null, "bias_constraint": null}, "name": "stack3_block2_mlp_Conv_0", "inbound_nodes": [[["stack3_block2_mlp_pre_bn", 0, 0, {}]]]}, {"class_name": "Activation", "config": {"name": "stack3_block2_mlp_gelu", "trainable": true, "dtype": "float32", "activation": "gelu"}, "name": "stack3_block2_mlp_gelu", "inbound_nodes": [[["stack3_block2_mlp_Conv_0", 0, 0, {}]]]}, {"class_name": "Conv2D", "config": {"name": "stack3_block2_mlp_Conv_1", "trainable": true, "dtype": "float32", "filters": 192, "kernel_size": [1, 1], "strides": [1, 1], "padding": "valid", "data_format": "channels_last", "dilation_rate": [1, 1], "groups": 1, "activation": "linear", "use_bias": true, "kernel_initializer": {"class_name": "GlorotUniform", "config": {"seed": null}}, "bias_initializer": {"class_name": "Zeros", "config": {}}, "kernel_regularizer": null, "bias_regularizer": null, "activity_regularizer": null, "kernel_constraint": null, "bias_constraint": null}, "name": "stack3_block2_mlp_Conv_1", "inbound_nodes": [[["stack3_block2_mlp_gelu", 0, 0, {}]]]}, {"class_name": "resmlp>ChannelAffine", "config": {"name": "stack3_block2_2_gamma", "trainable": true, "dtype": "float32", "use_bias": false, "weight_init_value": 1e-05, "axis": -1}, "name": "stack3_block2_2_gamma", "inbound_nodes": [[["stack3_block2_mlp_Conv_1", 0, 0, {}]]]}, {"class_name": "Add", "config": {"name": "stack3_block2_2_output", "trainable": true, "dtype": "float32"}, "name": "stack3_block2_2_output", "inbound_nodes": [[["stack3_block2_1_output", 0, 0, {}], ["stack3_block2_2_gamma", 0, 0, {}]]]}, {"class_name": "ZeroPadding2D", "config": {"name": "stack3_block3_mixer_REPARAM_1_pad", "trainable": true, "dtype": "float32", "padding": [[1, 1], [1, 1]], "data_format": "channels_last"}, "name": "stack3_block3_mixer_REPARAM_1_pad", "inbound_nodes": [[["stack3_block2_2_output", 0, 0, {}]]]}, {"class_name": "DepthwiseConv2D", "config": {"name": "stack3_block3_mixer_REPARAM_1_dw_conv", "trainable": true, "dtype": "float32", "kernel_size": [3, 3], "strides": [1, 1], "padding": "valid", "data_format": "channels_last", "dilation_rate": [1, 1], "groups": 1, "activation": "linear", "use_bias": false, "bias_initializer": {"class_name": "Zeros", "config": {}}, "bias_regularizer": null, "activity_regularizer": null, "bias_constraint": null, "depth_multiplier": 1, "depthwise_initializer": {"class_name": "GlorotUniform", "config": {"seed": null}}, "depthwise_regularizer": null, "depthwise_constraint": null}, "name": "stack3_block3_mixer_REPARAM_1_dw_conv", "inbound_nodes": [[["stack3_block3_mixer_REPARAM_1_pad", 0, 0, {}]]]}, {"class_name": "DepthwiseConv2D", "config": {"name": "stack3_block3_mixer_REPARAM_2_dw_conv", "trainable": true, "dtype": "float32", "kernel_size": [1, 1], "strides": [1, 1], "padding": "valid", "data_format": "channels_last", "dilation_rate": [1, 1], "groups": 1, "activation": "linear", "use_bias": false, "bias_initializer": {"class_name": "Zeros", "config": {}}, "bias_regularizer": null, "activity_regularizer": null, "bias_constraint": null, "depth_multiplier": 1, "depthwise_initializer": {"class_name": "GlorotUniform", "config": {"seed": null}}, "depthwise_regularizer": null, "depthwise_constraint": null}, "name": "stack3_block3_mixer_REPARAM_2_dw_conv", "inbound_nodes": [[["stack3_block2_2_output", 0, 0, {}]]]}, {"class_name": "BatchNormalization", "config": {"name": "stack3_block3_mixer_REPARAM_1_bn", "trainable": true, "dtype": "float32", "axis": [3], "momentum": 0.9, "epsilon": 1e-05, "center": true, "scale": true, "beta_initializer": {"class_name": "Zeros", "config": {}}, "gamma_initializer": {"class_name": "Ones", "config": {}}, "moving_mean_initializer": {"class_name": "Zeros", "config": {}}, "moving_variance_initializer": {"class_name": "Ones", "config": {}}, "beta_regularizer": null, "gamma_regularizer": null, "beta_constraint": null, "gamma_constraint": null}, "name": "stack3_block3_mixer_REPARAM_1_bn", "inbound_nodes": [[["stack3_block3_mixer_REPARAM_1_dw_conv", 0, 0, {}]]]}, {"class_name": "BatchNormalization", "config": {"name": "stack3_block3_mixer_REPARAM_2_bn", "trainable": true, "dtype": "float32", "axis": [3], "momentum": 0.9, "epsilon": 1e-05, "center": true, "scale": true, "beta_initializer": {"class_name": "Zeros", "config": {}}, "gamma_initializer": {"class_name": "Ones", "config": {}}, "moving_mean_initializer": {"class_name": "Zeros", "config": {}}, "moving_variance_initializer": {"class_name": "Ones", "config": {}}, "beta_regularizer": null, "gamma_regularizer": null, "beta_constraint": null, "gamma_constraint": null}, "name": "stack3_block3_mixer_REPARAM_2_bn", "inbound_nodes": [[["stack3_block3_mixer_REPARAM_2_dw_conv", 0, 0, {}]]]}, {"class_name": "BatchNormalization", "config": {"name": "stack3_block3_mixer_REPARAM_0_bn", "trainable": true, "dtype": "float32", "axis": [3], "momentum": 0.9, "epsilon": 1e-05, "center": true, "scale": true, "beta_initializer": {"class_name": "Zeros", "config": {}}, "gamma_initializer": {"class_name": "Ones", "config": {}}, "moving_mean_initializer": {"class_name": "Zeros", "config": {}}, "moving_variance_initializer": {"class_name": "Ones", "config": {}}, "beta_regularizer": null, "gamma_regularizer": null, "beta_constraint": null, "gamma_constraint": null}, "name": "stack3_block3_mixer_REPARAM_0_bn", "inbound_nodes": [[["stack3_block2_2_output", 0, 0, {}]]]}, {"class_name": "Add", "config": {"name": "stack3_block3_mixer_REPARAM_out", "trainable": true, "dtype": "float32"}, "name": "stack3_block3_mixer_REPARAM_out", "inbound_nodes": [[["stack3_block3_mixer_REPARAM_1_bn", 0, 0, {}], ["stack3_block3_mixer_REPARAM_2_bn", 0, 0, {}], ["stack3_block3_mixer_REPARAM_0_bn", 0, 0, {}]]]}, {"class_name": "BatchNormalization", "config": {"name": "stack3_block3_mixer_bn", "trainable": true, "dtype": "float32", "axis": [3], "momentum": 0.9, "epsilon": 1e-05, "center": true, "scale": true, "beta_initializer": {"class_name": "Zeros", "config": {}}, "gamma_initializer": {"class_name": "Ones", "config": {}}, "moving_mean_initializer": {"class_name": "Zeros", "config": {}}, "moving_variance_initializer": {"class_name": "Ones", "config": {}}, "beta_regularizer": null, "gamma_regularizer": null, "beta_constraint": null, "gamma_constraint": null}, "name": "stack3_block3_mixer_bn", "inbound_nodes": [[["stack3_block2_2_output", 0, 0, {}]]]}, {"class_name": "TFOpLambda", "config": {"name": "tf.math.subtract_6", "trainable": true, "dtype": "float32", "function": "math.subtract"}, "name": "tf.math.subtract_6", "inbound_nodes": [["stack3_block3_mixer_REPARAM_out", 0, 0, {"y": ["stack3_block3_mixer_bn", 0, 0], "name": null}]]}, {"class_name": "resmlp>ChannelAffine", "config": {"name": "stack3_block3_1_gamma", "trainable": true, "dtype": "float32", "use_bias": false, "weight_init_value": 1e-05, "axis": -1}, "name": "stack3_block3_1_gamma", "inbound_nodes": [[["tf.math.subtract_6", 0, 0, {}]]]}, {"class_name": "Add", "config": {"name": "stack3_block3_1_output", "trainable": true, "dtype": "float32"}, "name": "stack3_block3_1_output", "inbound_nodes": [[["stack3_block2_2_output", 0, 0, {}], ["stack3_block3_1_gamma", 0, 0, {}]]]}, {"class_name": "ZeroPadding2D", "config": {"name": "stack3_block3_mlp_pre_pad", "trainable": true, "dtype": "float32", "padding": [[3, 3], [3, 3]], "data_format": "channels_last"}, "name": "stack3_block3_mlp_pre_pad", "inbound_nodes": [[["stack3_block3_1_output", 0, 0, {}]]]}, {"class_name": "Conv2D", "config": {"name": "stack3_block3_mlp_pre_conv", "trainable": true, "dtype": "float32", "filters": 192, "kernel_size": [7, 7], "strides": [1, 1], "padding": "valid", "data_format": "channels_last", "dilation_rate": [1, 1], "groups": 192, "activation": "linear", "use_bias": false, "kernel_initializer": {"class_name": "GlorotUniform", "config": {"seed": null}}, "bias_initializer": {"class_name": "Zeros", "config": {}}, "kernel_regularizer": null, "bias_regularizer": null, "activity_regularizer": null, "kernel_constraint": null, "bias_constraint": null}, "name": "stack3_block3_mlp_pre_conv", "inbound_nodes": [[["stack3_block3_mlp_pre_pad", 0, 0, {}]]]}, {"class_name": "BatchNormalization", "config": {"name": "stack3_block3_mlp_pre_bn", "trainable": true, "dtype": "float32", "axis": [3], "momentum": 0.9, "epsilon": 1e-05, "center": true, "scale": true, "beta_initializer": {"class_name": "Zeros", "config": {}}, "gamma_initializer": {"class_name": "Ones", "config": {}}, "moving_mean_initializer": {"class_name": "Zeros", "config": {}}, "moving_variance_initializer": {"class_name": "Ones", "config": {}}, "beta_regularizer": null, "gamma_regularizer": null, "beta_constraint": null, "gamma_constraint": null}, "name": "stack3_block3_mlp_pre_bn", "inbound_nodes": [[["stack3_block3_mlp_pre_conv", 0, 0, {}]]]}, {"class_name": "Conv2D", "config": {"name": "stack3_block3_mlp_Conv_0", "trainable": true, "dtype": "float32", "filters": 576, "kernel_size": [1, 1], "strides": [1, 1], "padding": "valid", "data_format": "channels_last", "dilation_rate": [1, 1], "groups": 1, "activation": "linear", "use_bias": true, "kernel_initializer": {"class_name": "GlorotUniform", "config": {"seed": null}}, "bias_initializer": {"class_name": "Zeros", "config": {}}, "kernel_regularizer": null, "bias_regularizer": null, "activity_regularizer": null, "kernel_constraint": null, "bias_constraint": null}, "name": "stack3_block3_mlp_Conv_0", "inbound_nodes": [[["stack3_block3_mlp_pre_bn", 0, 0, {}]]]}, {"class_name": "Activation", "config": {"name": "stack3_block3_mlp_gelu", "trainable": true, "dtype": "float32", "activation": "gelu"}, "name": "stack3_block3_mlp_gelu", "inbound_nodes": [[["stack3_block3_mlp_Conv_0", 0, 0, {}]]]}, {"class_name": "Conv2D", "config": {"name": "stack3_block3_mlp_Conv_1", "trainable": true, "dtype": "float32", "filters": 192, "kernel_size": [1, 1], "strides": [1, 1], "padding": "valid", "data_format": "channels_last", "dilation_rate": [1, 1], "groups": 1, "activation": "linear", "use_bias": true, "kernel_initializer": {"class_name": "GlorotUniform", "config": {"seed": null}}, "bias_initializer": {"class_name": "Zeros", "config": {}}, "kernel_regularizer": null, "bias_regularizer": null, "activity_regularizer": null, "kernel_constraint": null, "bias_constraint": null}, "name": "stack3_block3_mlp_Conv_1", "inbound_nodes": [[["stack3_block3_mlp_gelu", 0, 0, {}]]]}, {"class_name": "resmlp>ChannelAffine", "config": {"name": "stack3_block3_2_gamma", "trainable": true, "dtype": "float32", "use_bias": false, "weight_init_value": 1e-05, "axis": -1}, "name": "stack3_block3_2_gamma", "inbound_nodes": [[["stack3_block3_mlp_Conv_1", 0, 0, {}]]]}, {"class_name": "Add", "config": {"name": "stack3_block3_2_output", "trainable": true, "dtype": "float32"}, "name": "stack3_block3_2_output", "inbound_nodes": [[["stack3_block3_1_output", 0, 0, {}], ["stack3_block3_2_gamma", 0, 0, {}]]]}, {"class_name": "ZeroPadding2D", "config": {"name": "stack3_block4_mixer_REPARAM_1_pad", "trainable": true, "dtype": "float32", "padding": [[1, 1], [1, 1]], "data_format": "channels_last"}, "name": "stack3_block4_mixer_REPARAM_1_pad", "inbound_nodes": [[["stack3_block3_2_output", 0, 0, {}]]]}, {"class_name": "DepthwiseConv2D", "config": {"name": "stack3_block4_mixer_REPARAM_1_dw_conv", "trainable": true, "dtype": "float32", "kernel_size": [3, 3], "strides": [1, 1], "padding": "valid", "data_format": "channels_last", "dilation_rate": [1, 1], "groups": 1, "activation": "linear", "use_bias": false, "bias_initializer": {"class_name": "Zeros", "config": {}}, "bias_regularizer": null, "activity_regularizer": null, "bias_constraint": null, "depth_multiplier": 1, "depthwise_initializer": {"class_name": "GlorotUniform", "config": {"seed": null}}, "depthwise_regularizer": null, "depthwise_constraint": null}, "name": "stack3_block4_mixer_REPARAM_1_dw_conv", "inbound_nodes": [[["stack3_block4_mixer_REPARAM_1_pad", 0, 0, {}]]]}, {"class_name": "DepthwiseConv2D", "config": {"name": "stack3_block4_mixer_REPARAM_2_dw_conv", "trainable": true, "dtype": "float32", "kernel_size": [1, 1], "strides": [1, 1], "padding": "valid", "data_format": "channels_last", "dilation_rate": [1, 1], "groups": 1, "activation": "linear", "use_bias": false, "bias_initializer": {"class_name": "Zeros", "config": {}}, "bias_regularizer": null, "activity_regularizer": null, "bias_constraint": null, "depth_multiplier": 1, "depthwise_initializer": {"class_name": "GlorotUniform", "config": {"seed": null}}, "depthwise_regularizer": null, "depthwise_constraint": null}, "name": "stack3_block4_mixer_REPARAM_2_dw_conv", "inbound_nodes": [[["stack3_block3_2_output", 0, 0, {}]]]}, {"class_name": "BatchNormalization", "config": {"name": "stack3_block4_mixer_REPARAM_1_bn", "trainable": true, "dtype": "float32", "axis": [3], "momentum": 0.9, "epsilon": 1e-05, "center": true, "scale": true, "beta_initializer": {"class_name": "Zeros", "config": {}}, "gamma_initializer": {"class_name": "Ones", "config": {}}, "moving_mean_initializer": {"class_name": "Zeros", "config": {}}, "moving_variance_initializer": {"class_name": "Ones", "config": {}}, "beta_regularizer": null, "gamma_regularizer": null, "beta_constraint": null, "gamma_constraint": null}, "name": "stack3_block4_mixer_REPARAM_1_bn", "inbound_nodes": [[["stack3_block4_mixer_REPARAM_1_dw_conv", 0, 0, {}]]]}, {"class_name": "BatchNormalization", "config": {"name": "stack3_block4_mixer_REPARAM_2_bn", "trainable": true, "dtype": "float32", "axis": [3], "momentum": 0.9, "epsilon": 1e-05, "center": true, "scale": true, "beta_initializer": {"class_name": "Zeros", "config": {}}, "gamma_initializer": {"class_name": "Ones", "config": {}}, "moving_mean_initializer": {"class_name": "Zeros", "config": {}}, "moving_variance_initializer": {"class_name": "Ones", "config": {}}, "beta_regularizer": null, "gamma_regularizer": null, "beta_constraint": null, "gamma_constraint": null}, "name": "stack3_block4_mixer_REPARAM_2_bn", "inbound_nodes": [[["stack3_block4_mixer_REPARAM_2_dw_conv", 0, 0, {}]]]}, {"class_name": "BatchNormalization", "config": {"name": "stack3_block4_mixer_REPARAM_0_bn", "trainable": true, "dtype": "float32", "axis": [3], "momentum": 0.9, "epsilon": 1e-05, "center": true, "scale": true, "beta_initializer": {"class_name": "Zeros", "config": {}}, "gamma_initializer": {"class_name": "Ones", "config": {}}, "moving_mean_initializer": {"class_name": "Zeros", "config": {}}, "moving_variance_initializer": {"class_name": "Ones", "config": {}}, "beta_regularizer": null, "gamma_regularizer": null, "beta_constraint": null, "gamma_constraint": null}, "name": "stack3_block4_mixer_REPARAM_0_bn", "inbound_nodes": [[["stack3_block3_2_output", 0, 0, {}]]]}, {"class_name": "Add", "config": {"name": "stack3_block4_mixer_REPARAM_out", "trainable": true, "dtype": "float32"}, "name": "stack3_block4_mixer_REPARAM_out", "inbound_nodes": [[["stack3_block4_mixer_REPARAM_1_bn", 0, 0, {}], ["stack3_block4_mixer_REPARAM_2_bn", 0, 0, {}], ["stack3_block4_mixer_REPARAM_0_bn", 0, 0, {}]]]}, {"class_name": "BatchNormalization", "config": {"name": "stack3_block4_mixer_bn", "trainable": true, "dtype": "float32", "axis": [3], "momentum": 0.9, "epsilon": 1e-05, "center": true, "scale": true, "beta_initializer": {"class_name": "Zeros", "config": {}}, "gamma_initializer": {"class_name": "Ones", "config": {}}, "moving_mean_initializer": {"class_name": "Zeros", "config": {}}, "moving_variance_initializer": {"class_name": "Ones", "config": {}}, "beta_regularizer": null, "gamma_regularizer": null, "beta_constraint": null, "gamma_constraint": null}, "name": "stack3_block4_mixer_bn", "inbound_nodes": [[["stack3_block3_2_output", 0, 0, {}]]]}, {"class_name": "TFOpLambda", "config": {"name": "tf.math.subtract_7", "trainable": true, "dtype": "float32", "function": "math.subtract"}, "name": "tf.math.subtract_7", "inbound_nodes": [["stack3_block4_mixer_REPARAM_out", 0, 0, {"y": ["stack3_block4_mixer_bn", 0, 0], "name": null}]]}, {"class_name": "resmlp>ChannelAffine", "config": {"name": "stack3_block4_1_gamma", "trainable": true, "dtype": "float32", "use_bias": false, "weight_init_value": 1e-05, "axis": -1}, "name": "stack3_block4_1_gamma", "inbound_nodes": [[["tf.math.subtract_7", 0, 0, {}]]]}, {"class_name": "Add", "config": {"name": "stack3_block4_1_output", "trainable": true, "dtype": "float32"}, "name": "stack3_block4_1_output", "inbound_nodes": [[["stack3_block3_2_output", 0, 0, {}], ["stack3_block4_1_gamma", 0, 0, {}]]]}, {"class_name": "ZeroPadding2D", "config": {"name": "stack3_block4_mlp_pre_pad", "trainable": true, "dtype": "float32", "padding": [[3, 3], [3, 3]], "data_format": "channels_last"}, "name": "stack3_block4_mlp_pre_pad", "inbound_nodes": [[["stack3_block4_1_output", 0, 0, {}]]]}, {"class_name": "Conv2D", "config": {"name": "stack3_block4_mlp_pre_conv", "trainable": true, "dtype": "float32", "filters": 192, "kernel_size": [7, 7], "strides": [1, 1], "padding": "valid", "data_format": "channels_last", "dilation_rate": [1, 1], "groups": 192, "activation": "linear", "use_bias": false, "kernel_initializer": {"class_name": "GlorotUniform", "config": {"seed": null}}, "bias_initializer": {"class_name": "Zeros", "config": {}}, "kernel_regularizer": null, "bias_regularizer": null, "activity_regularizer": null, "kernel_constraint": null, "bias_constraint": null}, "name": "stack3_block4_mlp_pre_conv", "inbound_nodes": [[["stack3_block4_mlp_pre_pad", 0, 0, {}]]]}, {"class_name": "BatchNormalization", "config": {"name": "stack3_block4_mlp_pre_bn", "trainable": true, "dtype": "float32", "axis": [3], "momentum": 0.9, "epsilon": 1e-05, "center": true, "scale": true, "beta_initializer": {"class_name": "Zeros", "config": {}}, "gamma_initializer": {"class_name": "Ones", "config": {}}, "moving_mean_initializer": {"class_name": "Zeros", "config": {}}, "moving_variance_initializer": {"class_name": "Ones", "config": {}}, "beta_regularizer": null, "gamma_regularizer": null, "beta_constraint": null, "gamma_constraint": null}, "name": "stack3_block4_mlp_pre_bn", "inbound_nodes": [[["stack3_block4_mlp_pre_conv", 0, 0, {}]]]}, {"class_name": "Conv2D", "config": {"name": "stack3_block4_mlp_Conv_0", "trainable": true, "dtype": "float32", "filters": 576, "kernel_size": [1, 1], "strides": [1, 1], "padding": "valid", "data_format": "channels_last", "dilation_rate": [1, 1], "groups": 1, "activation": "linear", "use_bias": true, "kernel_initializer": {"class_name": "GlorotUniform", "config": {"seed": null}}, "bias_initializer": {"class_name": "Zeros", "config": {}}, "kernel_regularizer": null, "bias_regularizer": null, "activity_regularizer": null, "kernel_constraint": null, "bias_constraint": null}, "name": "stack3_block4_mlp_Conv_0", "inbound_nodes": [[["stack3_block4_mlp_pre_bn", 0, 0, {}]]]}, {"class_name": "Activation", "config": {"name": "stack3_block4_mlp_gelu", "trainable": true, "dtype": "float32", "activation": "gelu"}, "name": "stack3_block4_mlp_gelu", "inbound_nodes": [[["stack3_block4_mlp_Conv_0", 0, 0, {}]]]}, {"class_name": "Conv2D", "config": {"name": "stack3_block4_mlp_Conv_1", "trainable": true, "dtype": "float32", "filters": 192, "kernel_size": [1, 1], "strides": [1, 1], "padding": "valid", "data_format": "channels_last", "dilation_rate": [1, 1], "groups": 1, "activation": "linear", "use_bias": true, "kernel_initializer": {"class_name": "GlorotUniform", "config": {"seed": null}}, "bias_initializer": {"class_name": "Zeros", "config": {}}, "kernel_regularizer": null, "bias_regularizer": null, "activity_regularizer": null, "kernel_constraint": null, "bias_constraint": null}, "name": "stack3_block4_mlp_Conv_1", "inbound_nodes": [[["stack3_block4_mlp_gelu", 0, 0, {}]]]}, {"class_name": "resmlp>ChannelAffine", "config": {"name": "stack3_block4_2_gamma", "trainable": true, "dtype": "float32", "use_bias": false, "weight_init_value": 1e-05, "axis": -1}, "name": "stack3_block4_2_gamma", "inbound_nodes": [[["stack3_block4_mlp_Conv_1", 0, 0, {}]]]}, {"class_name": "Add", "config": {"name": "stack3_block4_2_output", "trainable": true, "dtype": "float32"}, "name": "stack3_block4_2_output", "inbound_nodes": [[["stack3_block4_1_output", 0, 0, {}], ["stack3_block4_2_gamma", 0, 0, {}]]]}, {"class_name": "ZeroPadding2D", "config": {"name": "stack4_downsample_REPARAM_1_pad", "trainable": true, "dtype": "float32", "padding": [[3, 3], [3, 3]], "data_format": "channels_last"}, "name": "stack4_downsample_REPARAM_1_pad", "inbound_nodes": [[["stack3_block4_2_output", 0, 0, {}]]]}, {"class_name": "ZeroPadding2D", "config": {"name": "stack4_downsample_REPARAM_2_pad", "trainable": true, "dtype": "float32", "padding": [[1, 1], [1, 1]], "data_format": "channels_last"}, "name": "stack4_downsample_REPARAM_2_pad", "inbound_nodes": [[["stack3_block4_2_output", 0, 0, {}]]]}, {"class_name": "Conv2D", "config": {"name": "stack4_downsample_REPARAM_1_conv", "trainable": true, "dtype": "float32", "filters": 384, "kernel_size": [7, 7], "strides": [2, 2], "padding": "valid", "data_format": "channels_last", "dilation_rate": [1, 1], "groups": 192, "activation": "linear", "use_bias": false, "kernel_initializer": {"class_name": "GlorotUniform", "config": {"seed": null}}, "bias_initializer": {"class_name": "Zeros", "config": {}}, "kernel_regularizer": null, "bias_regularizer": null, "activity_regularizer": null, "kernel_constraint": null, "bias_constraint": null}, "name": "stack4_downsample_REPARAM_1_conv", "inbound_nodes": [[["stack4_downsample_REPARAM_1_pad", 0, 0, {}]]]}, {"class_name": "Conv2D", "config": {"name": "stack4_downsample_REPARAM_2_conv", "trainable": true, "dtype": "float32", "filters": 384, "kernel_size": [3, 3], "strides": [2, 2], "padding": "valid", "data_format": "channels_last", "dilation_rate": [1, 1], "groups": 192, "activation": "linear", "use_bias": false, "kernel_initializer": {"class_name": "GlorotUniform", "config": {"seed": null}}, "bias_initializer": {"class_name": "Zeros", "config": {}}, "kernel_regularizer": null, "bias_regularizer": null, "activity_regularizer": null, "kernel_constraint": null, "bias_constraint": null}, "name": "stack4_downsample_REPARAM_2_conv", "inbound_nodes": [[["stack4_downsample_REPARAM_2_pad", 0, 0, {}]]]}, {"class_name": "BatchNormalization", "config": {"name": "stack4_downsample_REPARAM_1_bn", "trainable": true, "dtype": "float32", "axis": [3], "momentum": 0.9, "epsilon": 1e-05, "center": true, "scale": true, "beta_initializer": {"class_name": "Zeros", "config": {}}, "gamma_initializer": {"class_name": "Ones", "config": {}}, "moving_mean_initializer": {"class_name": "Zeros", "config": {}}, "moving_variance_initializer": {"class_name": "Ones", "config": {}}, "beta_regularizer": null, "gamma_regularizer": null, "beta_constraint": null, "gamma_constraint": null}, "name": "stack4_downsample_REPARAM_1_bn", "inbound_nodes": [[["stack4_downsample_REPARAM_1_conv", 0, 0, {}]]]}, {"class_name": "BatchNormalization", "config": {"name": "stack4_downsample_REPARAM_2_bn", "trainable": true, "dtype": "float32", "axis": [3], "momentum": 0.9, "epsilon": 1e-05, "center": true, "scale": true, "beta_initializer": {"class_name": "Zeros", "config": {}}, "gamma_initializer": {"class_name": "Ones", "config": {}}, "moving_mean_initializer": {"class_name": "Zeros", "config": {}}, "moving_variance_initializer": {"class_name": "Ones", "config": {}}, "beta_regularizer": null, "gamma_regularizer": null, "beta_constraint": null, "gamma_constraint": null}, "name": "stack4_downsample_REPARAM_2_bn", "inbound_nodes": [[["stack4_downsample_REPARAM_2_conv", 0, 0, {}]]]}, {"class_name": "Add", "config": {"name": "stack4_downsample_REPARAM_out", "trainable": true, "dtype": "float32"}, "name": "stack4_downsample_REPARAM_out", "inbound_nodes": [[["stack4_downsample_REPARAM_1_bn", 0, 0, {}], ["stack4_downsample_REPARAM_2_bn", 0, 0, {}]]]}, {"class_name": "Conv2D", "config": {"name": "stack4_downsample_2_REPARAM_1_conv", "trainable": true, "dtype": "float32", "filters": 384, "kernel_size": [1, 1], "strides": [1, 1], "padding": "valid", "data_format": "channels_last", "dilation_rate": [1, 1], "groups": 1, "activation": "linear", "use_bias": false, "kernel_initializer": {"class_name": "GlorotUniform", "config": {"seed": null}}, "bias_initializer": {"class_name": "Zeros", "config": {}}, "kernel_regularizer": null, "bias_regularizer": null, "activity_regularizer": null, "kernel_constraint": null, "bias_constraint": null}, "name": "stack4_downsample_2_REPARAM_1_conv", "inbound_nodes": [[["stack4_downsample_REPARAM_out", 0, 0, {}]]]}, {"class_name": "BatchNormalization", "config": {"name": "stack4_downsample_2_REPARAM_1_bn", "trainable": true, "dtype": "float32", "axis": [3], "momentum": 0.9, "epsilon": 1e-05, "center": true, "scale": true, "beta_initializer": {"class_name": "Zeros", "config": {}}, "gamma_initializer": {"class_name": "Ones", "config": {}}, "moving_mean_initializer": {"class_name": "Zeros", "config": {}}, "moving_variance_initializer": {"class_name": "Ones", "config": {}}, "beta_regularizer": null, "gamma_regularizer": null, "beta_constraint": null, "gamma_constraint": null}, "name": "stack4_downsample_2_REPARAM_1_bn", "inbound_nodes": [[["stack4_downsample_2_REPARAM_1_conv", 0, 0, {}]]]}, {"class_name": "BatchNormalization", "config": {"name": "stack4_downsample_2_REPARAM_0_bn", "trainable": true, "dtype": "float32", "axis": [3], "momentum": 0.9, "epsilon": 1e-05, "center": true, "scale": true, "beta_initializer": {"class_name": "Zeros", "config": {}}, "gamma_initializer": {"class_name": "Ones", "config": {}}, "moving_mean_initializer": {"class_name": "Zeros", "config": {}}, "moving_variance_initializer": {"class_name": "Ones", "config": {}}, "beta_regularizer": null, "gamma_regularizer": null, "beta_constraint": null, "gamma_constraint": null}, "name": "stack4_downsample_2_REPARAM_0_bn", "inbound_nodes": [[["stack4_downsample_REPARAM_out", 0, 0, {}]]]}, {"class_name": "Add", "config": {"name": "stack4_downsample_2_REPARAM_out", "trainable": true, "dtype": "float32"}, "name": "stack4_downsample_2_REPARAM_out", "inbound_nodes": [[["stack4_downsample_2_REPARAM_1_bn", 0, 0, {}], ["stack4_downsample_2_REPARAM_0_bn", 0, 0, {}]]]}, {"class_name": "Activation", "config": {"name": "stack4_downsample_2_outgelu", "trainable": true, "dtype": "float32", "activation": "gelu"}, "name": "stack4_downsample_2_outgelu", "inbound_nodes": [[["stack4_downsample_2_REPARAM_out", 0, 0, {}]]]}, {"class_name": "ZeroPadding2D", "config": {"name": "stack4_block1_mixer_REPARAM_1_pad", "trainable": true, "dtype": "float32", "padding": [[1, 1], [1, 1]], "data_format": "channels_last"}, "name": "stack4_block1_mixer_REPARAM_1_pad", "inbound_nodes": [[["stack4_downsample_2_outgelu", 0, 0, {}]]]}, {"class_name": "DepthwiseConv2D", "config": {"name": "stack4_block1_mixer_REPARAM_1_dw_conv", "trainable": true, "dtype": "float32", "kernel_size": [3, 3], "strides": [1, 1], "padding": "valid", "data_format": "channels_last", "dilation_rate": [1, 1], "groups": 1, "activation": "linear", "use_bias": false, "bias_initializer": {"class_name": "Zeros", "config": {}}, "bias_regularizer": null, "activity_regularizer": null, "bias_constraint": null, "depth_multiplier": 1, "depthwise_initializer": {"class_name": "GlorotUniform", "config": {"seed": null}}, "depthwise_regularizer": null, "depthwise_constraint": null}, "name": "stack4_block1_mixer_REPARAM_1_dw_conv", "inbound_nodes": [[["stack4_block1_mixer_REPARAM_1_pad", 0, 0, {}]]]}, {"class_name": "DepthwiseConv2D", "config": {"name": "stack4_block1_mixer_REPARAM_2_dw_conv", "trainable": true, "dtype": "float32", "kernel_size": [1, 1], "strides": [1, 1], "padding": "valid", "data_format": "channels_last", "dilation_rate": [1, 1], "groups": 1, "activation": "linear", "use_bias": false, "bias_initializer": {"class_name": "Zeros", "config": {}}, "bias_regularizer": null, "activity_regularizer": null, "bias_constraint": null, "depth_multiplier": 1, "depthwise_initializer": {"class_name": "GlorotUniform", "config": {"seed": null}}, "depthwise_regularizer": null, "depthwise_constraint": null}, "name": "stack4_block1_mixer_REPARAM_2_dw_conv", "inbound_nodes": [[["stack4_downsample_2_outgelu", 0, 0, {}]]]}, {"class_name": "BatchNormalization", "config": {"name": "stack4_block1_mixer_REPARAM_1_bn", "trainable": true, "dtype": "float32", "axis": [3], "momentum": 0.9, "epsilon": 1e-05, "center": true, "scale": true, "beta_initializer": {"class_name": "Zeros", "config": {}}, "gamma_initializer": {"class_name": "Ones", "config": {}}, "moving_mean_initializer": {"class_name": "Zeros", "config": {}}, "moving_variance_initializer": {"class_name": "Ones", "config": {}}, "beta_regularizer": null, "gamma_regularizer": null, "beta_constraint": null, "gamma_constraint": null}, "name": "stack4_block1_mixer_REPARAM_1_bn", "inbound_nodes": [[["stack4_block1_mixer_REPARAM_1_dw_conv", 0, 0, {}]]]}, {"class_name": "BatchNormalization", "config": {"name": "stack4_block1_mixer_REPARAM_2_bn", "trainable": true, "dtype": "float32", "axis": [3], "momentum": 0.9, "epsilon": 1e-05, "center": true, "scale": true, "beta_initializer": {"class_name": "Zeros", "config": {}}, "gamma_initializer": {"class_name": "Ones", "config": {}}, "moving_mean_initializer": {"class_name": "Zeros", "config": {}}, "moving_variance_initializer": {"class_name": "Ones", "config": {}}, "beta_regularizer": null, "gamma_regularizer": null, "beta_constraint": null, "gamma_constraint": null}, "name": "stack4_block1_mixer_REPARAM_2_bn", "inbound_nodes": [[["stack4_block1_mixer_REPARAM_2_dw_conv", 0, 0, {}]]]}, {"class_name": "BatchNormalization", "config": {"name": "stack4_block1_mixer_REPARAM_0_bn", "trainable": true, "dtype": "float32", "axis": [3], "momentum": 0.9, "epsilon": 1e-05, "center": true, "scale": true, "beta_initializer": {"class_name": "Zeros", "config": {}}, "gamma_initializer": {"class_name": "Ones", "config": {}}, "moving_mean_initializer": {"class_name": "Zeros", "config": {}}, "moving_variance_initializer": {"class_name": "Ones", "config": {}}, "beta_regularizer": null, "gamma_regularizer": null, "beta_constraint": null, "gamma_constraint": null}, "name": "stack4_block1_mixer_REPARAM_0_bn", "inbound_nodes": [[["stack4_downsample_2_outgelu", 0, 0, {}]]]}, {"class_name": "Add", "config": {"name": "stack4_block1_mixer_REPARAM_out", "trainable": true, "dtype": "float32"}, "name": "stack4_block1_mixer_REPARAM_out", "inbound_nodes": [[["stack4_block1_mixer_REPARAM_1_bn", 0, 0, {}], ["stack4_block1_mixer_REPARAM_2_bn", 0, 0, {}], ["stack4_block1_mixer_REPARAM_0_bn", 0, 0, {}]]]}, {"class_name": "BatchNormalization", "config": {"name": "stack4_block1_mixer_bn", "trainable": true, "dtype": "float32", "axis": [3], "momentum": 0.9, "epsilon": 1e-05, "center": true, "scale": true, "beta_initializer": {"class_name": "Zeros", "config": {}}, "gamma_initializer": {"class_name": "Ones", "config": {}}, "moving_mean_initializer": {"class_name": "Zeros", "config": {}}, "moving_variance_initializer": {"class_name": "Ones", "config": {}}, "beta_regularizer": null, "gamma_regularizer": null, "beta_constraint": null, "gamma_constraint": null}, "name": "stack4_block1_mixer_bn", "inbound_nodes": [[["stack4_downsample_2_outgelu", 0, 0, {}]]]}, {"class_name": "TFOpLambda", "config": {"name": "tf.math.subtract_8", "trainable": true, "dtype": "float32", "function": "math.subtract"}, "name": "tf.math.subtract_8", "inbound_nodes": [["stack4_block1_mixer_REPARAM_out", 0, 0, {"y": ["stack4_block1_mixer_bn", 0, 0], "name": null}]]}, {"class_name": "resmlp>ChannelAffine", "config": {"name": "stack4_block1_1_gamma", "trainable": true, "dtype": "float32", "use_bias": false, "weight_init_value": 1e-05, "axis": -1}, "name": "stack4_block1_1_gamma", "inbound_nodes": [[["tf.math.subtract_8", 0, 0, {}]]]}, {"class_name": "Add", "config": {"name": "stack4_block1_1_output", "trainable": true, "dtype": "float32"}, "name": "stack4_block1_1_output", "inbound_nodes": [[["stack4_downsample_2_outgelu", 0, 0, {}], ["stack4_block1_1_gamma", 0, 0, {}]]]}, {"class_name": "ZeroPadding2D", "config": {"name": "stack4_block1_mlp_pre_pad", "trainable": true, "dtype": "float32", "padding": [[3, 3], [3, 3]], "data_format": "channels_last"}, "name": "stack4_block1_mlp_pre_pad", "inbound_nodes": [[["stack4_block1_1_output", 0, 0, {}]]]}, {"class_name": "Conv2D", "config": {"name": "stack4_block1_mlp_pre_conv", "trainable": true, "dtype": "float32", "filters": 384, "kernel_size": [7, 7], "strides": [1, 1], "padding": "valid", "data_format": "channels_last", "dilation_rate": [1, 1], "groups": 384, "activation": "linear", "use_bias": false, "kernel_initializer": {"class_name": "GlorotUniform", "config": {"seed": null}}, "bias_initializer": {"class_name": "Zeros", "config": {}}, "kernel_regularizer": null, "bias_regularizer": null, "activity_regularizer": null, "kernel_constraint": null, "bias_constraint": null}, "name": "stack4_block1_mlp_pre_conv", "inbound_nodes": [[["stack4_block1_mlp_pre_pad", 0, 0, {}]]]}, {"class_name": "BatchNormalization", "config": {"name": "stack4_block1_mlp_pre_bn", "trainable": true, "dtype": "float32", "axis": [3], "momentum": 0.9, "epsilon": 1e-05, "center": true, "scale": true, "beta_initializer": {"class_name": "Zeros", "config": {}}, "gamma_initializer": {"class_name": "Ones", "config": {}}, "moving_mean_initializer": {"class_name": "Zeros", "config": {}}, "moving_variance_initializer": {"class_name": "Ones", "config": {}}, "beta_regularizer": null, "gamma_regularizer": null, "beta_constraint": null, "gamma_constraint": null}, "name": "stack4_block1_mlp_pre_bn", "inbound_nodes": [[["stack4_block1_mlp_pre_conv", 0, 0, {}]]]}, {"class_name": "Conv2D", "config": {"name": "stack4_block1_mlp_Conv_0", "trainable": true, "dtype": "float32", "filters": 1152, "kernel_size": [1, 1], "strides": [1, 1], "padding": "valid", "data_format": "channels_last", "dilation_rate": [1, 1], "groups": 1, "activation": "linear", "use_bias": true, "kernel_initializer": {"class_name": "GlorotUniform", "config": {"seed": null}}, "bias_initializer": {"class_name": "Zeros", "config": {}}, "kernel_regularizer": null, "bias_regularizer": null, "activity_regularizer": null, "kernel_constraint": null, "bias_constraint": null}, "name": "stack4_block1_mlp_Conv_0", "inbound_nodes": [[["stack4_block1_mlp_pre_bn", 0, 0, {}]]]}, {"class_name": "Activation", "config": {"name": "stack4_block1_mlp_gelu", "trainable": true, "dtype": "float32", "activation": "gelu"}, "name": "stack4_block1_mlp_gelu", "inbound_nodes": [[["stack4_block1_mlp_Conv_0", 0, 0, {}]]]}, {"class_name": "Conv2D", "config": {"name": "stack4_block1_mlp_Conv_1", "trainable": true, "dtype": "float32", "filters": 384, "kernel_size": [1, 1], "strides": [1, 1], "padding": "valid", "data_format": "channels_last", "dilation_rate": [1, 1], "groups": 1, "activation": "linear", "use_bias": true, "kernel_initializer": {"class_name": "GlorotUniform", "config": {"seed": null}}, "bias_initializer": {"class_name": "Zeros", "config": {}}, "kernel_regularizer": null, "bias_regularizer": null, "activity_regularizer": null, "kernel_constraint": null, "bias_constraint": null}, "name": "stack4_block1_mlp_Conv_1", "inbound_nodes": [[["stack4_block1_mlp_gelu", 0, 0, {}]]]}, {"class_name": "resmlp>ChannelAffine", "config": {"name": "stack4_block1_2_gamma", "trainable": true, "dtype": "float32", "use_bias": false, "weight_init_value": 1e-05, "axis": -1}, "name": "stack4_block1_2_gamma", "inbound_nodes": [[["stack4_block1_mlp_Conv_1", 0, 0, {}]]]}, {"class_name": "Add", "config": {"name": "stack4_block1_2_output", "trainable": true, "dtype": "float32"}, "name": "stack4_block1_2_output", "inbound_nodes": [[["stack4_block1_1_output", 0, 0, {}], ["stack4_block1_2_gamma", 0, 0, {}]]]}, {"class_name": "ZeroPadding2D", "config": {"name": "stack4_block2_mixer_REPARAM_1_pad", "trainable": true, "dtype": "float32", "padding": [[1, 1], [1, 1]], "data_format": "channels_last"}, "name": "stack4_block2_mixer_REPARAM_1_pad", "inbound_nodes": [[["stack4_block1_2_output", 0, 0, {}]]]}, {"class_name": "DepthwiseConv2D", "config": {"name": "stack4_block2_mixer_REPARAM_1_dw_conv", "trainable": true, "dtype": "float32", "kernel_size": [3, 3], "strides": [1, 1], "padding": "valid", "data_format": "channels_last", "dilation_rate": [1, 1], "groups": 1, "activation": "linear", "use_bias": false, "bias_initializer": {"class_name": "Zeros", "config": {}}, "bias_regularizer": null, "activity_regularizer": null, "bias_constraint": null, "depth_multiplier": 1, "depthwise_initializer": {"class_name": "GlorotUniform", "config": {"seed": null}}, "depthwise_regularizer": null, "depthwise_constraint": null}, "name": "stack4_block2_mixer_REPARAM_1_dw_conv", "inbound_nodes": [[["stack4_block2_mixer_REPARAM_1_pad", 0, 0, {}]]]}, {"class_name": "DepthwiseConv2D", "config": {"name": "stack4_block2_mixer_REPARAM_2_dw_conv", "trainable": true, "dtype": "float32", "kernel_size": [1, 1], "strides": [1, 1], "padding": "valid", "data_format": "channels_last", "dilation_rate": [1, 1], "groups": 1, "activation": "linear", "use_bias": false, "bias_initializer": {"class_name": "Zeros", "config": {}}, "bias_regularizer": null, "activity_regularizer": null, "bias_constraint": null, "depth_multiplier": 1, "depthwise_initializer": {"class_name": "GlorotUniform", "config": {"seed": null}}, "depthwise_regularizer": null, "depthwise_constraint": null}, "name": "stack4_block2_mixer_REPARAM_2_dw_conv", "inbound_nodes": [[["stack4_block1_2_output", 0, 0, {}]]]}, {"class_name": "BatchNormalization", "config": {"name": "stack4_block2_mixer_REPARAM_1_bn", "trainable": true, "dtype": "float32", "axis": [3], "momentum": 0.9, "epsilon": 1e-05, "center": true, "scale": true, "beta_initializer": {"class_name": "Zeros", "config": {}}, "gamma_initializer": {"class_name": "Ones", "config": {}}, "moving_mean_initializer": {"class_name": "Zeros", "config": {}}, "moving_variance_initializer": {"class_name": "Ones", "config": {}}, "beta_regularizer": null, "gamma_regularizer": null, "beta_constraint": null, "gamma_constraint": null}, "name": "stack4_block2_mixer_REPARAM_1_bn", "inbound_nodes": [[["stack4_block2_mixer_REPARAM_1_dw_conv", 0, 0, {}]]]}, {"class_name": "BatchNormalization", "config": {"name": "stack4_block2_mixer_REPARAM_2_bn", "trainable": true, "dtype": "float32", "axis": [3], "momentum": 0.9, "epsilon": 1e-05, "center": true, "scale": true, "beta_initializer": {"class_name": "Zeros", "config": {}}, "gamma_initializer": {"class_name": "Ones", "config": {}}, "moving_mean_initializer": {"class_name": "Zeros", "config": {}}, "moving_variance_initializer": {"class_name": "Ones", "config": {}}, "beta_regularizer": null, "gamma_regularizer": null, "beta_constraint": null, "gamma_constraint": null}, "name": "stack4_block2_mixer_REPARAM_2_bn", "inbound_nodes": [[["stack4_block2_mixer_REPARAM_2_dw_conv", 0, 0, {}]]]}, {"class_name": "BatchNormalization", "config": {"name": "stack4_block2_mixer_REPARAM_0_bn", "trainable": true, "dtype": "float32", "axis": [3], "momentum": 0.9, "epsilon": 1e-05, "center": true, "scale": true, "beta_initializer": {"class_name": "Zeros", "config": {}}, "gamma_initializer": {"class_name": "Ones", "config": {}}, "moving_mean_initializer": {"class_name": "Zeros", "config": {}}, "moving_variance_initializer": {"class_name": "Ones", "config": {}}, "beta_regularizer": null, "gamma_regularizer": null, "beta_constraint": null, "gamma_constraint": null}, "name": "stack4_block2_mixer_REPARAM_0_bn", "inbound_nodes": [[["stack4_block1_2_output", 0, 0, {}]]]}, {"class_name": "Add", "config": {"name": "stack4_block2_mixer_REPARAM_out", "trainable": true, "dtype": "float32"}, "name": "stack4_block2_mixer_REPARAM_out", "inbound_nodes": [[["stack4_block2_mixer_REPARAM_1_bn", 0, 0, {}], ["stack4_block2_mixer_REPARAM_2_bn", 0, 0, {}], ["stack4_block2_mixer_REPARAM_0_bn", 0, 0, {}]]]}, {"class_name": "BatchNormalization", "config": {"name": "stack4_block2_mixer_bn", "trainable": true, "dtype": "float32", "axis": [3], "momentum": 0.9, "epsilon": 1e-05, "center": true, "scale": true, "beta_initializer": {"class_name": "Zeros", "config": {}}, "gamma_initializer": {"class_name": "Ones", "config": {}}, "moving_mean_initializer": {"class_name": "Zeros", "config": {}}, "moving_variance_initializer": {"class_name": "Ones", "config": {}}, "beta_regularizer": null, "gamma_regularizer": null, "beta_constraint": null, "gamma_constraint": null}, "name": "stack4_block2_mixer_bn", "inbound_nodes": [[["stack4_block1_2_output", 0, 0, {}]]]}, {"class_name": "TFOpLambda", "config": {"name": "tf.math.subtract_9", "trainable": true, "dtype": "float32", "function": "math.subtract"}, "name": "tf.math.subtract_9", "inbound_nodes": [["stack4_block2_mixer_REPARAM_out", 0, 0, {"y": ["stack4_block2_mixer_bn", 0, 0], "name": null}]]}, {"class_name": "resmlp>ChannelAffine", "config": {"name": "stack4_block2_1_gamma", "trainable": true, "dtype": "float32", "use_bias": false, "weight_init_value": 1e-05, "axis": -1}, "name": "stack4_block2_1_gamma", "inbound_nodes": [[["tf.math.subtract_9", 0, 0, {}]]]}, {"class_name": "Add", "config": {"name": "stack4_block2_1_output", "trainable": true, "dtype": "float32"}, "name": "stack4_block2_1_output", "inbound_nodes": [[["stack4_block1_2_output", 0, 0, {}], ["stack4_block2_1_gamma", 0, 0, {}]]]}, {"class_name": "ZeroPadding2D", "config": {"name": "stack4_block2_mlp_pre_pad", "trainable": true, "dtype": "float32", "padding": [[3, 3], [3, 3]], "data_format": "channels_last"}, "name": "stack4_block2_mlp_pre_pad", "inbound_nodes": [[["stack4_block2_1_output", 0, 0, {}]]]}, {"class_name": "Conv2D", "config": {"name": "stack4_block2_mlp_pre_conv", "trainable": true, "dtype": "float32", "filters": 384, "kernel_size": [7, 7], "strides": [1, 1], "padding": "valid", "data_format": "channels_last", "dilation_rate": [1, 1], "groups": 384, "activation": "linear", "use_bias": false, "kernel_initializer": {"class_name": "GlorotUniform", "config": {"seed": null}}, "bias_initializer": {"class_name": "Zeros", "config": {}}, "kernel_regularizer": null, "bias_regularizer": null, "activity_regularizer": null, "kernel_constraint": null, "bias_constraint": null}, "name": "stack4_block2_mlp_pre_conv", "inbound_nodes": [[["stack4_block2_mlp_pre_pad", 0, 0, {}]]]}, {"class_name": "BatchNormalization", "config": {"name": "stack4_block2_mlp_pre_bn", "trainable": true, "dtype": "float32", "axis": [3], "momentum": 0.9, "epsilon": 1e-05, "center": true, "scale": true, "beta_initializer": {"class_name": "Zeros", "config": {}}, "gamma_initializer": {"class_name": "Ones", "config": {}}, "moving_mean_initializer": {"class_name": "Zeros", "config": {}}, "moving_variance_initializer": {"class_name": "Ones", "config": {}}, "beta_regularizer": null, "gamma_regularizer": null, "beta_constraint": null, "gamma_constraint": null}, "name": "stack4_block2_mlp_pre_bn", "inbound_nodes": [[["stack4_block2_mlp_pre_conv", 0, 0, {}]]]}, {"class_name": "Conv2D", "config": {"name": "stack4_block2_mlp_Conv_0", "trainable": true, "dtype": "float32", "filters": 1152, "kernel_size": [1, 1], "strides": [1, 1], "padding": "valid", "data_format": "channels_last", "dilation_rate": [1, 1], "groups": 1, "activation": "linear", "use_bias": true, "kernel_initializer": {"class_name": "GlorotUniform", "config": {"seed": null}}, "bias_initializer": {"class_name": "Zeros", "config": {}}, "kernel_regularizer": null, "bias_regularizer": null, "activity_regularizer": null, "kernel_constraint": null, "bias_constraint": null}, "name": "stack4_block2_mlp_Conv_0", "inbound_nodes": [[["stack4_block2_mlp_pre_bn", 0, 0, {}]]]}, {"class_name": "Activation", "config": {"name": "stack4_block2_mlp_gelu", "trainable": true, "dtype": "float32", "activation": "gelu"}, "name": "stack4_block2_mlp_gelu", "inbound_nodes": [[["stack4_block2_mlp_Conv_0", 0, 0, {}]]]}, {"class_name": "Conv2D", "config": {"name": "stack4_block2_mlp_Conv_1", "trainable": true, "dtype": "float32", "filters": 384, "kernel_size": [1, 1], "strides": [1, 1], "padding": "valid", "data_format": "channels_last", "dilation_rate": [1, 1], "groups": 1, "activation": "linear", "use_bias": true, "kernel_initializer": {"class_name": "GlorotUniform", "config": {"seed": null}}, "bias_initializer": {"class_name": "Zeros", "config": {}}, "kernel_regularizer": null, "bias_regularizer": null, "activity_regularizer": null, "kernel_constraint": null, "bias_constraint": null}, "name": "stack4_block2_mlp_Conv_1", "inbound_nodes": [[["stack4_block2_mlp_gelu", 0, 0, {}]]]}, {"class_name": "resmlp>ChannelAffine", "config": {"name": "stack4_block2_2_gamma", "trainable": true, "dtype": "float32", "use_bias": false, "weight_init_value": 1e-05, "axis": -1}, "name": "stack4_block2_2_gamma", "inbound_nodes": [[["stack4_block2_mlp_Conv_1", 0, 0, {}]]]}, {"class_name": "Add", "config": {"name": "stack4_block2_2_output", "trainable": true, "dtype": "float32"}, "name": "stack4_block2_2_output", "inbound_nodes": [[["stack4_block2_1_output", 0, 0, {}], ["stack4_block2_2_gamma", 0, 0, {}]]]}, {"class_name": "ZeroPadding2D", "config": {"name": "features_REPARAM_1_pad", "trainable": true, "dtype": "float32", "padding": [[1, 1], [1, 1]], "data_format": "channels_last"}, "name": "features_REPARAM_1_pad", "inbound_nodes": [[["stack4_block2_2_output", 0, 0, {}]]]}, {"class_name": "Conv2D", "config": {"name": "features_REPARAM_1_conv", "trainable": true, "dtype": "float32", "filters": 768, "kernel_size": [3, 3], "strides": [1, 1], "padding": "valid", "data_format": "channels_last", "dilation_rate": [1, 1], "groups": 384, "activation": "linear", "use_bias": false, "kernel_initializer": {"class_name": "GlorotUniform", "config": {"seed": null}}, "bias_initializer": {"class_name": "Zeros", "config": {}}, "kernel_regularizer": null, "bias_regularizer": null, "activity_regularizer": null, "kernel_constraint": null, "bias_constraint": null}, "name": "features_REPARAM_1_conv", "inbound_nodes": [[["features_REPARAM_1_pad", 0, 0, {}]]]}, {"class_name": "Conv2D", "config": {"name": "features_REPARAM_2_conv", "trainable": true, "dtype": "float32", "filters": 768, "kernel_size": [1, 1], "strides": [1, 1], "padding": "valid", "data_format": "channels_last", "dilation_rate": [1, 1], "groups": 384, "activation": "linear", "use_bias": false, "kernel_initializer": {"class_name": "GlorotUniform", "config": {"seed": null}}, "bias_initializer": {"class_name": "Zeros", "config": {}}, "kernel_regularizer": null, "bias_regularizer": null, "activity_regularizer": null, "kernel_constraint": null, "bias_constraint": null}, "name": "features_REPARAM_2_conv", "inbound_nodes": [[["stack4_block2_2_output", 0, 0, {}]]]}, {"class_name": "BatchNormalization", "config": {"name": "features_REPARAM_1_bn", "trainable": true, "dtype": "float32", "axis": [3], "momentum": 0.9, "epsilon": 1e-05, "center": true, "scale": true, "beta_initializer": {"class_name": "Zeros", "config": {}}, "gamma_initializer": {"class_name": "Ones", "config": {}}, "moving_mean_initializer": {"class_name": "Zeros", "config": {}}, "moving_variance_initializer": {"class_name": "Ones", "config": {}}, "beta_regularizer": null, "gamma_regularizer": null, "beta_constraint": null, "gamma_constraint": null}, "name": "features_REPARAM_1_bn", "inbound_nodes": [[["features_REPARAM_1_conv", 0, 0, {}]]]}, {"class_name": "BatchNormalization", "config": {"name": "features_REPARAM_2_bn", "trainable": true, "dtype": "float32", "axis": [3], "momentum": 0.9, "epsilon": 1e-05, "center": true, "scale": true, "beta_initializer": {"class_name": "Zeros", "config": {}}, "gamma_initializer": {"class_name": "Ones", "config": {}}, "moving_mean_initializer": {"class_name": "Zeros", "config": {}}, "moving_variance_initializer": {"class_name": "Ones", "config": {}}, "beta_regularizer": null, "gamma_regularizer": null, "beta_constraint": null, "gamma_constraint": null}, "name": "features_REPARAM_2_bn", "inbound_nodes": [[["features_REPARAM_2_conv", 0, 0, {}]]]}, {"class_name": "Add", "config": {"name": "features_REPARAM_out", "trainable": true, "dtype": "float32"}, "name": "features_REPARAM_out", "inbound_nodes": [[["features_REPARAM_1_bn", 0, 0, {}], ["features_REPARAM_2_bn", 0, 0, {}]]]}, {"class_name": "TFOpLambda", "config": {"name": "tf.math.reduce_mean", "trainable": true, "dtype": "float32", "function": "math.reduce_mean"}, "name": "tf.math.reduce_mean", "inbound_nodes": [["features_REPARAM_out", 0, 0, {"axis": [1, 2], "keepdims": true}]]}, {"class_name": "Conv2D", "config": {"name": "features_se_1_conv", "trainable": true, "dtype": "float32", "filters": 48, "kernel_size": [1, 1], "strides": [1, 1], "padding": "valid", "data_format": "channels_last", "dilation_rate": [1, 1], "groups": 1, "activation": "linear", "use_bias": true, "kernel_initializer": {"class_name": "GlorotUniform", "config": {"seed": null}}, "bias_initializer": {"class_name": "Zeros", "config": {}}, "kernel_regularizer": null, "bias_regularizer": null, "activity_regularizer": null, "kernel_constraint": null, "bias_constraint": null}, "name": "features_se_1_conv", "inbound_nodes": [[["tf.math.reduce_mean", 0, 0, {}]]]}, {"class_name": "Activation", "config": {"name": "features_se_relu", "trainable": true, "dtype": "float32", "activation": "relu"}, "name": "features_se_relu", "inbound_nodes": [[["features_se_1_conv", 0, 0, {}]]]}, {"class_name": "Conv2D", "config": {"name": "features_se_2_conv", "trainable": true, "dtype": "float32", "filters": 768, "kernel_size": [1, 1], "strides": [1, 1], "padding": "valid", "data_format": "channels_last", "dilation_rate": [1, 1], "groups": 1, "activation": "linear", "use_bias": true, "kernel_initializer": {"class_name": "GlorotUniform", "config": {"seed": null}}, "bias_initializer": {"class_name": "Zeros", "config": {}}, "kernel_regularizer": null, "bias_regularizer": null, "activity_regularizer": null, "kernel_constraint": null, "bias_constraint": null}, "name": "features_se_2_conv", "inbound_nodes": [[["features_se_relu", 0, 0, {}]]]}, {"class_name": "Activation", "config": {"name": "features_se_sigmoid", "trainable": true, "dtype": "float32", "activation": "sigmoid"}, "name": "features_se_sigmoid", "inbound_nodes": [[["features_se_2_conv", 0, 0, {}]]]}, {"class_name": "Multiply", "config": {"name": "features_se_out", "trainable": true, "dtype": "float32"}, "name": "features_se_out", "inbound_nodes": [[["features_REPARAM_out", 0, 0, {}], ["features_se_sigmoid", 0, 0, {}]]]}, {"class_name": "Activation", "config": {"name": "features_gelu", "trainable": true, "dtype": "float32", "activation": "gelu"}, "name": "features_gelu", "inbound_nodes": [[["features_se_out", 0, 0, {}]]]}, {"class_name": "GlobalAveragePooling2D", "config": {"name": "global_average_pooling2d", "trainable": true, "dtype": "float32", "data_format": "channels_last", "keepdims": false}, "name": "global_average_pooling2d", "inbound_nodes": [[["features_gelu", 0, 0, {}]]]}, {"class_name": "Dense", "config": {"name": "head", "trainable": true, "dtype": "float32", "units": 1000, "activation": "linear", "use_bias": true, "kernel_initializer": {"class_name": "GlorotUniform", "config": {"seed": null}}, "bias_initializer": {"class_name": "Zeros", "config": {}}, "kernel_regularizer": null, "bias_regularizer": null, "activity_regularizer": null, "kernel_constraint": null, "bias_constraint": null}, "name": "head", "inbound_nodes": [[["global_average_pooling2d", 0, 0, {}]]]}], "input_layers": [["input_1", 0, 0]], "output_layers": [["head", 0, 0]]}}}, "weightsManifest": [{"paths": ["group1-shard1of4.bin", "group1-shard2of4.bin", "group1-shard3of4.bin", "group1-shard4of4.bin"], "weights": [{"name": "features_REPARAM_1_bn/gamma", "shape": [768], "dtype": "float32"}, {"name": "features_REPARAM_1_bn/beta", "shape": [768], "dtype": "float32"}, {"name": "features_REPARAM_1_bn/moving_mean", "shape": [768], "dtype": "float32"}, {"name": "features_REPARAM_1_bn/moving_variance", "shape": [768], "dtype": "float32"}, {"name": "features_REPARAM_1_conv/kernel", "shape": [3, 3, 1, 768], "dtype": "float32"}, {"name": "features_REPARAM_2_bn/gamma", "shape": [768], "dtype": "float32"}, {"name": "features_REPARAM_2_bn/beta", "shape": [768], "dtype": "float32"}, {"name": "features_REPARAM_2_bn/moving_mean", "shape": [768], "dtype": "float32"}, {"name": "features_REPARAM_2_bn/moving_variance", "shape": [768], "dtype": "float32"}, {"name": "features_REPARAM_2_conv/kernel", "shape": [1, 1, 1, 768], "dtype": "float32"}, {"name": "features_se_1_conv/kernel", "shape": [1, 1, 768, 48], "dtype": "float32"}, {"name": "features_se_1_conv/bias", "shape": [48], "dtype": "float32"}, {"name": "features_se_2_conv/kernel", "shape": [1, 1, 48, 768], "dtype": "float32"}, {"name": "features_se_2_conv/bias", "shape": [768], "dtype": "float32"}, {"name": "head/kernel", "shape": [768, 1000], "dtype": "float32"}, {"name": "head/bias", "shape": [1000], "dtype": "float32"}, {"name": "stack1_block1_1_gamma/weight", "shape": [48], "dtype": "float32"}, {"name": "stack1_block1_2_gamma/weight", "shape": [48], "dtype": "float32"}, {"name": "stack1_block1_mixer_REPARAM_0_bn/gamma", "shape": [48], "dtype": "float32"}, {"name": "stack1_block1_mixer_REPARAM_0_bn/beta", "shape": [48], "dtype": "float32"}, {"name": "stack1_block1_mixer_REPARAM_0_bn/moving_mean", "shape": [48], "dtype": "float32"}, {"name": "stack1_block1_mixer_REPARAM_0_bn/moving_variance", "shape": [48], "dtype": "float32"}, {"name": "stack1_block1_mixer_REPARAM_1_bn/gamma", "shape": [48], "dtype": "float32"}, {"name": "stack1_block1_mixer_REPARAM_1_bn/beta", "shape": [48], "dtype": "float32"}, {"name": "stack1_block1_mixer_REPARAM_1_bn/moving_mean", "shape": [48], "dtype": "float32"}, {"name": "stack1_block1_mixer_REPARAM_1_bn/moving_variance", "shape": [48], "dtype": "float32"}, {"name": "stack1_block1_mixer_REPARAM_1_dw_conv/depthwise_kernel", "shape": [3, 3, 48, 1], "dtype": "float32"}, {"name": "stack1_block1_mixer_REPARAM_2_bn/gamma", "shape": [48], "dtype": "float32"}, {"name": "stack1_block1_mixer_REPARAM_2_bn/beta", "shape": [48], "dtype": "float32"}, {"name": "stack1_block1_mixer_REPARAM_2_bn/moving_mean", "shape": [48], "dtype": "float32"}, {"name": "stack1_block1_mixer_REPARAM_2_bn/moving_variance", "shape": [48], "dtype": "float32"}, {"name": "stack1_block1_mixer_REPARAM_2_dw_conv/depthwise_kernel", "shape": [1, 1, 48, 1], "dtype": "float32"}, {"name": "stack1_block1_mixer_bn/gamma", "shape": [48], "dtype": "float32"}, {"name": "stack1_block1_mixer_bn/beta", "shape": [48], "dtype": "float32"}, {"name": "stack1_block1_mixer_bn/moving_mean", "shape": [48], "dtype": "float32"}, {"name": "stack1_block1_mixer_bn/moving_variance", "shape": [48], "dtype": "float32"}, {"name": "stack1_block1_mlp_Conv_0/kernel", "shape": [1, 1, 48, 144], "dtype": "float32"}, {"name": "stack1_block1_mlp_Conv_0/bias", "shape": [144], "dtype": "float32"}, {"name": "stack1_block1_mlp_Conv_1/kernel", "shape": [1, 1, 144, 48], "dtype": "float32"}, {"name": "stack1_block1_mlp_Conv_1/bias", "shape": [48], "dtype": "float32"}, {"name": "stack1_block1_mlp_pre_bn/gamma", "shape": [48], "dtype": "float32"}, {"name": "stack1_block1_mlp_pre_bn/beta", "shape": [48], "dtype": "float32"}, {"name": "stack1_block1_mlp_pre_bn/moving_mean", "shape": [48], "dtype": "float32"}, {"name": "stack1_block1_mlp_pre_bn/moving_variance", "shape": [48], "dtype": "float32"}, {"name": "stack1_block1_mlp_pre_conv/kernel", "shape": [7, 7, 1, 48], "dtype": "float32"}, {"name": "stack1_block2_1_gamma/weight", "shape": [48], "dtype": "float32"}, {"name": "stack1_block2_2_gamma/weight", "shape": [48], "dtype": "float32"}, {"name": "stack1_block2_mixer_REPARAM_0_bn/gamma", "shape": [48], "dtype": "float32"}, {"name": "stack1_block2_mixer_REPARAM_0_bn/beta", "shape": [48], "dtype": "float32"}, {"name": "stack1_block2_mixer_REPARAM_0_bn/moving_mean", "shape": [48], "dtype": "float32"}, {"name": "stack1_block2_mixer_REPARAM_0_bn/moving_variance", "shape": [48], "dtype": "float32"}, {"name": "stack1_block2_mixer_REPARAM_1_bn/gamma", "shape": [48], "dtype": "float32"}, {"name": "stack1_block2_mixer_REPARAM_1_bn/beta", "shape": [48], "dtype": "float32"}, {"name": "stack1_block2_mixer_REPARAM_1_bn/moving_mean", "shape": [48], "dtype": "float32"}, {"name": "stack1_block2_mixer_REPARAM_1_bn/moving_variance", "shape": [48], "dtype": "float32"}, {"name": "stack1_block2_mixer_REPARAM_1_dw_conv/depthwise_kernel", "shape": [3, 3, 48, 1], "dtype": "float32"}, {"name": "stack1_block2_mixer_REPARAM_2_bn/gamma", "shape": [48], "dtype": "float32"}, {"name": "stack1_block2_mixer_REPARAM_2_bn/beta", "shape": [48], "dtype": "float32"}, {"name": "stack1_block2_mixer_REPARAM_2_bn/moving_mean", "shape": [48], "dtype": "float32"}, {"name": "stack1_block2_mixer_REPARAM_2_bn/moving_variance", "shape": [48], "dtype": "float32"}, {"name": "stack1_block2_mixer_REPARAM_2_dw_conv/depthwise_kernel", "shape": [1, 1, 48, 1], "dtype": "float32"}, {"name": "stack1_block2_mixer_bn/gamma", "shape": [48], "dtype": "float32"}, {"name": "stack1_block2_mixer_bn/beta", "shape": [48], "dtype": "float32"}, {"name": "stack1_block2_mixer_bn/moving_mean", "shape": [48], "dtype": "float32"}, {"name": "stack1_block2_mixer_bn/moving_variance", "shape": [48], "dtype": "float32"}, {"name": "stack1_block2_mlp_Conv_0/kernel", "shape": [1, 1, 48, 144], "dtype": "float32"}, {"name": "stack1_block2_mlp_Conv_0/bias", "shape": [144], "dtype": "float32"}, {"name": "stack1_block2_mlp_Conv_1/kernel", "shape": [1, 1, 144, 48], "dtype": "float32"}, {"name": "stack1_block2_mlp_Conv_1/bias", "shape": [48], "dtype": "float32"}, {"name": "stack1_block2_mlp_pre_bn/gamma", "shape": [48], "dtype": "float32"}, {"name": "stack1_block2_mlp_pre_bn/beta", "shape": [48], "dtype": "float32"}, {"name": "stack1_block2_mlp_pre_bn/moving_mean", "shape": [48], "dtype": "float32"}, {"name": "stack1_block2_mlp_pre_bn/moving_variance", "shape": [48], "dtype": "float32"}, {"name": "stack1_block2_mlp_pre_conv/kernel", "shape": [7, 7, 1, 48], "dtype": "float32"}, {"name": "stack2_block1_1_gamma/weight", "shape": [96], "dtype": "float32"}, {"name": "stack2_block1_2_gamma/weight", "shape": [96], "dtype": "float32"}, {"name": "stack2_block1_mixer_REPARAM_0_bn/gamma", "shape": [96], "dtype": "float32"}, {"name": "stack2_block1_mixer_REPARAM_0_bn/beta", "shape": [96], "dtype": "float32"}, {"name": "stack2_block1_mixer_REPARAM_0_bn/moving_mean", "shape": [96], "dtype": "float32"}, {"name": "stack2_block1_mixer_REPARAM_0_bn/moving_variance", "shape": [96], "dtype": "float32"}, {"name": "stack2_block1_mixer_REPARAM_1_bn/gamma", "shape": [96], "dtype": "float32"}, {"name": "stack2_block1_mixer_REPARAM_1_bn/beta", "shape": [96], "dtype": "float32"}, {"name": "stack2_block1_mixer_REPARAM_1_bn/moving_mean", "shape": [96], "dtype": "float32"}, {"name": "stack2_block1_mixer_REPARAM_1_bn/moving_variance", "shape": [96], "dtype": "float32"}, {"name": "stack2_block1_mixer_REPARAM_1_dw_conv/depthwise_kernel", "shape": [3, 3, 96, 1], "dtype": "float32"}, {"name": "stack2_block1_mixer_REPARAM_2_bn/gamma", "shape": [96], "dtype": "float32"}, {"name": "stack2_block1_mixer_REPARAM_2_bn/beta", "shape": [96], "dtype": "float32"}, {"name": "stack2_block1_mixer_REPARAM_2_bn/moving_mean", "shape": [96], "dtype": "float32"}, {"name": "stack2_block1_mixer_REPARAM_2_bn/moving_variance", "shape": [96], "dtype": "float32"}, {"name": "stack2_block1_mixer_REPARAM_2_dw_conv/depthwise_kernel", "shape": [1, 1, 96, 1], "dtype": "float32"}, {"name": "stack2_block1_mixer_bn/gamma", "shape": [96], "dtype": "float32"}, {"name": "stack2_block1_mixer_bn/beta", "shape": [96], "dtype": "float32"}, {"name": "stack2_block1_mixer_bn/moving_mean", "shape": [96], "dtype": "float32"}, {"name": "stack2_block1_mixer_bn/moving_variance", "shape": [96], "dtype": "float32"}, {"name": "stack2_block1_mlp_Conv_0/kernel", "shape": [1, 1, 96, 288], "dtype": "float32"}, {"name": "stack2_block1_mlp_Conv_0/bias", "shape": [288], "dtype": "float32"}, {"name": "stack2_block1_mlp_Conv_1/kernel", "shape": [1, 1, 288, 96], "dtype": "float32"}, {"name": "stack2_block1_mlp_Conv_1/bias", "shape": [96], "dtype": "float32"}, {"name": "stack2_block1_mlp_pre_bn/gamma", "shape": [96], "dtype": "float32"}, {"name": "stack2_block1_mlp_pre_bn/beta", "shape": [96], "dtype": "float32"}, {"name": "stack2_block1_mlp_pre_bn/moving_mean", "shape": [96], "dtype": "float32"}, {"name": "stack2_block1_mlp_pre_bn/moving_variance", "shape": [96], "dtype": "float32"}, {"name": "stack2_block1_mlp_pre_conv/kernel", "shape": [7, 7, 1, 96], "dtype": "float32"}, {"name": "stack2_block2_1_gamma/weight", "shape": [96], "dtype": "float32"}, {"name": "stack2_block2_2_gamma/weight", "shape": [96], "dtype": "float32"}, {"name": "stack2_block2_mixer_REPARAM_0_bn/gamma", "shape": [96], "dtype": "float32"}, {"name": "stack2_block2_mixer_REPARAM_0_bn/beta", "shape": [96], "dtype": "float32"}, {"name": "stack2_block2_mixer_REPARAM_0_bn/moving_mean", "shape": [96], "dtype": "float32"}, {"name": "stack2_block2_mixer_REPARAM_0_bn/moving_variance", "shape": [96], "dtype": "float32"}, {"name": "stack2_block2_mixer_REPARAM_1_bn/gamma", "shape": [96], "dtype": "float32"}, {"name": "stack2_block2_mixer_REPARAM_1_bn/beta", "shape": [96], "dtype": "float32"}, {"name": "stack2_block2_mixer_REPARAM_1_bn/moving_mean", "shape": [96], "dtype": "float32"}, {"name": "stack2_block2_mixer_REPARAM_1_bn/moving_variance", "shape": [96], "dtype": "float32"}, {"name": "stack2_block2_mixer_REPARAM_1_dw_conv/depthwise_kernel", "shape": [3, 3, 96, 1], "dtype": "float32"}, {"name": "stack2_block2_mixer_REPARAM_2_bn/gamma", "shape": [96], "dtype": "float32"}, {"name": "stack2_block2_mixer_REPARAM_2_bn/beta", "shape": [96], "dtype": "float32"}, {"name": "stack2_block2_mixer_REPARAM_2_bn/moving_mean", "shape": [96], "dtype": "float32"}, {"name": "stack2_block2_mixer_REPARAM_2_bn/moving_variance", "shape": [96], "dtype": "float32"}, {"name": "stack2_block2_mixer_REPARAM_2_dw_conv/depthwise_kernel", "shape": [1, 1, 96, 1], "dtype": "float32"}, {"name": "stack2_block2_mixer_bn/gamma", "shape": [96], "dtype": "float32"}, {"name": "stack2_block2_mixer_bn/beta", "shape": [96], "dtype": "float32"}, {"name": "stack2_block2_mixer_bn/moving_mean", "shape": [96], "dtype": "float32"}, {"name": "stack2_block2_mixer_bn/moving_variance", "shape": [96], "dtype": "float32"}, {"name": "stack2_block2_mlp_Conv_0/kernel", "shape": [1, 1, 96, 288], "dtype": "float32"}, {"name": "stack2_block2_mlp_Conv_0/bias", "shape": [288], "dtype": "float32"}, {"name": "stack2_block2_mlp_Conv_1/kernel", "shape": [1, 1, 288, 96], "dtype": "float32"}, {"name": "stack2_block2_mlp_Conv_1/bias", "shape": [96], "dtype": "float32"}, {"name": "stack2_block2_mlp_pre_bn/gamma", "shape": [96], "dtype": "float32"}, {"name": "stack2_block2_mlp_pre_bn/beta", "shape": [96], "dtype": "float32"}, {"name": "stack2_block2_mlp_pre_bn/moving_mean", "shape": [96], "dtype": "float32"}, {"name": "stack2_block2_mlp_pre_bn/moving_variance", "shape": [96], "dtype": "float32"}, {"name": "stack2_block2_mlp_pre_conv/kernel", "shape": [7, 7, 1, 96], "dtype": "float32"}, {"name": "stack2_downsample_2_REPARAM_0_bn/gamma", "shape": [96], "dtype": "float32"}, {"name": "stack2_downsample_2_REPARAM_0_bn/beta", "shape": [96], "dtype": "float32"}, {"name": "stack2_downsample_2_REPARAM_0_bn/moving_mean", "shape": [96], "dtype": "float32"}, {"name": "stack2_downsample_2_REPARAM_0_bn/moving_variance", "shape": [96], "dtype": "float32"}, {"name": "stack2_downsample_2_REPARAM_1_bn/gamma", "shape": [96], "dtype": "float32"}, {"name": "stack2_downsample_2_REPARAM_1_bn/beta", "shape": [96], "dtype": "float32"}, {"name": "stack2_downsample_2_REPARAM_1_bn/moving_mean", "shape": [96], "dtype": "float32"}, {"name": "stack2_downsample_2_REPARAM_1_bn/moving_variance", "shape": [96], "dtype": "float32"}, {"name": "stack2_downsample_2_REPARAM_1_conv/kernel", "shape": [1, 1, 96, 96], "dtype": "float32"}, {"name": "stack2_downsample_REPARAM_1_bn/gamma", "shape": [96], "dtype": "float32"}, {"name": "stack2_downsample_REPARAM_1_bn/beta", "shape": [96], "dtype": "float32"}, {"name": "stack2_downsample_REPARAM_1_bn/moving_mean", "shape": [96], "dtype": "float32"}, {"name": "stack2_downsample_REPARAM_1_bn/moving_variance", "shape": [96], "dtype": "float32"}, {"name": "stack2_downsample_REPARAM_1_conv/kernel", "shape": [7, 7, 1, 96], "dtype": "float32"}, {"name": "stack2_downsample_REPARAM_2_bn/gamma", "shape": [96], "dtype": "float32"}, {"name": "stack2_downsample_REPARAM_2_bn/beta", "shape": [96], "dtype": "float32"}, {"name": "stack2_downsample_REPARAM_2_bn/moving_mean", "shape": [96], "dtype": "float32"}, {"name": "stack2_downsample_REPARAM_2_bn/moving_variance", "shape": [96], "dtype": "float32"}, {"name": "stack2_downsample_REPARAM_2_conv/kernel", "shape": [3, 3, 1, 96], "dtype": "float32"}, {"name": "stack3_block1_1_gamma/weight", "shape": [192], "dtype": "float32"}, {"name": "stack3_block1_2_gamma/weight", "shape": [192], "dtype": "float32"}, {"name": "stack3_block1_mixer_REPARAM_0_bn/gamma", "shape": [192], "dtype": "float32"}, {"name": "stack3_block1_mixer_REPARAM_0_bn/beta", "shape": [192], "dtype": "float32"}, {"name": "stack3_block1_mixer_REPARAM_0_bn/moving_mean", "shape": [192], "dtype": "float32"}, {"name": "stack3_block1_mixer_REPARAM_0_bn/moving_variance", "shape": [192], "dtype": "float32"}, {"name": "stack3_block1_mixer_REPARAM_1_bn/gamma", "shape": [192], "dtype": "float32"}, {"name": "stack3_block1_mixer_REPARAM_1_bn/beta", "shape": [192], "dtype": "float32"}, {"name": "stack3_block1_mixer_REPARAM_1_bn/moving_mean", "shape": [192], "dtype": "float32"}, {"name": "stack3_block1_mixer_REPARAM_1_bn/moving_variance", "shape": [192], "dtype": "float32"}, {"name": "stack3_block1_mixer_REPARAM_1_dw_conv/depthwise_kernel", "shape": [3, 3, 192, 1], "dtype": "float32"}, {"name": "stack3_block1_mixer_REPARAM_2_bn/gamma", "shape": [192], "dtype": "float32"}, {"name": "stack3_block1_mixer_REPARAM_2_bn/beta", "shape": [192], "dtype": "float32"}, {"name": "stack3_block1_mixer_REPARAM_2_bn/moving_mean", "shape": [192], "dtype": "float32"}, {"name": "stack3_block1_mixer_REPARAM_2_bn/moving_variance", "shape": [192], "dtype": "float32"}, {"name": "stack3_block1_mixer_REPARAM_2_dw_conv/depthwise_kernel", "shape": [1, 1, 192, 1], "dtype": "float32"}, {"name": "stack3_block1_mixer_bn/gamma", "shape": [192], "dtype": "float32"}, {"name": "stack3_block1_mixer_bn/beta", "shape": [192], "dtype": "float32"}, {"name": "stack3_block1_mixer_bn/moving_mean", "shape": [192], "dtype": "float32"}, {"name": "stack3_block1_mixer_bn/moving_variance", "shape": [192], "dtype": "float32"}, {"name": "stack3_block1_mlp_Conv_0/kernel", "shape": [1, 1, 192, 576], "dtype": "float32"}, {"name": "stack3_block1_mlp_Conv_0/bias", "shape": [576], "dtype": "float32"}, {"name": "stack3_block1_mlp_Conv_1/kernel", "shape": [1, 1, 576, 192], "dtype": "float32"}, {"name": "stack3_block1_mlp_Conv_1/bias", "shape": [192], "dtype": "float32"}, {"name": "stack3_block1_mlp_pre_bn/gamma", "shape": [192], "dtype": "float32"}, {"name": "stack3_block1_mlp_pre_bn/beta", "shape": [192], "dtype": "float32"}, {"name": "stack3_block1_mlp_pre_bn/moving_mean", "shape": [192], "dtype": "float32"}, {"name": "stack3_block1_mlp_pre_bn/moving_variance", "shape": [192], "dtype": "float32"}, {"name": "stack3_block1_mlp_pre_conv/kernel", "shape": [7, 7, 1, 192], "dtype": "float32"}, {"name": "stack3_block2_1_gamma/weight", "shape": [192], "dtype": "float32"}, {"name": "stack3_block2_2_gamma/weight", "shape": [192], "dtype": "float32"}, {"name": "stack3_block2_mixer_REPARAM_0_bn/gamma", "shape": [192], "dtype": "float32"}, {"name": "stack3_block2_mixer_REPARAM_0_bn/beta", "shape": [192], "dtype": "float32"}, {"name": "stack3_block2_mixer_REPARAM_0_bn/moving_mean", "shape": [192], "dtype": "float32"}, {"name": "stack3_block2_mixer_REPARAM_0_bn/moving_variance", "shape": [192], "dtype": "float32"}, {"name": "stack3_block2_mixer_REPARAM_1_bn/gamma", "shape": [192], "dtype": "float32"}, {"name": "stack3_block2_mixer_REPARAM_1_bn/beta", "shape": [192], "dtype": "float32"}, {"name": "stack3_block2_mixer_REPARAM_1_bn/moving_mean", "shape": [192], "dtype": "float32"}, {"name": "stack3_block2_mixer_REPARAM_1_bn/moving_variance", "shape": [192], "dtype": "float32"}, {"name": "stack3_block2_mixer_REPARAM_1_dw_conv/depthwise_kernel", "shape": [3, 3, 192, 1], "dtype": "float32"}, {"name": "stack3_block2_mixer_REPARAM_2_bn/gamma", "shape": [192], "dtype": "float32"}, {"name": "stack3_block2_mixer_REPARAM_2_bn/beta", "shape": [192], "dtype": "float32"}, {"name": "stack3_block2_mixer_REPARAM_2_bn/moving_mean", "shape": [192], "dtype": "float32"}, {"name": "stack3_block2_mixer_REPARAM_2_bn/moving_variance", "shape": [192], "dtype": "float32"}, {"name": "stack3_block2_mixer_REPARAM_2_dw_conv/depthwise_kernel", "shape": [1, 1, 192, 1], "dtype": "float32"}, {"name": "stack3_block2_mixer_bn/gamma", "shape": [192], "dtype": "float32"}, {"name": "stack3_block2_mixer_bn/beta", "shape": [192], "dtype": "float32"}, {"name": "stack3_block2_mixer_bn/moving_mean", "shape": [192], "dtype": "float32"}, {"name": "stack3_block2_mixer_bn/moving_variance", "shape": [192], "dtype": "float32"}, {"name": "stack3_block2_mlp_Conv_0/kernel", "shape": [1, 1, 192, 576], "dtype": "float32"}, {"name": "stack3_block2_mlp_Conv_0/bias", "shape": [576], "dtype": "float32"}, {"name": "stack3_block2_mlp_Conv_1/kernel", "shape": [1, 1, 576, 192], "dtype": "float32"}, {"name": "stack3_block2_mlp_Conv_1/bias", "shape": [192], "dtype": "float32"}, {"name": "stack3_block2_mlp_pre_bn/gamma", "shape": [192], "dtype": "float32"}, {"name": "stack3_block2_mlp_pre_bn/beta", "shape": [192], "dtype": "float32"}, {"name": "stack3_block2_mlp_pre_bn/moving_mean", "shape": [192], "dtype": "float32"}, {"name": "stack3_block2_mlp_pre_bn/moving_variance", "shape": [192], "dtype": "float32"}, {"name": "stack3_block2_mlp_pre_conv/kernel", "shape": [7, 7, 1, 192], "dtype": "float32"}, {"name": "stack3_block3_1_gamma/weight", "shape": [192], "dtype": "float32"}, {"name": "stack3_block3_2_gamma/weight", "shape": [192], "dtype": "float32"}, {"name": "stack3_block3_mixer_REPARAM_0_bn/gamma", "shape": [192], "dtype": "float32"}, {"name": "stack3_block3_mixer_REPARAM_0_bn/beta", "shape": [192], "dtype": "float32"}, {"name": "stack3_block3_mixer_REPARAM_0_bn/moving_mean", "shape": [192], "dtype": "float32"}, {"name": "stack3_block3_mixer_REPARAM_0_bn/moving_variance", "shape": [192], "dtype": "float32"}, {"name": "stack3_block3_mixer_REPARAM_1_bn/gamma", "shape": [192], "dtype": "float32"}, {"name": "stack3_block3_mixer_REPARAM_1_bn/beta", "shape": [192], "dtype": "float32"}, {"name": "stack3_block3_mixer_REPARAM_1_bn/moving_mean", "shape": [192], "dtype": "float32"}, {"name": "stack3_block3_mixer_REPARAM_1_bn/moving_variance", "shape": [192], "dtype": "float32"}, {"name": "stack3_block3_mixer_REPARAM_1_dw_conv/depthwise_kernel", "shape": [3, 3, 192, 1], "dtype": "float32"}, {"name": "stack3_block3_mixer_REPARAM_2_bn/gamma", "shape": [192], "dtype": "float32"}, {"name": "stack3_block3_mixer_REPARAM_2_bn/beta", "shape": [192], "dtype": "float32"}, {"name": "stack3_block3_mixer_REPARAM_2_bn/moving_mean", "shape": [192], "dtype": "float32"}, {"name": "stack3_block3_mixer_REPARAM_2_bn/moving_variance", "shape": [192], "dtype": "float32"}, {"name": "stack3_block3_mixer_REPARAM_2_dw_conv/depthwise_kernel", "shape": [1, 1, 192, 1], "dtype": "float32"}, {"name": "stack3_block3_mixer_bn/gamma", "shape": [192], "dtype": "float32"}, {"name": "stack3_block3_mixer_bn/beta", "shape": [192], "dtype": "float32"}, {"name": "stack3_block3_mixer_bn/moving_mean", "shape": [192], "dtype": "float32"}, {"name": "stack3_block3_mixer_bn/moving_variance", "shape": [192], "dtype": "float32"}, {"name": "stack3_block3_mlp_Conv_0/kernel", "shape": [1, 1, 192, 576], "dtype": "float32"}, {"name": "stack3_block3_mlp_Conv_0/bias", "shape": [576], "dtype": "float32"}, {"name": "stack3_block3_mlp_Conv_1/kernel", "shape": [1, 1, 576, 192], "dtype": "float32"}, {"name": "stack3_block3_mlp_Conv_1/bias", "shape": [192], "dtype": "float32"}, {"name": "stack3_block3_mlp_pre_bn/gamma", "shape": [192], "dtype": "float32"}, {"name": "stack3_block3_mlp_pre_bn/beta", "shape": [192], "dtype": "float32"}, {"name": "stack3_block3_mlp_pre_bn/moving_mean", "shape": [192], "dtype": "float32"}, {"name": "stack3_block3_mlp_pre_bn/moving_variance", "shape": [192], "dtype": "float32"}, {"name": "stack3_block3_mlp_pre_conv/kernel", "shape": [7, 7, 1, 192], "dtype": "float32"}, {"name": "stack3_block4_1_gamma/weight", "shape": [192], "dtype": "float32"}, {"name": "stack3_block4_2_gamma/weight", "shape": [192], "dtype": "float32"}, {"name": "stack3_block4_mixer_REPARAM_0_bn/gamma", "shape": [192], "dtype": "float32"}, {"name": "stack3_block4_mixer_REPARAM_0_bn/beta", "shape": [192], "dtype": "float32"}, {"name": "stack3_block4_mixer_REPARAM_0_bn/moving_mean", "shape": [192], "dtype": "float32"}, {"name": "stack3_block4_mixer_REPARAM_0_bn/moving_variance", "shape": [192], "dtype": "float32"}, {"name": "stack3_block4_mixer_REPARAM_1_bn/gamma", "shape": [192], "dtype": "float32"}, {"name": "stack3_block4_mixer_REPARAM_1_bn/beta", "shape": [192], "dtype": "float32"}, {"name": "stack3_block4_mixer_REPARAM_1_bn/moving_mean", "shape": [192], "dtype": "float32"}, {"name": "stack3_block4_mixer_REPARAM_1_bn/moving_variance", "shape": [192], "dtype": "float32"}, {"name": "stack3_block4_mixer_REPARAM_1_dw_conv/depthwise_kernel", "shape": [3, 3, 192, 1], "dtype": "float32"}, {"name": "stack3_block4_mixer_REPARAM_2_bn/gamma", "shape": [192], "dtype": "float32"}, {"name": "stack3_block4_mixer_REPARAM_2_bn/beta", "shape": [192], "dtype": "float32"}, {"name": "stack3_block4_mixer_REPARAM_2_bn/moving_mean", "shape": [192], "dtype": "float32"}, {"name": "stack3_block4_mixer_REPARAM_2_bn/moving_variance", "shape": [192], "dtype": "float32"}, {"name": "stack3_block4_mixer_REPARAM_2_dw_conv/depthwise_kernel", "shape": [1, 1, 192, 1], "dtype": "float32"}, {"name": "stack3_block4_mixer_bn/gamma", "shape": [192], "dtype": "float32"}, {"name": "stack3_block4_mixer_bn/beta", "shape": [192], "dtype": "float32"}, {"name": "stack3_block4_mixer_bn/moving_mean", "shape": [192], "dtype": "float32"}, {"name": "stack3_block4_mixer_bn/moving_variance", "shape": [192], "dtype": "float32"}, {"name": "stack3_block4_mlp_Conv_0/kernel", "shape": [1, 1, 192, 576], "dtype": "float32"}, {"name": "stack3_block4_mlp_Conv_0/bias", "shape": [576], "dtype": "float32"}, {"name": "stack3_block4_mlp_Conv_1/kernel", "shape": [1, 1, 576, 192], "dtype": "float32"}, {"name": "stack3_block4_mlp_Conv_1/bias", "shape": [192], "dtype": "float32"}, {"name": "stack3_block4_mlp_pre_bn/gamma", "shape": [192], "dtype": "float32"}, {"name": "stack3_block4_mlp_pre_bn/beta", "shape": [192], "dtype": "float32"}, {"name": "stack3_block4_mlp_pre_bn/moving_mean", "shape": [192], "dtype": "float32"}, {"name": "stack3_block4_mlp_pre_bn/moving_variance", "shape": [192], "dtype": "float32"}, {"name": "stack3_block4_mlp_pre_conv/kernel", "shape": [7, 7, 1, 192], "dtype": "float32"}, {"name": "stack3_downsample_2_REPARAM_0_bn/gamma", "shape": [192], "dtype": "float32"}, {"name": "stack3_downsample_2_REPARAM_0_bn/beta", "shape": [192], "dtype": "float32"}, {"name": "stack3_downsample_2_REPARAM_0_bn/moving_mean", "shape": [192], "dtype": "float32"}, {"name": "stack3_downsample_2_REPARAM_0_bn/moving_variance", "shape": [192], "dtype": "float32"}, {"name": "stack3_downsample_2_REPARAM_1_bn/gamma", "shape": [192], "dtype": "float32"}, {"name": "stack3_downsample_2_REPARAM_1_bn/beta", "shape": [192], "dtype": "float32"}, {"name": "stack3_downsample_2_REPARAM_1_bn/moving_mean", "shape": [192], "dtype": "float32"}, {"name": "stack3_downsample_2_REPARAM_1_bn/moving_variance", "shape": [192], "dtype": "float32"}, {"name": "stack3_downsample_2_REPARAM_1_conv/kernel", "shape": [1, 1, 192, 192], "dtype": "float32"}, {"name": "stack3_downsample_REPARAM_1_bn/gamma", "shape": [192], "dtype": "float32"}, {"name": "stack3_downsample_REPARAM_1_bn/beta", "shape": [192], "dtype": "float32"}, {"name": "stack3_downsample_REPARAM_1_bn/moving_mean", "shape": [192], "dtype": "float32"}, {"name": "stack3_downsample_REPARAM_1_bn/moving_variance", "shape": [192], "dtype": "float32"}, {"name": "stack3_downsample_REPARAM_1_conv/kernel", "shape": [7, 7, 1, 192], "dtype": "float32"}, {"name": "stack3_downsample_REPARAM_2_bn/gamma", "shape": [192], "dtype": "float32"}, {"name": "stack3_downsample_REPARAM_2_bn/beta", "shape": [192], "dtype": "float32"}, {"name": "stack3_downsample_REPARAM_2_bn/moving_mean", "shape": [192], "dtype": "float32"}, {"name": "stack3_downsample_REPARAM_2_bn/moving_variance", "shape": [192], "dtype": "float32"}, {"name": "stack3_downsample_REPARAM_2_conv/kernel", "shape": [3, 3, 1, 192], "dtype": "float32"}, {"name": "stack4_block1_1_gamma/weight", "shape": [384], "dtype": "float32"}, {"name": "stack4_block1_2_gamma/weight", "shape": [384], "dtype": "float32"}, {"name": "stack4_block1_mixer_REPARAM_0_bn/gamma", "shape": [384], "dtype": "float32"}, {"name": "stack4_block1_mixer_REPARAM_0_bn/beta", "shape": [384], "dtype": "float32"}, {"name": "stack4_block1_mixer_REPARAM_0_bn/moving_mean", "shape": [384], "dtype": "float32"}, {"name": "stack4_block1_mixer_REPARAM_0_bn/moving_variance", "shape": [384], "dtype": "float32"}, {"name": "stack4_block1_mixer_REPARAM_1_bn/gamma", "shape": [384], "dtype": "float32"}, {"name": "stack4_block1_mixer_REPARAM_1_bn/beta", "shape": [384], "dtype": "float32"}, {"name": "stack4_block1_mixer_REPARAM_1_bn/moving_mean", "shape": [384], "dtype": "float32"}, {"name": "stack4_block1_mixer_REPARAM_1_bn/moving_variance", "shape": [384], "dtype": "float32"}, {"name": "stack4_block1_mixer_REPARAM_1_dw_conv/depthwise_kernel", "shape": [3, 3, 384, 1], "dtype": "float32"}, {"name": "stack4_block1_mixer_REPARAM_2_bn/gamma", "shape": [384], "dtype": "float32"}, {"name": "stack4_block1_mixer_REPARAM_2_bn/beta", "shape": [384], "dtype": "float32"}, {"name": "stack4_block1_mixer_REPARAM_2_bn/moving_mean", "shape": [384], "dtype": "float32"}, {"name": "stack4_block1_mixer_REPARAM_2_bn/moving_variance", "shape": [384], "dtype": "float32"}, {"name": "stack4_block1_mixer_REPARAM_2_dw_conv/depthwise_kernel", "shape": [1, 1, 384, 1], "dtype": "float32"}, {"name": "stack4_block1_mixer_bn/gamma", "shape": [384], "dtype": "float32"}, {"name": "stack4_block1_mixer_bn/beta", "shape": [384], "dtype": "float32"}, {"name": "stack4_block1_mixer_bn/moving_mean", "shape": [384], "dtype": "float32"}, {"name": "stack4_block1_mixer_bn/moving_variance", "shape": [384], "dtype": "float32"}, {"name": "stack4_block1_mlp_Conv_0/kernel", "shape": [1, 1, 384, 1152], "dtype": "float32"}, {"name": "stack4_block1_mlp_Conv_0/bias", "shape": [1152], "dtype": "float32"}, {"name": "stack4_block1_mlp_Conv_1/kernel", "shape": [1, 1, 1152, 384], "dtype": "float32"}, {"name": "stack4_block1_mlp_Conv_1/bias", "shape": [384], "dtype": "float32"}, {"name": "stack4_block1_mlp_pre_bn/gamma", "shape": [384], "dtype": "float32"}, {"name": "stack4_block1_mlp_pre_bn/beta", "shape": [384], "dtype": "float32"}, {"name": "stack4_block1_mlp_pre_bn/moving_mean", "shape": [384], "dtype": "float32"}, {"name": "stack4_block1_mlp_pre_bn/moving_variance", "shape": [384], "dtype": "float32"}, {"name": "stack4_block1_mlp_pre_conv/kernel", "shape": [7, 7, 1, 384], "dtype": "float32"}, {"name": "stack4_block2_1_gamma/weight", "shape": [384], "dtype": "float32"}, {"name": "stack4_block2_2_gamma/weight", "shape": [384], "dtype": "float32"}, {"name": "stack4_block2_mixer_REPARAM_0_bn/gamma", "shape": [384], "dtype": "float32"}, {"name": "stack4_block2_mixer_REPARAM_0_bn/beta", "shape": [384], "dtype": "float32"}, {"name": "stack4_block2_mixer_REPARAM_0_bn/moving_mean", "shape": [384], "dtype": "float32"}, {"name": "stack4_block2_mixer_REPARAM_0_bn/moving_variance", "shape": [384], "dtype": "float32"}, {"name": "stack4_block2_mixer_REPARAM_1_bn/gamma", "shape": [384], "dtype": "float32"}, {"name": "stack4_block2_mixer_REPARAM_1_bn/beta", "shape": [384], "dtype": "float32"}, {"name": "stack4_block2_mixer_REPARAM_1_bn/moving_mean", "shape": [384], "dtype": "float32"}, {"name": "stack4_block2_mixer_REPARAM_1_bn/moving_variance", "shape": [384], "dtype": "float32"}, {"name": "stack4_block2_mixer_REPARAM_1_dw_conv/depthwise_kernel", "shape": [3, 3, 384, 1], "dtype": "float32"}, {"name": "stack4_block2_mixer_REPARAM_2_bn/gamma", "shape": [384], "dtype": "float32"}, {"name": "stack4_block2_mixer_REPARAM_2_bn/beta", "shape": [384], "dtype": "float32"}, {"name": "stack4_block2_mixer_REPARAM_2_bn/moving_mean", "shape": [384], "dtype": "float32"}, {"name": "stack4_block2_mixer_REPARAM_2_bn/moving_variance", "shape": [384], "dtype": "float32"}, {"name": "stack4_block2_mixer_REPARAM_2_dw_conv/depthwise_kernel", "shape": [1, 1, 384, 1], "dtype": "float32"}, {"name": "stack4_block2_mixer_bn/gamma", "shape": [384], "dtype": "float32"}, {"name": "stack4_block2_mixer_bn/beta", "shape": [384], "dtype": "float32"}, {"name": "stack4_block2_mixer_bn/moving_mean", "shape": [384], "dtype": "float32"}, {"name": "stack4_block2_mixer_bn/moving_variance", "shape": [384], "dtype": "float32"}, {"name": "stack4_block2_mlp_Conv_0/kernel", "shape": [1, 1, 384, 1152], "dtype": "float32"}, {"name": "stack4_block2_mlp_Conv_0/bias", "shape": [1152], "dtype": "float32"}, {"name": "stack4_block2_mlp_Conv_1/kernel", "shape": [1, 1, 1152, 384], "dtype": "float32"}, {"name": "stack4_block2_mlp_Conv_1/bias", "shape": [384], "dtype": "float32"}, {"name": "stack4_block2_mlp_pre_bn/gamma", "shape": [384], "dtype": "float32"}, {"name": "stack4_block2_mlp_pre_bn/beta", "shape": [384], "dtype": "float32"}, {"name": "stack4_block2_mlp_pre_bn/moving_mean", "shape": [384], "dtype": "float32"}, {"name": "stack4_block2_mlp_pre_bn/moving_variance", "shape": [384], "dtype": "float32"}, {"name": "stack4_block2_mlp_pre_conv/kernel", "shape": [7, 7, 1, 384], "dtype": "float32"}, {"name": "stack4_downsample_2_REPARAM_0_bn/gamma", "shape": [384], "dtype": "float32"}, {"name": "stack4_downsample_2_REPARAM_0_bn/beta", "shape": [384], "dtype": "float32"}, {"name": "stack4_downsample_2_REPARAM_0_bn/moving_mean", "shape": [384], "dtype": "float32"}, {"name": "stack4_downsample_2_REPARAM_0_bn/moving_variance", "shape": [384], "dtype": "float32"}, {"name": "stack4_downsample_2_REPARAM_1_bn/gamma", "shape": [384], "dtype": "float32"}, {"name": "stack4_downsample_2_REPARAM_1_bn/beta", "shape": [384], "dtype": "float32"}, {"name": "stack4_downsample_2_REPARAM_1_bn/moving_mean", "shape": [384], "dtype": "float32"}, {"name": "stack4_downsample_2_REPARAM_1_bn/moving_variance", "shape": [384], "dtype": "float32"}, {"name": "stack4_downsample_2_REPARAM_1_conv/kernel", "shape": [1, 1, 384, 384], "dtype": "float32"}, {"name": "stack4_downsample_REPARAM_1_bn/gamma", "shape": [384], "dtype": "float32"}, {"name": "stack4_downsample_REPARAM_1_bn/beta", "shape": [384], "dtype": "float32"}, {"name": "stack4_downsample_REPARAM_1_bn/moving_mean", "shape": [384], "dtype": "float32"}, {"name": "stack4_downsample_REPARAM_1_bn/moving_variance", "shape": [384], "dtype": "float32"}, {"name": "stack4_downsample_REPARAM_1_conv/kernel", "shape": [7, 7, 1, 384], "dtype": "float32"}, {"name": "stack4_downsample_REPARAM_2_bn/gamma", "shape": [384], "dtype": "float32"}, {"name": "stack4_downsample_REPARAM_2_bn/beta", "shape": [384], "dtype": "float32"}, {"name": "stack4_downsample_REPARAM_2_bn/moving_mean", "shape": [384], "dtype": "float32"}, {"name": "stack4_downsample_REPARAM_2_bn/moving_variance", "shape": [384], "dtype": "float32"}, {"name": "stack4_downsample_REPARAM_2_conv/kernel", "shape": [3, 3, 1, 384], "dtype": "float32"}, {"name": "stem_1_REPARAM_1_bn/gamma", "shape": [48], "dtype": "float32"}, {"name": "stem_1_REPARAM_1_bn/beta", "shape": [48], "dtype": "float32"}, {"name": "stem_1_REPARAM_1_bn/moving_mean", "shape": [48], "dtype": "float32"}, {"name": "stem_1_REPARAM_1_bn/moving_variance", "shape": [48], "dtype": "float32"}, {"name": "stem_1_REPARAM_1_conv/kernel", "shape": [3, 3, 3, 48], "dtype": "float32"}, {"name": "stem_1_REPARAM_2_bn/gamma", "shape": [48], "dtype": "float32"}, {"name": "stem_1_REPARAM_2_bn/beta", "shape": [48], "dtype": "float32"}, {"name": "stem_1_REPARAM_2_bn/moving_mean", "shape": [48], "dtype": "float32"}, {"name": "stem_1_REPARAM_2_bn/moving_variance", "shape": [48], "dtype": "float32"}, {"name": "stem_1_REPARAM_2_conv/kernel", "shape": [1, 1, 3, 48], "dtype": "float32"}, {"name": "stem_2_REPARAM_1_bn/gamma", "shape": [48], "dtype": "float32"}, {"name": "stem_2_REPARAM_1_bn/beta", "shape": [48], "dtype": "float32"}, {"name": "stem_2_REPARAM_1_bn/moving_mean", "shape": [48], "dtype": "float32"}, {"name": "stem_2_REPARAM_1_bn/moving_variance", "shape": [48], "dtype": "float32"}, {"name": "stem_2_REPARAM_1_dw_conv/depthwise_kernel", "shape": [3, 3, 48, 1], "dtype": "float32"}, {"name": "stem_2_REPARAM_2_bn/gamma", "shape": [48], "dtype": "float32"}, {"name": "stem_2_REPARAM_2_bn/beta", "shape": [48], "dtype": "float32"}, {"name": "stem_2_REPARAM_2_bn/moving_mean", "shape": [48], "dtype": "float32"}, {"name": "stem_2_REPARAM_2_bn/moving_variance", "shape": [48], "dtype": "float32"}, {"name": "stem_2_REPARAM_2_dw_conv/depthwise_kernel", "shape": [1, 1, 48, 1], "dtype": "float32"}, {"name": "stem_3_REPARAM_0_bn/gamma", "shape": [48], "dtype": "float32"}, {"name": "stem_3_REPARAM_0_bn/beta", "shape": [48], "dtype": "float32"}, {"name": "stem_3_REPARAM_0_bn/moving_mean", "shape": [48], "dtype": "float32"}, {"name": "stem_3_REPARAM_0_bn/moving_variance", "shape": [48], "dtype": "float32"}, {"name": "stem_3_REPARAM_1_bn/gamma", "shape": [48], "dtype": "float32"}, {"name": "stem_3_REPARAM_1_bn/beta", "shape": [48], "dtype": "float32"}, {"name": "stem_3_REPARAM_1_bn/moving_mean", "shape": [48], "dtype": "float32"}, {"name": "stem_3_REPARAM_1_bn/moving_variance", "shape": [48], "dtype": "float32"}, {"name": "stem_3_REPARAM_1_conv/kernel", "shape": [1, 1, 48, 48], "dtype": "float32"}]}]}