{"format": "layers-model", "generatedBy": "keras v2.11.0", "convertedBy": "TensorFlow.js Converter v4.21.0", "modelTopology": {"keras_version": "2.11.0", "backend": "tensorflow", "model_config": {"class_name": "Functional", "config": {"name": "ghostnet_050", "layers": [{"class_name": "InputLayer", "config": {"batch_input_shape": [null, 224, 224, 3], "dtype": "float32", "sparse": false, "ragged": false, "name": "input_1"}, "name": "input_1", "inbound_nodes": []}, {"class_name": "ZeroPadding2D", "config": {"name": "stem_pad", "trainable": true, "dtype": "float32", "padding": [[1, 1], [1, 1]], "data_format": "channels_last"}, "name": "stem_pad", "inbound_nodes": [[["input_1", 0, 0, {}]]]}, {"class_name": "Conv2D", "config": {"name": "stem_conv", "trainable": true, "dtype": "float32", "filters": 8, "kernel_size": [3, 3], "strides": [2, 2], "padding": "valid", "data_format": "channels_last", "dilation_rate": [1, 1], "groups": 1, "activation": "linear", "use_bias": false, "kernel_initializer": {"class_name": "VarianceScaling", "config": {"scale": 2.0, "mode": "fan_out", "distribution": "truncated_normal", "seed": null}, "shared_object_id": 2}, "bias_initializer": {"class_name": "Zeros", "config": {}}, "kernel_regularizer": null, "bias_regularizer": null, "activity_regularizer": null, "kernel_constraint": null, "bias_constraint": null}, "name": "stem_conv", "inbound_nodes": [[["stem_pad", 0, 0, {}]]]}, {"class_name": "BatchNormalization", "config": {"name": "stem_bn", "trainable": true, "dtype": "float32", "axis": [3], "momentum": 0.9, "epsilon": 1e-05, "center": true, "scale": true, "beta_initializer": {"class_name": "Zeros", "config": {}}, "gamma_initializer": {"class_name": "Ones", "config": {}}, "moving_mean_initializer": {"class_name": "Zeros", "config": {}}, "moving_variance_initializer": {"class_name": "Ones", "config": {}}, "beta_regularizer": null, "gamma_regularizer": null, "beta_constraint": null, "gamma_constraint": null}, "name": "stem_bn", "inbound_nodes": [[["stem_conv", 0, 0, {}]]]}, {"class_name": "Activation", "config": {"name": "stem_relu", "trainable": true, "dtype": "float32", "activation": "relu"}, "name": "stem_relu", "inbound_nodes": [[["stem_bn", 0, 0, {}]]]}, {"class_name": "Conv2D", "config": {"name": "stack1_ghost_1_prim_conv", "trainable": true, "dtype": "float32", "filters": 4, "kernel_size": [1, 1], "strides": [1, 1], "padding": "valid", "data_format": "channels_last", "dilation_rate": [1, 1], "groups": 1, "activation": "linear", "use_bias": false, "kernel_initializer": {"class_name": "VarianceScaling", "config": {"scale": 2.0, "mode": "fan_out", "distribution": "truncated_normal", "seed": null}, "shared_object_id": 2}, "bias_initializer": {"class_name": "Zeros", "config": {}}, "kernel_regularizer": null, "bias_regularizer": null, "activity_regularizer": null, "kernel_constraint": null, "bias_constraint": null}, "name": "stack1_ghost_1_prim_conv", "inbound_nodes": [[["stem_relu", 0, 0, {}]]]}, {"class_name": "BatchNormalization", "config": {"name": "stack1_ghost_1_prim_bn", "trainable": true, "dtype": "float32", "axis": [3], "momentum": 0.9, "epsilon": 1e-05, "center": true, "scale": true, "beta_initializer": {"class_name": "Zeros", "config": {}}, "gamma_initializer": {"class_name": "Ones", "config": {}}, "moving_mean_initializer": {"class_name": "Zeros", "config": {}}, "moving_variance_initializer": {"class_name": "Ones", "config": {}}, "beta_regularizer": null, "gamma_regularizer": null, "beta_constraint": null, "gamma_constraint": null}, "name": "stack1_ghost_1_prim_bn", "inbound_nodes": [[["stack1_ghost_1_prim_conv", 0, 0, {}]]]}, {"class_name": "Activation", "config": {"name": "stack1_ghost_1_prim_relu", "trainable": true, "dtype": "float32", "activation": "relu"}, "name": "stack1_ghost_1_prim_relu", "inbound_nodes": [[["stack1_ghost_1_prim_bn", 0, 0, {}]]]}, {"class_name": "ZeroPadding2D", "config": {"name": "stack1_ghost_1_cheap_dw_pad", "trainable": true, "dtype": "float32", "padding": [[1, 1], [1, 1]], "data_format": "channels_last"}, "name": "stack1_ghost_1_cheap_dw_pad", "inbound_nodes": [[["stack1_ghost_1_prim_relu", 0, 0, {}]]]}, {"class_name": "DepthwiseConv2D", "config": {"name": "stack1_ghost_1_cheap_dw_conv", "trainable": true, "dtype": "float32", "kernel_size": [3, 3], "strides": [1, 1], "padding": "valid", "data_format": "channels_last", "dilation_rate": [1, 1], "groups": 1, "activation": "linear", "use_bias": false, "bias_initializer": {"class_name": "Zeros", "config": {}}, "bias_regularizer": null, "activity_regularizer": null, "bias_constraint": null, "depth_multiplier": 1, "depthwise_initializer": {"class_name": "GlorotUniform", "config": {"seed": null}}, "depthwise_regularizer": null, "depthwise_constraint": null}, "name": "stack1_ghost_1_cheap_dw_conv", "inbound_nodes": [[["stack1_ghost_1_cheap_dw_pad", 0, 0, {}]]]}, {"class_name": "BatchNormalization", "config": {"name": "stack1_ghost_1_cheap_bn", "trainable": true, "dtype": "float32", "axis": [3], "momentum": 0.9, "epsilon": 1e-05, "center": true, "scale": true, "beta_initializer": {"class_name": "Zeros", "config": {}}, "gamma_initializer": {"class_name": "Ones", "config": {}}, "moving_mean_initializer": {"class_name": "Zeros", "config": {}}, "moving_variance_initializer": {"class_name": "Ones", "config": {}}, "beta_regularizer": null, "gamma_regularizer": null, "beta_constraint": null, "gamma_constraint": null}, "name": "stack1_ghost_1_cheap_bn", "inbound_nodes": [[["stack1_ghost_1_cheap_dw_conv", 0, 0, {}]]]}, {"class_name": "Activation", "config": {"name": "stack1_ghost_1_cheap_relu", "trainable": true, "dtype": "float32", "activation": "relu"}, "name": "stack1_ghost_1_cheap_relu", "inbound_nodes": [[["stack1_ghost_1_cheap_bn", 0, 0, {}]]]}, {"class_name": "Concatenate", "config": {"name": "concatenate", "trainable": true, "dtype": "float32", "axis": -1}, "name": "concatenate", "inbound_nodes": [[["stack1_ghost_1_prim_relu", 0, 0, {}], ["stack1_ghost_1_cheap_relu", 0, 0, {}]]]}, {"class_name": "Conv2D", "config": {"name": "stack1_ghost_2_prim_conv", "trainable": true, "dtype": "float32", "filters": 4, "kernel_size": [1, 1], "strides": [1, 1], "padding": "valid", "data_format": "channels_last", "dilation_rate": [1, 1], "groups": 1, "activation": "linear", "use_bias": false, "kernel_initializer": {"class_name": "VarianceScaling", "config": {"scale": 2.0, "mode": "fan_out", "distribution": "truncated_normal", "seed": null}, "shared_object_id": 2}, "bias_initializer": {"class_name": "Zeros", "config": {}}, "kernel_regularizer": null, "bias_regularizer": null, "activity_regularizer": null, "kernel_constraint": null, "bias_constraint": null}, "name": "stack1_ghost_2_prim_conv", "inbound_nodes": [[["concatenate", 0, 0, {}]]]}, {"class_name": "BatchNormalization", "config": {"name": "stack1_ghost_2_prim_bn", "trainable": true, "dtype": "float32", "axis": [3], "momentum": 0.9, "epsilon": 1e-05, "center": true, "scale": true, "beta_initializer": {"class_name": "Zeros", "config": {}}, "gamma_initializer": {"class_name": "Ones", "config": {}}, "moving_mean_initializer": {"class_name": "Zeros", "config": {}}, "moving_variance_initializer": {"class_name": "Ones", "config": {}}, "beta_regularizer": null, "gamma_regularizer": null, "beta_constraint": null, "gamma_constraint": null}, "name": "stack1_ghost_2_prim_bn", "inbound_nodes": [[["stack1_ghost_2_prim_conv", 0, 0, {}]]]}, {"class_name": "ZeroPadding2D", "config": {"name": "stack1_ghost_2_cheap_dw_pad", "trainable": true, "dtype": "float32", "padding": [[1, 1], [1, 1]], "data_format": "channels_last"}, "name": "stack1_ghost_2_cheap_dw_pad", "inbound_nodes": [[["stack1_ghost_2_prim_bn", 0, 0, {}]]]}, {"class_name": "DepthwiseConv2D", "config": {"name": "stack1_ghost_2_cheap_dw_conv", "trainable": true, "dtype": "float32", "kernel_size": [3, 3], "strides": [1, 1], "padding": "valid", "data_format": "channels_last", "dilation_rate": [1, 1], "groups": 1, "activation": "linear", "use_bias": false, "bias_initializer": {"class_name": "Zeros", "config": {}}, "bias_regularizer": null, "activity_regularizer": null, "bias_constraint": null, "depth_multiplier": 1, "depthwise_initializer": {"class_name": "GlorotUniform", "config": {"seed": null}}, "depthwise_regularizer": null, "depthwise_constraint": null}, "name": "stack1_ghost_2_cheap_dw_conv", "inbound_nodes": [[["stack1_ghost_2_cheap_dw_pad", 0, 0, {}]]]}, {"class_name": "BatchNormalization", "config": {"name": "stack1_ghost_2_cheap_bn", "trainable": true, "dtype": "float32", "axis": [3], "momentum": 0.9, "epsilon": 1e-05, "center": true, "scale": true, "beta_initializer": {"class_name": "Zeros", "config": {}}, "gamma_initializer": {"class_name": "Ones", "config": {}}, "moving_mean_initializer": {"class_name": "Zeros", "config": {}}, "moving_variance_initializer": {"class_name": "Ones", "config": {}}, "beta_regularizer": null, "gamma_regularizer": null, "beta_constraint": null, "gamma_constraint": null}, "name": "stack1_ghost_2_cheap_bn", "inbound_nodes": [[["stack1_ghost_2_cheap_dw_conv", 0, 0, {}]]]}, {"class_name": "Concatenate", "config": {"name": "concatenate_1", "trainable": true, "dtype": "float32", "axis": -1}, "name": "concatenate_1", "inbound_nodes": [[["stack1_ghost_2_prim_bn", 0, 0, {}], ["stack1_ghost_2_cheap_bn", 0, 0, {}]]]}, {"class_name": "Add", "config": {"name": "stack1_output", "trainable": true, "dtype": "float32"}, "name": "stack1_output", "inbound_nodes": [[["stem_relu", 0, 0, {}], ["concatenate_1", 0, 0, {}]]]}, {"class_name": "Conv2D", "config": {"name": "stack2_ghost_1_prim_conv", "trainable": true, "dtype": "float32", "filters": 12, "kernel_size": [1, 1], "strides": [1, 1], "padding": "valid", "data_format": "channels_last", "dilation_rate": [1, 1], "groups": 1, "activation": "linear", "use_bias": false, "kernel_initializer": {"class_name": "VarianceScaling", "config": {"scale": 2.0, "mode": "fan_out", "distribution": "truncated_normal", "seed": null}, "shared_object_id": 2}, "bias_initializer": {"class_name": "Zeros", "config": {}}, "kernel_regularizer": null, "bias_regularizer": null, "activity_regularizer": null, "kernel_constraint": null, "bias_constraint": null}, "name": "stack2_ghost_1_prim_conv", "inbound_nodes": [[["stack1_output", 0, 0, {}]]]}, {"class_name": "BatchNormalization", "config": {"name": "stack2_ghost_1_prim_bn", "trainable": true, "dtype": "float32", "axis": [3], "momentum": 0.9, "epsilon": 1e-05, "center": true, "scale": true, "beta_initializer": {"class_name": "Zeros", "config": {}}, "gamma_initializer": {"class_name": "Ones", "config": {}}, "moving_mean_initializer": {"class_name": "Zeros", "config": {}}, "moving_variance_initializer": {"class_name": "Ones", "config": {}}, "beta_regularizer": null, "gamma_regularizer": null, "beta_constraint": null, "gamma_constraint": null}, "name": "stack2_ghost_1_prim_bn", "inbound_nodes": [[["stack2_ghost_1_prim_conv", 0, 0, {}]]]}, {"class_name": "Activation", "config": {"name": "stack2_ghost_1_prim_relu", "trainable": true, "dtype": "float32", "activation": "relu"}, "name": "stack2_ghost_1_prim_relu", "inbound_nodes": [[["stack2_ghost_1_prim_bn", 0, 0, {}]]]}, {"class_name": "ZeroPadding2D", "config": {"name": "stack2_ghost_1_cheap_dw_pad", "trainable": true, "dtype": "float32", "padding": [[1, 1], [1, 1]], "data_format": "channels_last"}, "name": "stack2_ghost_1_cheap_dw_pad", "inbound_nodes": [[["stack2_ghost_1_prim_relu", 0, 0, {}]]]}, {"class_name": "DepthwiseConv2D", "config": {"name": "stack2_ghost_1_cheap_dw_conv", "trainable": true, "dtype": "float32", "kernel_size": [3, 3], "strides": [1, 1], "padding": "valid", "data_format": "channels_last", "dilation_rate": [1, 1], "groups": 1, "activation": "linear", "use_bias": false, "bias_initializer": {"class_name": "Zeros", "config": {}}, "bias_regularizer": null, "activity_regularizer": null, "bias_constraint": null, "depth_multiplier": 1, "depthwise_initializer": {"class_name": "GlorotUniform", "config": {"seed": null}}, "depthwise_regularizer": null, "depthwise_constraint": null}, "name": "stack2_ghost_1_cheap_dw_conv", "inbound_nodes": [[["stack2_ghost_1_cheap_dw_pad", 0, 0, {}]]]}, {"class_name": "BatchNormalization", "config": {"name": "stack2_ghost_1_cheap_bn", "trainable": true, "dtype": "float32", "axis": [3], "momentum": 0.9, "epsilon": 1e-05, "center": true, "scale": true, "beta_initializer": {"class_name": "Zeros", "config": {}}, "gamma_initializer": {"class_name": "Ones", "config": {}}, "moving_mean_initializer": {"class_name": "Zeros", "config": {}}, "moving_variance_initializer": {"class_name": "Ones", "config": {}}, "beta_regularizer": null, "gamma_regularizer": null, "beta_constraint": null, "gamma_constraint": null}, "name": "stack2_ghost_1_cheap_bn", "inbound_nodes": [[["stack2_ghost_1_cheap_dw_conv", 0, 0, {}]]]}, {"class_name": "Activation", "config": {"name": "stack2_ghost_1_cheap_relu", "trainable": true, "dtype": "float32", "activation": "relu"}, "name": "stack2_ghost_1_cheap_relu", "inbound_nodes": [[["stack2_ghost_1_cheap_bn", 0, 0, {}]]]}, {"class_name": "Concatenate", "config": {"name": "concatenate_2", "trainable": true, "dtype": "float32", "axis": -1}, "name": "concatenate_2", "inbound_nodes": [[["stack2_ghost_1_prim_relu", 0, 0, {}], ["stack2_ghost_1_cheap_relu", 0, 0, {}]]]}, {"class_name": "ZeroPadding2D", "config": {"name": "stack2_down_dw_pad", "trainable": true, "dtype": "float32", "padding": [[1, 1], [1, 1]], "data_format": "channels_last"}, "name": "stack2_down_dw_pad", "inbound_nodes": [[["concatenate_2", 0, 0, {}]]]}, {"class_name": "DepthwiseConv2D", "config": {"name": "stack2_down_dw_conv", "trainable": true, "dtype": "float32", "kernel_size": [3, 3], "strides": [2, 2], "padding": "valid", "data_format": "channels_last", "dilation_rate": [1, 1], "groups": 1, "activation": "linear", "use_bias": false, "bias_initializer": {"class_name": "Zeros", "config": {}}, "bias_regularizer": null, "activity_regularizer": null, "bias_constraint": null, "depth_multiplier": 1, "depthwise_initializer": {"class_name": "GlorotUniform", "config": {"seed": null}}, "depthwise_regularizer": null, "depthwise_constraint": null}, "name": "stack2_down_dw_conv", "inbound_nodes": [[["stack2_down_dw_pad", 0, 0, {}]]]}, {"class_name": "BatchNormalization", "config": {"name": "stack2_down_bn", "trainable": true, "dtype": "float32", "axis": [3], "momentum": 0.9, "epsilon": 1e-05, "center": true, "scale": true, "beta_initializer": {"class_name": "Zeros", "config": {}}, "gamma_initializer": {"class_name": "Ones", "config": {}}, "moving_mean_initializer": {"class_name": "Zeros", "config": {}}, "moving_variance_initializer": {"class_name": "Ones", "config": {}}, "beta_regularizer": null, "gamma_regularizer": null, "beta_constraint": null, "gamma_constraint": null}, "name": "stack2_down_bn", "inbound_nodes": [[["stack2_down_dw_conv", 0, 0, {}]]]}, {"class_name": "Conv2D", "config": {"name": "stack2_ghost_2_prim_conv", "trainable": true, "dtype": "float32", "filters": 6, "kernel_size": [1, 1], "strides": [1, 1], "padding": "valid", "data_format": "channels_last", "dilation_rate": [1, 1], "groups": 1, "activation": "linear", "use_bias": false, "kernel_initializer": {"class_name": "VarianceScaling", "config": {"scale": 2.0, "mode": "fan_out", "distribution": "truncated_normal", "seed": null}, "shared_object_id": 2}, "bias_initializer": {"class_name": "Zeros", "config": {}}, "kernel_regularizer": null, "bias_regularizer": null, "activity_regularizer": null, "kernel_constraint": null, "bias_constraint": null}, "name": "stack2_ghost_2_prim_conv", "inbound_nodes": [[["stack2_down_bn", 0, 0, {}]]]}, {"class_name": "ZeroPadding2D", "config": {"name": "stack2_short_1_dw_pad", "trainable": true, "dtype": "float32", "padding": [[1, 1], [1, 1]], "data_format": "channels_last"}, "name": "stack2_short_1_dw_pad", "inbound_nodes": [[["stack1_output", 0, 0, {}]]]}, {"class_name": "BatchNormalization", "config": {"name": "stack2_ghost_2_prim_bn", "trainable": true, "dtype": "float32", "axis": [3], "momentum": 0.9, "epsilon": 1e-05, "center": true, "scale": true, "beta_initializer": {"class_name": "Zeros", "config": {}}, "gamma_initializer": {"class_name": "Ones", "config": {}}, "moving_mean_initializer": {"class_name": "Zeros", "config": {}}, "moving_variance_initializer": {"class_name": "Ones", "config": {}}, "beta_regularizer": null, "gamma_regularizer": null, "beta_constraint": null, "gamma_constraint": null}, "name": "stack2_ghost_2_prim_bn", "inbound_nodes": [[["stack2_ghost_2_prim_conv", 0, 0, {}]]]}, {"class_name": "DepthwiseConv2D", "config": {"name": "stack2_short_1_dw_conv", "trainable": true, "dtype": "float32", "kernel_size": [3, 3], "strides": [2, 2], "padding": "valid", "data_format": "channels_last", "dilation_rate": [1, 1], "groups": 1, "activation": "linear", "use_bias": false, "bias_initializer": {"class_name": "Zeros", "config": {}}, "bias_regularizer": null, "activity_regularizer": null, "bias_constraint": null, "depth_multiplier": 1, "depthwise_initializer": {"class_name": "GlorotUniform", "config": {"seed": null}}, "depthwise_regularizer": null, "depthwise_constraint": null}, "name": "stack2_short_1_dw_conv", "inbound_nodes": [[["stack2_short_1_dw_pad", 0, 0, {}]]]}, {"class_name": "ZeroPadding2D", "config": {"name": "stack2_ghost_2_cheap_dw_pad", "trainable": true, "dtype": "float32", "padding": [[1, 1], [1, 1]], "data_format": "channels_last"}, "name": "stack2_ghost_2_cheap_dw_pad", "inbound_nodes": [[["stack2_ghost_2_prim_bn", 0, 0, {}]]]}, {"class_name": "BatchNormalization", "config": {"name": "stack2_short_1_bn", "trainable": true, "dtype": "float32", "axis": [3], "momentum": 0.9, "epsilon": 1e-05, "center": true, "scale": true, "beta_initializer": {"class_name": "Zeros", "config": {}}, "gamma_initializer": {"class_name": "Ones", "config": {}}, "moving_mean_initializer": {"class_name": "Zeros", "config": {}}, "moving_variance_initializer": {"class_name": "Ones", "config": {}}, "beta_regularizer": null, "gamma_regularizer": null, "beta_constraint": null, "gamma_constraint": null}, "name": "stack2_short_1_bn", "inbound_nodes": [[["stack2_short_1_dw_conv", 0, 0, {}]]]}, {"class_name": "DepthwiseConv2D", "config": {"name": "stack2_ghost_2_cheap_dw_conv", "trainable": true, "dtype": "float32", "kernel_size": [3, 3], "strides": [1, 1], "padding": "valid", "data_format": "channels_last", "dilation_rate": [1, 1], "groups": 1, "activation": "linear", "use_bias": false, "bias_initializer": {"class_name": "Zeros", "config": {}}, "bias_regularizer": null, "activity_regularizer": null, "bias_constraint": null, "depth_multiplier": 1, "depthwise_initializer": {"class_name": "GlorotUniform", "config": {"seed": null}}, "depthwise_regularizer": null, "depthwise_constraint": null}, "name": "stack2_ghost_2_cheap_dw_conv", "inbound_nodes": [[["stack2_ghost_2_cheap_dw_pad", 0, 0, {}]]]}, {"class_name": "Conv2D", "config": {"name": "stack2_short_2_conv", "trainable": true, "dtype": "float32", "filters": 12, "kernel_size": [1, 1], "strides": [1, 1], "padding": "valid", "data_format": "channels_last", "dilation_rate": [1, 1], "groups": 1, "activation": "linear", "use_bias": false, "kernel_initializer": {"class_name": "VarianceScaling", "config": {"scale": 2.0, "mode": "fan_out", "distribution": "truncated_normal", "seed": null}, "shared_object_id": 2}, "bias_initializer": {"class_name": "Zeros", "config": {}}, "kernel_regularizer": null, "bias_regularizer": null, "activity_regularizer": null, "kernel_constraint": null, "bias_constraint": null}, "name": "stack2_short_2_conv", "inbound_nodes": [[["stack2_short_1_bn", 0, 0, {}]]]}, {"class_name": "BatchNormalization", "config": {"name": "stack2_ghost_2_cheap_bn", "trainable": true, "dtype": "float32", "axis": [3], "momentum": 0.9, "epsilon": 1e-05, "center": true, "scale": true, "beta_initializer": {"class_name": "Zeros", "config": {}}, "gamma_initializer": {"class_name": "Ones", "config": {}}, "moving_mean_initializer": {"class_name": "Zeros", "config": {}}, "moving_variance_initializer": {"class_name": "Ones", "config": {}}, "beta_regularizer": null, "gamma_regularizer": null, "beta_constraint": null, "gamma_constraint": null}, "name": "stack2_ghost_2_cheap_bn", "inbound_nodes": [[["stack2_ghost_2_cheap_dw_conv", 0, 0, {}]]]}, {"class_name": "BatchNormalization", "config": {"name": "stack2_short_2_bn", "trainable": true, "dtype": "float32", "axis": [3], "momentum": 0.9, "epsilon": 1e-05, "center": true, "scale": true, "beta_initializer": {"class_name": "Zeros", "config": {}}, "gamma_initializer": {"class_name": "Ones", "config": {}}, "moving_mean_initializer": {"class_name": "Zeros", "config": {}}, "moving_variance_initializer": {"class_name": "Ones", "config": {}}, "beta_regularizer": null, "gamma_regularizer": null, "beta_constraint": null, "gamma_constraint": null}, "name": "stack2_short_2_bn", "inbound_nodes": [[["stack2_short_2_conv", 0, 0, {}]]]}, {"class_name": "Concatenate", "config": {"name": "concatenate_3", "trainable": true, "dtype": "float32", "axis": -1}, "name": "concatenate_3", "inbound_nodes": [[["stack2_ghost_2_prim_bn", 0, 0, {}], ["stack2_ghost_2_cheap_bn", 0, 0, {}]]]}, {"class_name": "Add", "config": {"name": "stack2_output", "trainable": true, "dtype": "float32"}, "name": "stack2_output", "inbound_nodes": [[["stack2_short_2_bn", 0, 0, {}], ["concatenate_3", 0, 0, {}]]]}, {"class_name": "Conv2D", "config": {"name": "stack3_ghost_1_prim_conv", "trainable": true, "dtype": "float32", "filters": 18, "kernel_size": [1, 1], "strides": [1, 1], "padding": "valid", "data_format": "channels_last", "dilation_rate": [1, 1], "groups": 1, "activation": "linear", "use_bias": false, "kernel_initializer": {"class_name": "VarianceScaling", "config": {"scale": 2.0, "mode": "fan_out", "distribution": "truncated_normal", "seed": null}, "shared_object_id": 2}, "bias_initializer": {"class_name": "Zeros", "config": {}}, "kernel_regularizer": null, "bias_regularizer": null, "activity_regularizer": null, "kernel_constraint": null, "bias_constraint": null}, "name": "stack3_ghost_1_prim_conv", "inbound_nodes": [[["stack2_output", 0, 0, {}]]]}, {"class_name": "BatchNormalization", "config": {"name": "stack3_ghost_1_prim_bn", "trainable": true, "dtype": "float32", "axis": [3], "momentum": 0.9, "epsilon": 1e-05, "center": true, "scale": true, "beta_initializer": {"class_name": "Zeros", "config": {}}, "gamma_initializer": {"class_name": "Ones", "config": {}}, "moving_mean_initializer": {"class_name": "Zeros", "config": {}}, "moving_variance_initializer": {"class_name": "Ones", "config": {}}, "beta_regularizer": null, "gamma_regularizer": null, "beta_constraint": null, "gamma_constraint": null}, "name": "stack3_ghost_1_prim_bn", "inbound_nodes": [[["stack3_ghost_1_prim_conv", 0, 0, {}]]]}, {"class_name": "Activation", "config": {"name": "stack3_ghost_1_prim_relu", "trainable": true, "dtype": "float32", "activation": "relu"}, "name": "stack3_ghost_1_prim_relu", "inbound_nodes": [[["stack3_ghost_1_prim_bn", 0, 0, {}]]]}, {"class_name": "ZeroPadding2D", "config": {"name": "stack3_ghost_1_cheap_dw_pad", "trainable": true, "dtype": "float32", "padding": [[1, 1], [1, 1]], "data_format": "channels_last"}, "name": "stack3_ghost_1_cheap_dw_pad", "inbound_nodes": [[["stack3_ghost_1_prim_relu", 0, 0, {}]]]}, {"class_name": "DepthwiseConv2D", "config": {"name": "stack3_ghost_1_cheap_dw_conv", "trainable": true, "dtype": "float32", "kernel_size": [3, 3], "strides": [1, 1], "padding": "valid", "data_format": "channels_last", "dilation_rate": [1, 1], "groups": 1, "activation": "linear", "use_bias": false, "bias_initializer": {"class_name": "Zeros", "config": {}}, "bias_regularizer": null, "activity_regularizer": null, "bias_constraint": null, "depth_multiplier": 1, "depthwise_initializer": {"class_name": "GlorotUniform", "config": {"seed": null}}, "depthwise_regularizer": null, "depthwise_constraint": null}, "name": "stack3_ghost_1_cheap_dw_conv", "inbound_nodes": [[["stack3_ghost_1_cheap_dw_pad", 0, 0, {}]]]}, {"class_name": "BatchNormalization", "config": {"name": "stack3_ghost_1_cheap_bn", "trainable": true, "dtype": "float32", "axis": [3], "momentum": 0.9, "epsilon": 1e-05, "center": true, "scale": true, "beta_initializer": {"class_name": "Zeros", "config": {}}, "gamma_initializer": {"class_name": "Ones", "config": {}}, "moving_mean_initializer": {"class_name": "Zeros", "config": {}}, "moving_variance_initializer": {"class_name": "Ones", "config": {}}, "beta_regularizer": null, "gamma_regularizer": null, "beta_constraint": null, "gamma_constraint": null}, "name": "stack3_ghost_1_cheap_bn", "inbound_nodes": [[["stack3_ghost_1_cheap_dw_conv", 0, 0, {}]]]}, {"class_name": "Activation", "config": {"name": "stack3_ghost_1_cheap_relu", "trainable": true, "dtype": "float32", "activation": "relu"}, "name": "stack3_ghost_1_cheap_relu", "inbound_nodes": [[["stack3_ghost_1_cheap_bn", 0, 0, {}]]]}, {"class_name": "Concatenate", "config": {"name": "concatenate_4", "trainable": true, "dtype": "float32", "axis": -1}, "name": "concatenate_4", "inbound_nodes": [[["stack3_ghost_1_prim_relu", 0, 0, {}], ["stack3_ghost_1_cheap_relu", 0, 0, {}]]]}, {"class_name": "Conv2D", "config": {"name": "stack3_ghost_2_prim_conv", "trainable": true, "dtype": "float32", "filters": 6, "kernel_size": [1, 1], "strides": [1, 1], "padding": "valid", "data_format": "channels_last", "dilation_rate": [1, 1], "groups": 1, "activation": "linear", "use_bias": false, "kernel_initializer": {"class_name": "VarianceScaling", "config": {"scale": 2.0, "mode": "fan_out", "distribution": "truncated_normal", "seed": null}, "shared_object_id": 2}, "bias_initializer": {"class_name": "Zeros", "config": {}}, "kernel_regularizer": null, "bias_regularizer": null, "activity_regularizer": null, "kernel_constraint": null, "bias_constraint": null}, "name": "stack3_ghost_2_prim_conv", "inbound_nodes": [[["concatenate_4", 0, 0, {}]]]}, {"class_name": "BatchNormalization", "config": {"name": "stack3_ghost_2_prim_bn", "trainable": true, "dtype": "float32", "axis": [3], "momentum": 0.9, "epsilon": 1e-05, "center": true, "scale": true, "beta_initializer": {"class_name": "Zeros", "config": {}}, "gamma_initializer": {"class_name": "Ones", "config": {}}, "moving_mean_initializer": {"class_name": "Zeros", "config": {}}, "moving_variance_initializer": {"class_name": "Ones", "config": {}}, "beta_regularizer": null, "gamma_regularizer": null, "beta_constraint": null, "gamma_constraint": null}, "name": "stack3_ghost_2_prim_bn", "inbound_nodes": [[["stack3_ghost_2_prim_conv", 0, 0, {}]]]}, {"class_name": "ZeroPadding2D", "config": {"name": "stack3_ghost_2_cheap_dw_pad", "trainable": true, "dtype": "float32", "padding": [[1, 1], [1, 1]], "data_format": "channels_last"}, "name": "stack3_ghost_2_cheap_dw_pad", "inbound_nodes": [[["stack3_ghost_2_prim_bn", 0, 0, {}]]]}, {"class_name": "DepthwiseConv2D", "config": {"name": "stack3_ghost_2_cheap_dw_conv", "trainable": true, "dtype": "float32", "kernel_size": [3, 3], "strides": [1, 1], "padding": "valid", "data_format": "channels_last", "dilation_rate": [1, 1], "groups": 1, "activation": "linear", "use_bias": false, "bias_initializer": {"class_name": "Zeros", "config": {}}, "bias_regularizer": null, "activity_regularizer": null, "bias_constraint": null, "depth_multiplier": 1, "depthwise_initializer": {"class_name": "GlorotUniform", "config": {"seed": null}}, "depthwise_regularizer": null, "depthwise_constraint": null}, "name": "stack3_ghost_2_cheap_dw_conv", "inbound_nodes": [[["stack3_ghost_2_cheap_dw_pad", 0, 0, {}]]]}, {"class_name": "BatchNormalization", "config": {"name": "stack3_ghost_2_cheap_bn", "trainable": true, "dtype": "float32", "axis": [3], "momentum": 0.9, "epsilon": 1e-05, "center": true, "scale": true, "beta_initializer": {"class_name": "Zeros", "config": {}}, "gamma_initializer": {"class_name": "Ones", "config": {}}, "moving_mean_initializer": {"class_name": "Zeros", "config": {}}, "moving_variance_initializer": {"class_name": "Ones", "config": {}}, "beta_regularizer": null, "gamma_regularizer": null, "beta_constraint": null, "gamma_constraint": null}, "name": "stack3_ghost_2_cheap_bn", "inbound_nodes": [[["stack3_ghost_2_cheap_dw_conv", 0, 0, {}]]]}, {"class_name": "Concatenate", "config": {"name": "concatenate_5", "trainable": true, "dtype": "float32", "axis": -1}, "name": "concatenate_5", "inbound_nodes": [[["stack3_ghost_2_prim_bn", 0, 0, {}], ["stack3_ghost_2_cheap_bn", 0, 0, {}]]]}, {"class_name": "Add", "config": {"name": "stack3_output", "trainable": true, "dtype": "float32"}, "name": "stack3_output", "inbound_nodes": [[["stack2_output", 0, 0, {}], ["concatenate_5", 0, 0, {}]]]}, {"class_name": "Conv2D", "config": {"name": "stack4_ghost_1_prim_conv", "trainable": true, "dtype": "float32", "filters": 18, "kernel_size": [1, 1], "strides": [1, 1], "padding": "valid", "data_format": "channels_last", "dilation_rate": [1, 1], "groups": 1, "activation": "linear", "use_bias": false, "kernel_initializer": {"class_name": "VarianceScaling", "config": {"scale": 2.0, "mode": "fan_out", "distribution": "truncated_normal", "seed": null}, "shared_object_id": 2}, "bias_initializer": {"class_name": "Zeros", "config": {}}, "kernel_regularizer": null, "bias_regularizer": null, "activity_regularizer": null, "kernel_constraint": null, "bias_constraint": null}, "name": "stack4_ghost_1_prim_conv", "inbound_nodes": [[["stack3_output", 0, 0, {}]]]}, {"class_name": "BatchNormalization", "config": {"name": "stack4_ghost_1_prim_bn", "trainable": true, "dtype": "float32", "axis": [3], "momentum": 0.9, "epsilon": 1e-05, "center": true, "scale": true, "beta_initializer": {"class_name": "Zeros", "config": {}}, "gamma_initializer": {"class_name": "Ones", "config": {}}, "moving_mean_initializer": {"class_name": "Zeros", "config": {}}, "moving_variance_initializer": {"class_name": "Ones", "config": {}}, "beta_regularizer": null, "gamma_regularizer": null, "beta_constraint": null, "gamma_constraint": null}, "name": "stack4_ghost_1_prim_bn", "inbound_nodes": [[["stack4_ghost_1_prim_conv", 0, 0, {}]]]}, {"class_name": "Activation", "config": {"name": "stack4_ghost_1_prim_relu", "trainable": true, "dtype": "float32", "activation": "relu"}, "name": "stack4_ghost_1_prim_relu", "inbound_nodes": [[["stack4_ghost_1_prim_bn", 0, 0, {}]]]}, {"class_name": "ZeroPadding2D", "config": {"name": "stack4_ghost_1_cheap_dw_pad", "trainable": true, "dtype": "float32", "padding": [[1, 1], [1, 1]], "data_format": "channels_last"}, "name": "stack4_ghost_1_cheap_dw_pad", "inbound_nodes": [[["stack4_ghost_1_prim_relu", 0, 0, {}]]]}, {"class_name": "DepthwiseConv2D", "config": {"name": "stack4_ghost_1_cheap_dw_conv", "trainable": true, "dtype": "float32", "kernel_size": [3, 3], "strides": [1, 1], "padding": "valid", "data_format": "channels_last", "dilation_rate": [1, 1], "groups": 1, "activation": "linear", "use_bias": false, "bias_initializer": {"class_name": "Zeros", "config": {}}, "bias_regularizer": null, "activity_regularizer": null, "bias_constraint": null, "depth_multiplier": 1, "depthwise_initializer": {"class_name": "GlorotUniform", "config": {"seed": null}}, "depthwise_regularizer": null, "depthwise_constraint": null}, "name": "stack4_ghost_1_cheap_dw_conv", "inbound_nodes": [[["stack4_ghost_1_cheap_dw_pad", 0, 0, {}]]]}, {"class_name": "BatchNormalization", "config": {"name": "stack4_ghost_1_cheap_bn", "trainable": true, "dtype": "float32", "axis": [3], "momentum": 0.9, "epsilon": 1e-05, "center": true, "scale": true, "beta_initializer": {"class_name": "Zeros", "config": {}}, "gamma_initializer": {"class_name": "Ones", "config": {}}, "moving_mean_initializer": {"class_name": "Zeros", "config": {}}, "moving_variance_initializer": {"class_name": "Ones", "config": {}}, "beta_regularizer": null, "gamma_regularizer": null, "beta_constraint": null, "gamma_constraint": null}, "name": "stack4_ghost_1_cheap_bn", "inbound_nodes": [[["stack4_ghost_1_cheap_dw_conv", 0, 0, {}]]]}, {"class_name": "Activation", "config": {"name": "stack4_ghost_1_cheap_relu", "trainable": true, "dtype": "float32", "activation": "relu"}, "name": "stack4_ghost_1_cheap_relu", "inbound_nodes": [[["stack4_ghost_1_cheap_bn", 0, 0, {}]]]}, {"class_name": "Concatenate", "config": {"name": "concatenate_6", "trainable": true, "dtype": "float32", "axis": -1}, "name": "concatenate_6", "inbound_nodes": [[["stack4_ghost_1_prim_relu", 0, 0, {}], ["stack4_ghost_1_cheap_relu", 0, 0, {}]]]}, {"class_name": "ZeroPadding2D", "config": {"name": "stack4_down_dw_pad", "trainable": true, "dtype": "float32", "padding": [[2, 2], [2, 2]], "data_format": "channels_last"}, "name": "stack4_down_dw_pad", "inbound_nodes": [[["concatenate_6", 0, 0, {}]]]}, {"class_name": "DepthwiseConv2D", "config": {"name": "stack4_down_dw_conv", "trainable": true, "dtype": "float32", "kernel_size": [5, 5], "strides": [2, 2], "padding": "valid", "data_format": "channels_last", "dilation_rate": [1, 1], "groups": 1, "activation": "linear", "use_bias": false, "bias_initializer": {"class_name": "Zeros", "config": {}}, "bias_regularizer": null, "activity_regularizer": null, "bias_constraint": null, "depth_multiplier": 1, "depthwise_initializer": {"class_name": "GlorotUniform", "config": {"seed": null}}, "depthwise_regularizer": null, "depthwise_constraint": null}, "name": "stack4_down_dw_conv", "inbound_nodes": [[["stack4_down_dw_pad", 0, 0, {}]]]}, {"class_name": "BatchNormalization", "config": {"name": "stack4_down_bn", "trainable": true, "dtype": "float32", "axis": [3], "momentum": 0.9, "epsilon": 1e-05, "center": true, "scale": true, "beta_initializer": {"class_name": "Zeros", "config": {}}, "gamma_initializer": {"class_name": "Ones", "config": {}}, "moving_mean_initializer": {"class_name": "Zeros", "config": {}}, "moving_variance_initializer": {"class_name": "Ones", "config": {}}, "beta_regularizer": null, "gamma_regularizer": null, "beta_constraint": null, "gamma_constraint": null}, "name": "stack4_down_bn", "inbound_nodes": [[["stack4_down_dw_conv", 0, 0, {}]]]}, {"class_name": "TFOpLambda", "config": {"name": "tf.math.reduce_mean", "trainable": true, "dtype": "float32", "function": "math.reduce_mean"}, "name": "tf.math.reduce_mean", "inbound_nodes": [["stack4_down_bn", 0, 0, {"axis": [1, 2], "keepdims": true}]]}, {"class_name": "Conv2D", "config": {"name": "stack4_se_1_conv", "trainable": true, "dtype": "float32", "filters": 12, "kernel_size": [1, 1], "strides": [1, 1], "padding": "valid", "data_format": "channels_last", "dilation_rate": [1, 1], "groups": 1, "activation": "linear", "use_bias": true, "kernel_initializer": {"class_name": "VarianceScaling", "config": {"scale": 2.0, "mode": "fan_out", "distribution": "truncated_normal", "seed": null}, "shared_object_id": 2}, "bias_initializer": {"class_name": "Zeros", "config": {}}, "kernel_regularizer": null, "bias_regularizer": null, "activity_regularizer": null, "kernel_constraint": null, "bias_constraint": null}, "name": "stack4_se_1_conv", "inbound_nodes": [[["tf.math.reduce_mean", 0, 0, {}]]]}, {"class_name": "Activation", "config": {"name": "stack4_se_relu", "trainable": true, "dtype": "float32", "activation": "relu"}, "name": "stack4_se_relu", "inbound_nodes": [[["stack4_se_1_conv", 0, 0, {}]]]}, {"class_name": "Conv2D", "config": {"name": "stack4_se_2_conv", "trainable": true, "dtype": "float32", "filters": 36, "kernel_size": [1, 1], "strides": [1, 1], "padding": "valid", "data_format": "channels_last", "dilation_rate": [1, 1], "groups": 1, "activation": "linear", "use_bias": true, "kernel_initializer": {"class_name": "VarianceScaling", "config": {"scale": 2.0, "mode": "fan_out", "distribution": "truncated_normal", "seed": null}, "shared_object_id": 2}, "bias_initializer": {"class_name": "Zeros", "config": {}}, "kernel_regularizer": null, "bias_regularizer": null, "activity_regularizer": null, "kernel_constraint": null, "bias_constraint": null}, "name": "stack4_se_2_conv", "inbound_nodes": [[["stack4_se_relu", 0, 0, {}]]]}, {"class_name": "Activation", "config": {"name": "stack4_se_hard_sigmoid_torch", "trainable": true, "dtype": "float32", "activation": "kecamCommon>hard_sigmoid_torch"}, "name": "stack4_se_hard_sigmoid_torch", "inbound_nodes": [[["stack4_se_2_conv", 0, 0, {}]]]}, {"class_name": "Multiply", "config": {"name": "stack4_se_out", "trainable": true, "dtype": "float32"}, "name": "stack4_se_out", "inbound_nodes": [[["stack4_down_bn", 0, 0, {}], ["stack4_se_hard_sigmoid_torch", 0, 0, {}]]]}, {"class_name": "Conv2D", "config": {"name": "stack4_ghost_2_prim_conv", "trainable": true, "dtype": "float32", "filters": 10, "kernel_size": [1, 1], "strides": [1, 1], "padding": "valid", "data_format": "channels_last", "dilation_rate": [1, 1], "groups": 1, "activation": "linear", "use_bias": false, "kernel_initializer": {"class_name": "VarianceScaling", "config": {"scale": 2.0, "mode": "fan_out", "distribution": "truncated_normal", "seed": null}, "shared_object_id": 2}, "bias_initializer": {"class_name": "Zeros", "config": {}}, "kernel_regularizer": null, "bias_regularizer": null, "activity_regularizer": null, "kernel_constraint": null, "bias_constraint": null}, "name": "stack4_ghost_2_prim_conv", "inbound_nodes": [[["stack4_se_out", 0, 0, {}]]]}, {"class_name": "ZeroPadding2D", "config": {"name": "stack4_short_1_dw_pad", "trainable": true, "dtype": "float32", "padding": [[2, 2], [2, 2]], "data_format": "channels_last"}, "name": "stack4_short_1_dw_pad", "inbound_nodes": [[["stack3_output", 0, 0, {}]]]}, {"class_name": "BatchNormalization", "config": {"name": "stack4_ghost_2_prim_bn", "trainable": true, "dtype": "float32", "axis": [3], "momentum": 0.9, "epsilon": 1e-05, "center": true, "scale": true, "beta_initializer": {"class_name": "Zeros", "config": {}}, "gamma_initializer": {"class_name": "Ones", "config": {}}, "moving_mean_initializer": {"class_name": "Zeros", "config": {}}, "moving_variance_initializer": {"class_name": "Ones", "config": {}}, "beta_regularizer": null, "gamma_regularizer": null, "beta_constraint": null, "gamma_constraint": null}, "name": "stack4_ghost_2_prim_bn", "inbound_nodes": [[["stack4_ghost_2_prim_conv", 0, 0, {}]]]}, {"class_name": "DepthwiseConv2D", "config": {"name": "stack4_short_1_dw_conv", "trainable": true, "dtype": "float32", "kernel_size": [5, 5], "strides": [2, 2], "padding": "valid", "data_format": "channels_last", "dilation_rate": [1, 1], "groups": 1, "activation": "linear", "use_bias": false, "bias_initializer": {"class_name": "Zeros", "config": {}}, "bias_regularizer": null, "activity_regularizer": null, "bias_constraint": null, "depth_multiplier": 1, "depthwise_initializer": {"class_name": "GlorotUniform", "config": {"seed": null}}, "depthwise_regularizer": null, "depthwise_constraint": null}, "name": "stack4_short_1_dw_conv", "inbound_nodes": [[["stack4_short_1_dw_pad", 0, 0, {}]]]}, {"class_name": "ZeroPadding2D", "config": {"name": "stack4_ghost_2_cheap_dw_pad", "trainable": true, "dtype": "float32", "padding": [[1, 1], [1, 1]], "data_format": "channels_last"}, "name": "stack4_ghost_2_cheap_dw_pad", "inbound_nodes": [[["stack4_ghost_2_prim_bn", 0, 0, {}]]]}, {"class_name": "BatchNormalization", "config": {"name": "stack4_short_1_bn", "trainable": true, "dtype": "float32", "axis": [3], "momentum": 0.9, "epsilon": 1e-05, "center": true, "scale": true, "beta_initializer": {"class_name": "Zeros", "config": {}}, "gamma_initializer": {"class_name": "Ones", "config": {}}, "moving_mean_initializer": {"class_name": "Zeros", "config": {}}, "moving_variance_initializer": {"class_name": "Ones", "config": {}}, "beta_regularizer": null, "gamma_regularizer": null, "beta_constraint": null, "gamma_constraint": null}, "name": "stack4_short_1_bn", "inbound_nodes": [[["stack4_short_1_dw_conv", 0, 0, {}]]]}, {"class_name": "DepthwiseConv2D", "config": {"name": "stack4_ghost_2_cheap_dw_conv", "trainable": true, "dtype": "float32", "kernel_size": [3, 3], "strides": [1, 1], "padding": "valid", "data_format": "channels_last", "dilation_rate": [1, 1], "groups": 1, "activation": "linear", "use_bias": false, "bias_initializer": {"class_name": "Zeros", "config": {}}, "bias_regularizer": null, "activity_regularizer": null, "bias_constraint": null, "depth_multiplier": 1, "depthwise_initializer": {"class_name": "GlorotUniform", "config": {"seed": null}}, "depthwise_regularizer": null, "depthwise_constraint": null}, "name": "stack4_ghost_2_cheap_dw_conv", "inbound_nodes": [[["stack4_ghost_2_cheap_dw_pad", 0, 0, {}]]]}, {"class_name": "Conv2D", "config": {"name": "stack4_short_2_conv", "trainable": true, "dtype": "float32", "filters": 20, "kernel_size": [1, 1], "strides": [1, 1], "padding": "valid", "data_format": "channels_last", "dilation_rate": [1, 1], "groups": 1, "activation": "linear", "use_bias": false, "kernel_initializer": {"class_name": "VarianceScaling", "config": {"scale": 2.0, "mode": "fan_out", "distribution": "truncated_normal", "seed": null}, "shared_object_id": 2}, "bias_initializer": {"class_name": "Zeros", "config": {}}, "kernel_regularizer": null, "bias_regularizer": null, "activity_regularizer": null, "kernel_constraint": null, "bias_constraint": null}, "name": "stack4_short_2_conv", "inbound_nodes": [[["stack4_short_1_bn", 0, 0, {}]]]}, {"class_name": "BatchNormalization", "config": {"name": "stack4_ghost_2_cheap_bn", "trainable": true, "dtype": "float32", "axis": [3], "momentum": 0.9, "epsilon": 1e-05, "center": true, "scale": true, "beta_initializer": {"class_name": "Zeros", "config": {}}, "gamma_initializer": {"class_name": "Ones", "config": {}}, "moving_mean_initializer": {"class_name": "Zeros", "config": {}}, "moving_variance_initializer": {"class_name": "Ones", "config": {}}, "beta_regularizer": null, "gamma_regularizer": null, "beta_constraint": null, "gamma_constraint": null}, "name": "stack4_ghost_2_cheap_bn", "inbound_nodes": [[["stack4_ghost_2_cheap_dw_conv", 0, 0, {}]]]}, {"class_name": "BatchNormalization", "config": {"name": "stack4_short_2_bn", "trainable": true, "dtype": "float32", "axis": [3], "momentum": 0.9, "epsilon": 1e-05, "center": true, "scale": true, "beta_initializer": {"class_name": "Zeros", "config": {}}, "gamma_initializer": {"class_name": "Ones", "config": {}}, "moving_mean_initializer": {"class_name": "Zeros", "config": {}}, "moving_variance_initializer": {"class_name": "Ones", "config": {}}, "beta_regularizer": null, "gamma_regularizer": null, "beta_constraint": null, "gamma_constraint": null}, "name": "stack4_short_2_bn", "inbound_nodes": [[["stack4_short_2_conv", 0, 0, {}]]]}, {"class_name": "Concatenate", "config": {"name": "concatenate_7", "trainable": true, "dtype": "float32", "axis": -1}, "name": "concatenate_7", "inbound_nodes": [[["stack4_ghost_2_prim_bn", 0, 0, {}], ["stack4_ghost_2_cheap_bn", 0, 0, {}]]]}, {"class_name": "Add", "config": {"name": "stack4_output", "trainable": true, "dtype": "float32"}, "name": "stack4_output", "inbound_nodes": [[["stack4_short_2_bn", 0, 0, {}], ["concatenate_7", 0, 0, {}]]]}, {"class_name": "Conv2D", "config": {"name": "stack5_ghost_1_prim_conv", "trainable": true, "dtype": "float32", "filters": 30, "kernel_size": [1, 1], "strides": [1, 1], "padding": "valid", "data_format": "channels_last", "dilation_rate": [1, 1], "groups": 1, "activation": "linear", "use_bias": false, "kernel_initializer": {"class_name": "VarianceScaling", "config": {"scale": 2.0, "mode": "fan_out", "distribution": "truncated_normal", "seed": null}, "shared_object_id": 2}, "bias_initializer": {"class_name": "Zeros", "config": {}}, "kernel_regularizer": null, "bias_regularizer": null, "activity_regularizer": null, "kernel_constraint": null, "bias_constraint": null}, "name": "stack5_ghost_1_prim_conv", "inbound_nodes": [[["stack4_output", 0, 0, {}]]]}, {"class_name": "BatchNormalization", "config": {"name": "stack5_ghost_1_prim_bn", "trainable": true, "dtype": "float32", "axis": [3], "momentum": 0.9, "epsilon": 1e-05, "center": true, "scale": true, "beta_initializer": {"class_name": "Zeros", "config": {}}, "gamma_initializer": {"class_name": "Ones", "config": {}}, "moving_mean_initializer": {"class_name": "Zeros", "config": {}}, "moving_variance_initializer": {"class_name": "Ones", "config": {}}, "beta_regularizer": null, "gamma_regularizer": null, "beta_constraint": null, "gamma_constraint": null}, "name": "stack5_ghost_1_prim_bn", "inbound_nodes": [[["stack5_ghost_1_prim_conv", 0, 0, {}]]]}, {"class_name": "Activation", "config": {"name": "stack5_ghost_1_prim_relu", "trainable": true, "dtype": "float32", "activation": "relu"}, "name": "stack5_ghost_1_prim_relu", "inbound_nodes": [[["stack5_ghost_1_prim_bn", 0, 0, {}]]]}, {"class_name": "ZeroPadding2D", "config": {"name": "stack5_ghost_1_cheap_dw_pad", "trainable": true, "dtype": "float32", "padding": [[1, 1], [1, 1]], "data_format": "channels_last"}, "name": "stack5_ghost_1_cheap_dw_pad", "inbound_nodes": [[["stack5_ghost_1_prim_relu", 0, 0, {}]]]}, {"class_name": "DepthwiseConv2D", "config": {"name": "stack5_ghost_1_cheap_dw_conv", "trainable": true, "dtype": "float32", "kernel_size": [3, 3], "strides": [1, 1], "padding": "valid", "data_format": "channels_last", "dilation_rate": [1, 1], "groups": 1, "activation": "linear", "use_bias": false, "bias_initializer": {"class_name": "Zeros", "config": {}}, "bias_regularizer": null, "activity_regularizer": null, "bias_constraint": null, "depth_multiplier": 1, "depthwise_initializer": {"class_name": "GlorotUniform", "config": {"seed": null}}, "depthwise_regularizer": null, "depthwise_constraint": null}, "name": "stack5_ghost_1_cheap_dw_conv", "inbound_nodes": [[["stack5_ghost_1_cheap_dw_pad", 0, 0, {}]]]}, {"class_name": "BatchNormalization", "config": {"name": "stack5_ghost_1_cheap_bn", "trainable": true, "dtype": "float32", "axis": [3], "momentum": 0.9, "epsilon": 1e-05, "center": true, "scale": true, "beta_initializer": {"class_name": "Zeros", "config": {}}, "gamma_initializer": {"class_name": "Ones", "config": {}}, "moving_mean_initializer": {"class_name": "Zeros", "config": {}}, "moving_variance_initializer": {"class_name": "Ones", "config": {}}, "beta_regularizer": null, "gamma_regularizer": null, "beta_constraint": null, "gamma_constraint": null}, "name": "stack5_ghost_1_cheap_bn", "inbound_nodes": [[["stack5_ghost_1_cheap_dw_conv", 0, 0, {}]]]}, {"class_name": "Activation", "config": {"name": "stack5_ghost_1_cheap_relu", "trainable": true, "dtype": "float32", "activation": "relu"}, "name": "stack5_ghost_1_cheap_relu", "inbound_nodes": [[["stack5_ghost_1_cheap_bn", 0, 0, {}]]]}, {"class_name": "Concatenate", "config": {"name": "concatenate_8", "trainable": true, "dtype": "float32", "axis": -1}, "name": "concatenate_8", "inbound_nodes": [[["stack5_ghost_1_prim_relu", 0, 0, {}], ["stack5_ghost_1_cheap_relu", 0, 0, {}]]]}, {"class_name": "TFOpLambda", "config": {"name": "tf.math.reduce_mean_1", "trainable": true, "dtype": "float32", "function": "math.reduce_mean"}, "name": "tf.math.reduce_mean_1", "inbound_nodes": [["concatenate_8", 0, 0, {"axis": [1, 2], "keepdims": true}]]}, {"class_name": "Conv2D", "config": {"name": "stack5_se_1_conv", "trainable": true, "dtype": "float32", "filters": 16, "kernel_size": [1, 1], "strides": [1, 1], "padding": "valid", "data_format": "channels_last", "dilation_rate": [1, 1], "groups": 1, "activation": "linear", "use_bias": true, "kernel_initializer": {"class_name": "VarianceScaling", "config": {"scale": 2.0, "mode": "fan_out", "distribution": "truncated_normal", "seed": null}, "shared_object_id": 2}, "bias_initializer": {"class_name": "Zeros", "config": {}}, "kernel_regularizer": null, "bias_regularizer": null, "activity_regularizer": null, "kernel_constraint": null, "bias_constraint": null}, "name": "stack5_se_1_conv", "inbound_nodes": [[["tf.math.reduce_mean_1", 0, 0, {}]]]}, {"class_name": "Activation", "config": {"name": "stack5_se_relu", "trainable": true, "dtype": "float32", "activation": "relu"}, "name": "stack5_se_relu", "inbound_nodes": [[["stack5_se_1_conv", 0, 0, {}]]]}, {"class_name": "Conv2D", "config": {"name": "stack5_se_2_conv", "trainable": true, "dtype": "float32", "filters": 60, "kernel_size": [1, 1], "strides": [1, 1], "padding": "valid", "data_format": "channels_last", "dilation_rate": [1, 1], "groups": 1, "activation": "linear", "use_bias": true, "kernel_initializer": {"class_name": "VarianceScaling", "config": {"scale": 2.0, "mode": "fan_out", "distribution": "truncated_normal", "seed": null}, "shared_object_id": 2}, "bias_initializer": {"class_name": "Zeros", "config": {}}, "kernel_regularizer": null, "bias_regularizer": null, "activity_regularizer": null, "kernel_constraint": null, "bias_constraint": null}, "name": "stack5_se_2_conv", "inbound_nodes": [[["stack5_se_relu", 0, 0, {}]]]}, {"class_name": "Activation", "config": {"name": "stack5_se_hard_sigmoid_torch", "trainable": true, "dtype": "float32", "activation": "kecamCommon>hard_sigmoid_torch"}, "name": "stack5_se_hard_sigmoid_torch", "inbound_nodes": [[["stack5_se_2_conv", 0, 0, {}]]]}, {"class_name": "Multiply", "config": {"name": "stack5_se_out", "trainable": true, "dtype": "float32"}, "name": "stack5_se_out", "inbound_nodes": [[["concatenate_8", 0, 0, {}], ["stack5_se_hard_sigmoid_torch", 0, 0, {}]]]}, {"class_name": "Conv2D", "config": {"name": "stack5_ghost_2_prim_conv", "trainable": true, "dtype": "float32", "filters": 10, "kernel_size": [1, 1], "strides": [1, 1], "padding": "valid", "data_format": "channels_last", "dilation_rate": [1, 1], "groups": 1, "activation": "linear", "use_bias": false, "kernel_initializer": {"class_name": "VarianceScaling", "config": {"scale": 2.0, "mode": "fan_out", "distribution": "truncated_normal", "seed": null}, "shared_object_id": 2}, "bias_initializer": {"class_name": "Zeros", "config": {}}, "kernel_regularizer": null, "bias_regularizer": null, "activity_regularizer": null, "kernel_constraint": null, "bias_constraint": null}, "name": "stack5_ghost_2_prim_conv", "inbound_nodes": [[["stack5_se_out", 0, 0, {}]]]}, {"class_name": "BatchNormalization", "config": {"name": "stack5_ghost_2_prim_bn", "trainable": true, "dtype": "float32", "axis": [3], "momentum": 0.9, "epsilon": 1e-05, "center": true, "scale": true, "beta_initializer": {"class_name": "Zeros", "config": {}}, "gamma_initializer": {"class_name": "Ones", "config": {}}, "moving_mean_initializer": {"class_name": "Zeros", "config": {}}, "moving_variance_initializer": {"class_name": "Ones", "config": {}}, "beta_regularizer": null, "gamma_regularizer": null, "beta_constraint": null, "gamma_constraint": null}, "name": "stack5_ghost_2_prim_bn", "inbound_nodes": [[["stack5_ghost_2_prim_conv", 0, 0, {}]]]}, {"class_name": "ZeroPadding2D", "config": {"name": "stack5_ghost_2_cheap_dw_pad", "trainable": true, "dtype": "float32", "padding": [[1, 1], [1, 1]], "data_format": "channels_last"}, "name": "stack5_ghost_2_cheap_dw_pad", "inbound_nodes": [[["stack5_ghost_2_prim_bn", 0, 0, {}]]]}, {"class_name": "DepthwiseConv2D", "config": {"name": "stack5_ghost_2_cheap_dw_conv", "trainable": true, "dtype": "float32", "kernel_size": [3, 3], "strides": [1, 1], "padding": "valid", "data_format": "channels_last", "dilation_rate": [1, 1], "groups": 1, "activation": "linear", "use_bias": false, "bias_initializer": {"class_name": "Zeros", "config": {}}, "bias_regularizer": null, "activity_regularizer": null, "bias_constraint": null, "depth_multiplier": 1, "depthwise_initializer": {"class_name": "GlorotUniform", "config": {"seed": null}}, "depthwise_regularizer": null, "depthwise_constraint": null}, "name": "stack5_ghost_2_cheap_dw_conv", "inbound_nodes": [[["stack5_ghost_2_cheap_dw_pad", 0, 0, {}]]]}, {"class_name": "BatchNormalization", "config": {"name": "stack5_ghost_2_cheap_bn", "trainable": true, "dtype": "float32", "axis": [3], "momentum": 0.9, "epsilon": 1e-05, "center": true, "scale": true, "beta_initializer": {"class_name": "Zeros", "config": {}}, "gamma_initializer": {"class_name": "Ones", "config": {}}, "moving_mean_initializer": {"class_name": "Zeros", "config": {}}, "moving_variance_initializer": {"class_name": "Ones", "config": {}}, "beta_regularizer": null, "gamma_regularizer": null, "beta_constraint": null, "gamma_constraint": null}, "name": "stack5_ghost_2_cheap_bn", "inbound_nodes": [[["stack5_ghost_2_cheap_dw_conv", 0, 0, {}]]]}, {"class_name": "Concatenate", "config": {"name": "concatenate_9", "trainable": true, "dtype": "float32", "axis": -1}, "name": "concatenate_9", "inbound_nodes": [[["stack5_ghost_2_prim_bn", 0, 0, {}], ["stack5_ghost_2_cheap_bn", 0, 0, {}]]]}, {"class_name": "Add", "config": {"name": "stack5_output", "trainable": true, "dtype": "float32"}, "name": "stack5_output", "inbound_nodes": [[["stack4_output", 0, 0, {}], ["concatenate_9", 0, 0, {}]]]}, {"class_name": "Conv2D", "config": {"name": "stack6_ghost_1_prim_conv", "trainable": true, "dtype": "float32", "filters": 60, "kernel_size": [1, 1], "strides": [1, 1], "padding": "valid", "data_format": "channels_last", "dilation_rate": [1, 1], "groups": 1, "activation": "linear", "use_bias": false, "kernel_initializer": {"class_name": "VarianceScaling", "config": {"scale": 2.0, "mode": "fan_out", "distribution": "truncated_normal", "seed": null}, "shared_object_id": 2}, "bias_initializer": {"class_name": "Zeros", "config": {}}, "kernel_regularizer": null, "bias_regularizer": null, "activity_regularizer": null, "kernel_constraint": null, "bias_constraint": null}, "name": "stack6_ghost_1_prim_conv", "inbound_nodes": [[["stack5_output", 0, 0, {}]]]}, {"class_name": "BatchNormalization", "config": {"name": "stack6_ghost_1_prim_bn", "trainable": true, "dtype": "float32", "axis": [3], "momentum": 0.9, "epsilon": 1e-05, "center": true, "scale": true, "beta_initializer": {"class_name": "Zeros", "config": {}}, "gamma_initializer": {"class_name": "Ones", "config": {}}, "moving_mean_initializer": {"class_name": "Zeros", "config": {}}, "moving_variance_initializer": {"class_name": "Ones", "config": {}}, "beta_regularizer": null, "gamma_regularizer": null, "beta_constraint": null, "gamma_constraint": null}, "name": "stack6_ghost_1_prim_bn", "inbound_nodes": [[["stack6_ghost_1_prim_conv", 0, 0, {}]]]}, {"class_name": "Activation", "config": {"name": "stack6_ghost_1_prim_relu", "trainable": true, "dtype": "float32", "activation": "relu"}, "name": "stack6_ghost_1_prim_relu", "inbound_nodes": [[["stack6_ghost_1_prim_bn", 0, 0, {}]]]}, {"class_name": "ZeroPadding2D", "config": {"name": "stack6_ghost_1_cheap_dw_pad", "trainable": true, "dtype": "float32", "padding": [[1, 1], [1, 1]], "data_format": "channels_last"}, "name": "stack6_ghost_1_cheap_dw_pad", "inbound_nodes": [[["stack6_ghost_1_prim_relu", 0, 0, {}]]]}, {"class_name": "DepthwiseConv2D", "config": {"name": "stack6_ghost_1_cheap_dw_conv", "trainable": true, "dtype": "float32", "kernel_size": [3, 3], "strides": [1, 1], "padding": "valid", "data_format": "channels_last", "dilation_rate": [1, 1], "groups": 1, "activation": "linear", "use_bias": false, "bias_initializer": {"class_name": "Zeros", "config": {}}, "bias_regularizer": null, "activity_regularizer": null, "bias_constraint": null, "depth_multiplier": 1, "depthwise_initializer": {"class_name": "GlorotUniform", "config": {"seed": null}}, "depthwise_regularizer": null, "depthwise_constraint": null}, "name": "stack6_ghost_1_cheap_dw_conv", "inbound_nodes": [[["stack6_ghost_1_cheap_dw_pad", 0, 0, {}]]]}, {"class_name": "BatchNormalization", "config": {"name": "stack6_ghost_1_cheap_bn", "trainable": true, "dtype": "float32", "axis": [3], "momentum": 0.9, "epsilon": 1e-05, "center": true, "scale": true, "beta_initializer": {"class_name": "Zeros", "config": {}}, "gamma_initializer": {"class_name": "Ones", "config": {}}, "moving_mean_initializer": {"class_name": "Zeros", "config": {}}, "moving_variance_initializer": {"class_name": "Ones", "config": {}}, "beta_regularizer": null, "gamma_regularizer": null, "beta_constraint": null, "gamma_constraint": null}, "name": "stack6_ghost_1_cheap_bn", "inbound_nodes": [[["stack6_ghost_1_cheap_dw_conv", 0, 0, {}]]]}, {"class_name": "Activation", "config": {"name": "stack6_ghost_1_cheap_relu", "trainable": true, "dtype": "float32", "activation": "relu"}, "name": "stack6_ghost_1_cheap_relu", "inbound_nodes": [[["stack6_ghost_1_cheap_bn", 0, 0, {}]]]}, {"class_name": "Concatenate", "config": {"name": "concatenate_10", "trainable": true, "dtype": "float32", "axis": -1}, "name": "concatenate_10", "inbound_nodes": [[["stack6_ghost_1_prim_relu", 0, 0, {}], ["stack6_ghost_1_cheap_relu", 0, 0, {}]]]}, {"class_name": "ZeroPadding2D", "config": {"name": "stack6_down_dw_pad", "trainable": true, "dtype": "float32", "padding": [[1, 1], [1, 1]], "data_format": "channels_last"}, "name": "stack6_down_dw_pad", "inbound_nodes": [[["concatenate_10", 0, 0, {}]]]}, {"class_name": "DepthwiseConv2D", "config": {"name": "stack6_down_dw_conv", "trainable": true, "dtype": "float32", "kernel_size": [3, 3], "strides": [2, 2], "padding": "valid", "data_format": "channels_last", "dilation_rate": [1, 1], "groups": 1, "activation": "linear", "use_bias": false, "bias_initializer": {"class_name": "Zeros", "config": {}}, "bias_regularizer": null, "activity_regularizer": null, "bias_constraint": null, "depth_multiplier": 1, "depthwise_initializer": {"class_name": "GlorotUniform", "config": {"seed": null}}, "depthwise_regularizer": null, "depthwise_constraint": null}, "name": "stack6_down_dw_conv", "inbound_nodes": [[["stack6_down_dw_pad", 0, 0, {}]]]}, {"class_name": "BatchNormalization", "config": {"name": "stack6_down_bn", "trainable": true, "dtype": "float32", "axis": [3], "momentum": 0.9, "epsilon": 1e-05, "center": true, "scale": true, "beta_initializer": {"class_name": "Zeros", "config": {}}, "gamma_initializer": {"class_name": "Ones", "config": {}}, "moving_mean_initializer": {"class_name": "Zeros", "config": {}}, "moving_variance_initializer": {"class_name": "Ones", "config": {}}, "beta_regularizer": null, "gamma_regularizer": null, "beta_constraint": null, "gamma_constraint": null}, "name": "stack6_down_bn", "inbound_nodes": [[["stack6_down_dw_conv", 0, 0, {}]]]}, {"class_name": "Conv2D", "config": {"name": "stack6_ghost_2_prim_conv", "trainable": true, "dtype": "float32", "filters": 20, "kernel_size": [1, 1], "strides": [1, 1], "padding": "valid", "data_format": "channels_last", "dilation_rate": [1, 1], "groups": 1, "activation": "linear", "use_bias": false, "kernel_initializer": {"class_name": "VarianceScaling", "config": {"scale": 2.0, "mode": "fan_out", "distribution": "truncated_normal", "seed": null}, "shared_object_id": 2}, "bias_initializer": {"class_name": "Zeros", "config": {}}, "kernel_regularizer": null, "bias_regularizer": null, "activity_regularizer": null, "kernel_constraint": null, "bias_constraint": null}, "name": "stack6_ghost_2_prim_conv", "inbound_nodes": [[["stack6_down_bn", 0, 0, {}]]]}, {"class_name": "ZeroPadding2D", "config": {"name": "stack6_short_1_dw_pad", "trainable": true, "dtype": "float32", "padding": [[1, 1], [1, 1]], "data_format": "channels_last"}, "name": "stack6_short_1_dw_pad", "inbound_nodes": [[["stack5_output", 0, 0, {}]]]}, {"class_name": "BatchNormalization", "config": {"name": "stack6_ghost_2_prim_bn", "trainable": true, "dtype": "float32", "axis": [3], "momentum": 0.9, "epsilon": 1e-05, "center": true, "scale": true, "beta_initializer": {"class_name": "Zeros", "config": {}}, "gamma_initializer": {"class_name": "Ones", "config": {}}, "moving_mean_initializer": {"class_name": "Zeros", "config": {}}, "moving_variance_initializer": {"class_name": "Ones", "config": {}}, "beta_regularizer": null, "gamma_regularizer": null, "beta_constraint": null, "gamma_constraint": null}, "name": "stack6_ghost_2_prim_bn", "inbound_nodes": [[["stack6_ghost_2_prim_conv", 0, 0, {}]]]}, {"class_name": "DepthwiseConv2D", "config": {"name": "stack6_short_1_dw_conv", "trainable": true, "dtype": "float32", "kernel_size": [3, 3], "strides": [2, 2], "padding": "valid", "data_format": "channels_last", "dilation_rate": [1, 1], "groups": 1, "activation": "linear", "use_bias": false, "bias_initializer": {"class_name": "Zeros", "config": {}}, "bias_regularizer": null, "activity_regularizer": null, "bias_constraint": null, "depth_multiplier": 1, "depthwise_initializer": {"class_name": "GlorotUniform", "config": {"seed": null}}, "depthwise_regularizer": null, "depthwise_constraint": null}, "name": "stack6_short_1_dw_conv", "inbound_nodes": [[["stack6_short_1_dw_pad", 0, 0, {}]]]}, {"class_name": "ZeroPadding2D", "config": {"name": "stack6_ghost_2_cheap_dw_pad", "trainable": true, "dtype": "float32", "padding": [[1, 1], [1, 1]], "data_format": "channels_last"}, "name": "stack6_ghost_2_cheap_dw_pad", "inbound_nodes": [[["stack6_ghost_2_prim_bn", 0, 0, {}]]]}, {"class_name": "BatchNormalization", "config": {"name": "stack6_short_1_bn", "trainable": true, "dtype": "float32", "axis": [3], "momentum": 0.9, "epsilon": 1e-05, "center": true, "scale": true, "beta_initializer": {"class_name": "Zeros", "config": {}}, "gamma_initializer": {"class_name": "Ones", "config": {}}, "moving_mean_initializer": {"class_name": "Zeros", "config": {}}, "moving_variance_initializer": {"class_name": "Ones", "config": {}}, "beta_regularizer": null, "gamma_regularizer": null, "beta_constraint": null, "gamma_constraint": null}, "name": "stack6_short_1_bn", "inbound_nodes": [[["stack6_short_1_dw_conv", 0, 0, {}]]]}, {"class_name": "DepthwiseConv2D", "config": {"name": "stack6_ghost_2_cheap_dw_conv", "trainable": true, "dtype": "float32", "kernel_size": [3, 3], "strides": [1, 1], "padding": "valid", "data_format": "channels_last", "dilation_rate": [1, 1], "groups": 1, "activation": "linear", "use_bias": false, "bias_initializer": {"class_name": "Zeros", "config": {}}, "bias_regularizer": null, "activity_regularizer": null, "bias_constraint": null, "depth_multiplier": 1, "depthwise_initializer": {"class_name": "GlorotUniform", "config": {"seed": null}}, "depthwise_regularizer": null, "depthwise_constraint": null}, "name": "stack6_ghost_2_cheap_dw_conv", "inbound_nodes": [[["stack6_ghost_2_cheap_dw_pad", 0, 0, {}]]]}, {"class_name": "Conv2D", "config": {"name": "stack6_short_2_conv", "trainable": true, "dtype": "float32", "filters": 40, "kernel_size": [1, 1], "strides": [1, 1], "padding": "valid", "data_format": "channels_last", "dilation_rate": [1, 1], "groups": 1, "activation": "linear", "use_bias": false, "kernel_initializer": {"class_name": "VarianceScaling", "config": {"scale": 2.0, "mode": "fan_out", "distribution": "truncated_normal", "seed": null}, "shared_object_id": 2}, "bias_initializer": {"class_name": "Zeros", "config": {}}, "kernel_regularizer": null, "bias_regularizer": null, "activity_regularizer": null, "kernel_constraint": null, "bias_constraint": null}, "name": "stack6_short_2_conv", "inbound_nodes": [[["stack6_short_1_bn", 0, 0, {}]]]}, {"class_name": "BatchNormalization", "config": {"name": "stack6_ghost_2_cheap_bn", "trainable": true, "dtype": "float32", "axis": [3], "momentum": 0.9, "epsilon": 1e-05, "center": true, "scale": true, "beta_initializer": {"class_name": "Zeros", "config": {}}, "gamma_initializer": {"class_name": "Ones", "config": {}}, "moving_mean_initializer": {"class_name": "Zeros", "config": {}}, "moving_variance_initializer": {"class_name": "Ones", "config": {}}, "beta_regularizer": null, "gamma_regularizer": null, "beta_constraint": null, "gamma_constraint": null}, "name": "stack6_ghost_2_cheap_bn", "inbound_nodes": [[["stack6_ghost_2_cheap_dw_conv", 0, 0, {}]]]}, {"class_name": "BatchNormalization", "config": {"name": "stack6_short_2_bn", "trainable": true, "dtype": "float32", "axis": [3], "momentum": 0.9, "epsilon": 1e-05, "center": true, "scale": true, "beta_initializer": {"class_name": "Zeros", "config": {}}, "gamma_initializer": {"class_name": "Ones", "config": {}}, "moving_mean_initializer": {"class_name": "Zeros", "config": {}}, "moving_variance_initializer": {"class_name": "Ones", "config": {}}, "beta_regularizer": null, "gamma_regularizer": null, "beta_constraint": null, "gamma_constraint": null}, "name": "stack6_short_2_bn", "inbound_nodes": [[["stack6_short_2_conv", 0, 0, {}]]]}, {"class_name": "Concatenate", "config": {"name": "concatenate_11", "trainable": true, "dtype": "float32", "axis": -1}, "name": "concatenate_11", "inbound_nodes": [[["stack6_ghost_2_prim_bn", 0, 0, {}], ["stack6_ghost_2_cheap_bn", 0, 0, {}]]]}, {"class_name": "Add", "config": {"name": "stack6_output", "trainable": true, "dtype": "float32"}, "name": "stack6_output", "inbound_nodes": [[["stack6_short_2_bn", 0, 0, {}], ["concatenate_11", 0, 0, {}]]]}, {"class_name": "Conv2D", "config": {"name": "stack7_ghost_1_prim_conv", "trainable": true, "dtype": "float32", "filters": 50, "kernel_size": [1, 1], "strides": [1, 1], "padding": "valid", "data_format": "channels_last", "dilation_rate": [1, 1], "groups": 1, "activation": "linear", "use_bias": false, "kernel_initializer": {"class_name": "VarianceScaling", "config": {"scale": 2.0, "mode": "fan_out", "distribution": "truncated_normal", "seed": null}, "shared_object_id": 2}, "bias_initializer": {"class_name": "Zeros", "config": {}}, "kernel_regularizer": null, "bias_regularizer": null, "activity_regularizer": null, "kernel_constraint": null, "bias_constraint": null}, "name": "stack7_ghost_1_prim_conv", "inbound_nodes": [[["stack6_output", 0, 0, {}]]]}, {"class_name": "BatchNormalization", "config": {"name": "stack7_ghost_1_prim_bn", "trainable": true, "dtype": "float32", "axis": [3], "momentum": 0.9, "epsilon": 1e-05, "center": true, "scale": true, "beta_initializer": {"class_name": "Zeros", "config": {}}, "gamma_initializer": {"class_name": "Ones", "config": {}}, "moving_mean_initializer": {"class_name": "Zeros", "config": {}}, "moving_variance_initializer": {"class_name": "Ones", "config": {}}, "beta_regularizer": null, "gamma_regularizer": null, "beta_constraint": null, "gamma_constraint": null}, "name": "stack7_ghost_1_prim_bn", "inbound_nodes": [[["stack7_ghost_1_prim_conv", 0, 0, {}]]]}, {"class_name": "Activation", "config": {"name": "stack7_ghost_1_prim_relu", "trainable": true, "dtype": "float32", "activation": "relu"}, "name": "stack7_ghost_1_prim_relu", "inbound_nodes": [[["stack7_ghost_1_prim_bn", 0, 0, {}]]]}, {"class_name": "ZeroPadding2D", "config": {"name": "stack7_ghost_1_cheap_dw_pad", "trainable": true, "dtype": "float32", "padding": [[1, 1], [1, 1]], "data_format": "channels_last"}, "name": "stack7_ghost_1_cheap_dw_pad", "inbound_nodes": [[["stack7_ghost_1_prim_relu", 0, 0, {}]]]}, {"class_name": "DepthwiseConv2D", "config": {"name": "stack7_ghost_1_cheap_dw_conv", "trainable": true, "dtype": "float32", "kernel_size": [3, 3], "strides": [1, 1], "padding": "valid", "data_format": "channels_last", "dilation_rate": [1, 1], "groups": 1, "activation": "linear", "use_bias": false, "bias_initializer": {"class_name": "Zeros", "config": {}}, "bias_regularizer": null, "activity_regularizer": null, "bias_constraint": null, "depth_multiplier": 1, "depthwise_initializer": {"class_name": "GlorotUniform", "config": {"seed": null}}, "depthwise_regularizer": null, "depthwise_constraint": null}, "name": "stack7_ghost_1_cheap_dw_conv", "inbound_nodes": [[["stack7_ghost_1_cheap_dw_pad", 0, 0, {}]]]}, {"class_name": "BatchNormalization", "config": {"name": "stack7_ghost_1_cheap_bn", "trainable": true, "dtype": "float32", "axis": [3], "momentum": 0.9, "epsilon": 1e-05, "center": true, "scale": true, "beta_initializer": {"class_name": "Zeros", "config": {}}, "gamma_initializer": {"class_name": "Ones", "config": {}}, "moving_mean_initializer": {"class_name": "Zeros", "config": {}}, "moving_variance_initializer": {"class_name": "Ones", "config": {}}, "beta_regularizer": null, "gamma_regularizer": null, "beta_constraint": null, "gamma_constraint": null}, "name": "stack7_ghost_1_cheap_bn", "inbound_nodes": [[["stack7_ghost_1_cheap_dw_conv", 0, 0, {}]]]}, {"class_name": "Activation", "config": {"name": "stack7_ghost_1_cheap_relu", "trainable": true, "dtype": "float32", "activation": "relu"}, "name": "stack7_ghost_1_cheap_relu", "inbound_nodes": [[["stack7_ghost_1_cheap_bn", 0, 0, {}]]]}, {"class_name": "Concatenate", "config": {"name": "concatenate_12", "trainable": true, "dtype": "float32", "axis": -1}, "name": "concatenate_12", "inbound_nodes": [[["stack7_ghost_1_prim_relu", 0, 0, {}], ["stack7_ghost_1_cheap_relu", 0, 0, {}]]]}, {"class_name": "Conv2D", "config": {"name": "stack7_ghost_2_prim_conv", "trainable": true, "dtype": "float32", "filters": 20, "kernel_size": [1, 1], "strides": [1, 1], "padding": "valid", "data_format": "channels_last", "dilation_rate": [1, 1], "groups": 1, "activation": "linear", "use_bias": false, "kernel_initializer": {"class_name": "VarianceScaling", "config": {"scale": 2.0, "mode": "fan_out", "distribution": "truncated_normal", "seed": null}, "shared_object_id": 2}, "bias_initializer": {"class_name": "Zeros", "config": {}}, "kernel_regularizer": null, "bias_regularizer": null, "activity_regularizer": null, "kernel_constraint": null, "bias_constraint": null}, "name": "stack7_ghost_2_prim_conv", "inbound_nodes": [[["concatenate_12", 0, 0, {}]]]}, {"class_name": "BatchNormalization", "config": {"name": "stack7_ghost_2_prim_bn", "trainable": true, "dtype": "float32", "axis": [3], "momentum": 0.9, "epsilon": 1e-05, "center": true, "scale": true, "beta_initializer": {"class_name": "Zeros", "config": {}}, "gamma_initializer": {"class_name": "Ones", "config": {}}, "moving_mean_initializer": {"class_name": "Zeros", "config": {}}, "moving_variance_initializer": {"class_name": "Ones", "config": {}}, "beta_regularizer": null, "gamma_regularizer": null, "beta_constraint": null, "gamma_constraint": null}, "name": "stack7_ghost_2_prim_bn", "inbound_nodes": [[["stack7_ghost_2_prim_conv", 0, 0, {}]]]}, {"class_name": "ZeroPadding2D", "config": {"name": "stack7_ghost_2_cheap_dw_pad", "trainable": true, "dtype": "float32", "padding": [[1, 1], [1, 1]], "data_format": "channels_last"}, "name": "stack7_ghost_2_cheap_dw_pad", "inbound_nodes": [[["stack7_ghost_2_prim_bn", 0, 0, {}]]]}, {"class_name": "DepthwiseConv2D", "config": {"name": "stack7_ghost_2_cheap_dw_conv", "trainable": true, "dtype": "float32", "kernel_size": [3, 3], "strides": [1, 1], "padding": "valid", "data_format": "channels_last", "dilation_rate": [1, 1], "groups": 1, "activation": "linear", "use_bias": false, "bias_initializer": {"class_name": "Zeros", "config": {}}, "bias_regularizer": null, "activity_regularizer": null, "bias_constraint": null, "depth_multiplier": 1, "depthwise_initializer": {"class_name": "GlorotUniform", "config": {"seed": null}}, "depthwise_regularizer": null, "depthwise_constraint": null}, "name": "stack7_ghost_2_cheap_dw_conv", "inbound_nodes": [[["stack7_ghost_2_cheap_dw_pad", 0, 0, {}]]]}, {"class_name": "BatchNormalization", "config": {"name": "stack7_ghost_2_cheap_bn", "trainable": true, "dtype": "float32", "axis": [3], "momentum": 0.9, "epsilon": 1e-05, "center": true, "scale": true, "beta_initializer": {"class_name": "Zeros", "config": {}}, "gamma_initializer": {"class_name": "Ones", "config": {}}, "moving_mean_initializer": {"class_name": "Zeros", "config": {}}, "moving_variance_initializer": {"class_name": "Ones", "config": {}}, "beta_regularizer": null, "gamma_regularizer": null, "beta_constraint": null, "gamma_constraint": null}, "name": "stack7_ghost_2_cheap_bn", "inbound_nodes": [[["stack7_ghost_2_cheap_dw_conv", 0, 0, {}]]]}, {"class_name": "Concatenate", "config": {"name": "concatenate_13", "trainable": true, "dtype": "float32", "axis": -1}, "name": "concatenate_13", "inbound_nodes": [[["stack7_ghost_2_prim_bn", 0, 0, {}], ["stack7_ghost_2_cheap_bn", 0, 0, {}]]]}, {"class_name": "Add", "config": {"name": "stack7_output", "trainable": true, "dtype": "float32"}, "name": "stack7_output", "inbound_nodes": [[["stack6_output", 0, 0, {}], ["concatenate_13", 0, 0, {}]]]}, {"class_name": "Conv2D", "config": {"name": "stack8_ghost_1_prim_conv", "trainable": true, "dtype": "float32", "filters": 46, "kernel_size": [1, 1], "strides": [1, 1], "padding": "valid", "data_format": "channels_last", "dilation_rate": [1, 1], "groups": 1, "activation": "linear", "use_bias": false, "kernel_initializer": {"class_name": "VarianceScaling", "config": {"scale": 2.0, "mode": "fan_out", "distribution": "truncated_normal", "seed": null}, "shared_object_id": 2}, "bias_initializer": {"class_name": "Zeros", "config": {}}, "kernel_regularizer": null, "bias_regularizer": null, "activity_regularizer": null, "kernel_constraint": null, "bias_constraint": null}, "name": "stack8_ghost_1_prim_conv", "inbound_nodes": [[["stack7_output", 0, 0, {}]]]}, {"class_name": "BatchNormalization", "config": {"name": "stack8_ghost_1_prim_bn", "trainable": true, "dtype": "float32", "axis": [3], "momentum": 0.9, "epsilon": 1e-05, "center": true, "scale": true, "beta_initializer": {"class_name": "Zeros", "config": {}}, "gamma_initializer": {"class_name": "Ones", "config": {}}, "moving_mean_initializer": {"class_name": "Zeros", "config": {}}, "moving_variance_initializer": {"class_name": "Ones", "config": {}}, "beta_regularizer": null, "gamma_regularizer": null, "beta_constraint": null, "gamma_constraint": null}, "name": "stack8_ghost_1_prim_bn", "inbound_nodes": [[["stack8_ghost_1_prim_conv", 0, 0, {}]]]}, {"class_name": "Activation", "config": {"name": "stack8_ghost_1_prim_relu", "trainable": true, "dtype": "float32", "activation": "relu"}, "name": "stack8_ghost_1_prim_relu", "inbound_nodes": [[["stack8_ghost_1_prim_bn", 0, 0, {}]]]}, {"class_name": "ZeroPadding2D", "config": {"name": "stack8_ghost_1_cheap_dw_pad", "trainable": true, "dtype": "float32", "padding": [[1, 1], [1, 1]], "data_format": "channels_last"}, "name": "stack8_ghost_1_cheap_dw_pad", "inbound_nodes": [[["stack8_ghost_1_prim_relu", 0, 0, {}]]]}, {"class_name": "DepthwiseConv2D", "config": {"name": "stack8_ghost_1_cheap_dw_conv", "trainable": true, "dtype": "float32", "kernel_size": [3, 3], "strides": [1, 1], "padding": "valid", "data_format": "channels_last", "dilation_rate": [1, 1], "groups": 1, "activation": "linear", "use_bias": false, "bias_initializer": {"class_name": "Zeros", "config": {}}, "bias_regularizer": null, "activity_regularizer": null, "bias_constraint": null, "depth_multiplier": 1, "depthwise_initializer": {"class_name": "GlorotUniform", "config": {"seed": null}}, "depthwise_regularizer": null, "depthwise_constraint": null}, "name": "stack8_ghost_1_cheap_dw_conv", "inbound_nodes": [[["stack8_ghost_1_cheap_dw_pad", 0, 0, {}]]]}, {"class_name": "BatchNormalization", "config": {"name": "stack8_ghost_1_cheap_bn", "trainable": true, "dtype": "float32", "axis": [3], "momentum": 0.9, "epsilon": 1e-05, "center": true, "scale": true, "beta_initializer": {"class_name": "Zeros", "config": {}}, "gamma_initializer": {"class_name": "Ones", "config": {}}, "moving_mean_initializer": {"class_name": "Zeros", "config": {}}, "moving_variance_initializer": {"class_name": "Ones", "config": {}}, "beta_regularizer": null, "gamma_regularizer": null, "beta_constraint": null, "gamma_constraint": null}, "name": "stack8_ghost_1_cheap_bn", "inbound_nodes": [[["stack8_ghost_1_cheap_dw_conv", 0, 0, {}]]]}, {"class_name": "Activation", "config": {"name": "stack8_ghost_1_cheap_relu", "trainable": true, "dtype": "float32", "activation": "relu"}, "name": "stack8_ghost_1_cheap_relu", "inbound_nodes": [[["stack8_ghost_1_cheap_bn", 0, 0, {}]]]}, {"class_name": "Concatenate", "config": {"name": "concatenate_14", "trainable": true, "dtype": "float32", "axis": -1}, "name": "concatenate_14", "inbound_nodes": [[["stack8_ghost_1_prim_relu", 0, 0, {}], ["stack8_ghost_1_cheap_relu", 0, 0, {}]]]}, {"class_name": "Conv2D", "config": {"name": "stack8_ghost_2_prim_conv", "trainable": true, "dtype": "float32", "filters": 20, "kernel_size": [1, 1], "strides": [1, 1], "padding": "valid", "data_format": "channels_last", "dilation_rate": [1, 1], "groups": 1, "activation": "linear", "use_bias": false, "kernel_initializer": {"class_name": "VarianceScaling", "config": {"scale": 2.0, "mode": "fan_out", "distribution": "truncated_normal", "seed": null}, "shared_object_id": 2}, "bias_initializer": {"class_name": "Zeros", "config": {}}, "kernel_regularizer": null, "bias_regularizer": null, "activity_regularizer": null, "kernel_constraint": null, "bias_constraint": null}, "name": "stack8_ghost_2_prim_conv", "inbound_nodes": [[["concatenate_14", 0, 0, {}]]]}, {"class_name": "BatchNormalization", "config": {"name": "stack8_ghost_2_prim_bn", "trainable": true, "dtype": "float32", "axis": [3], "momentum": 0.9, "epsilon": 1e-05, "center": true, "scale": true, "beta_initializer": {"class_name": "Zeros", "config": {}}, "gamma_initializer": {"class_name": "Ones", "config": {}}, "moving_mean_initializer": {"class_name": "Zeros", "config": {}}, "moving_variance_initializer": {"class_name": "Ones", "config": {}}, "beta_regularizer": null, "gamma_regularizer": null, "beta_constraint": null, "gamma_constraint": null}, "name": "stack8_ghost_2_prim_bn", "inbound_nodes": [[["stack8_ghost_2_prim_conv", 0, 0, {}]]]}, {"class_name": "ZeroPadding2D", "config": {"name": "stack8_ghost_2_cheap_dw_pad", "trainable": true, "dtype": "float32", "padding": [[1, 1], [1, 1]], "data_format": "channels_last"}, "name": "stack8_ghost_2_cheap_dw_pad", "inbound_nodes": [[["stack8_ghost_2_prim_bn", 0, 0, {}]]]}, {"class_name": "DepthwiseConv2D", "config": {"name": "stack8_ghost_2_cheap_dw_conv", "trainable": true, "dtype": "float32", "kernel_size": [3, 3], "strides": [1, 1], "padding": "valid", "data_format": "channels_last", "dilation_rate": [1, 1], "groups": 1, "activation": "linear", "use_bias": false, "bias_initializer": {"class_name": "Zeros", "config": {}}, "bias_regularizer": null, "activity_regularizer": null, "bias_constraint": null, "depth_multiplier": 1, "depthwise_initializer": {"class_name": "GlorotUniform", "config": {"seed": null}}, "depthwise_regularizer": null, "depthwise_constraint": null}, "name": "stack8_ghost_2_cheap_dw_conv", "inbound_nodes": [[["stack8_ghost_2_cheap_dw_pad", 0, 0, {}]]]}, {"class_name": "BatchNormalization", "config": {"name": "stack8_ghost_2_cheap_bn", "trainable": true, "dtype": "float32", "axis": [3], "momentum": 0.9, "epsilon": 1e-05, "center": true, "scale": true, "beta_initializer": {"class_name": "Zeros", "config": {}}, "gamma_initializer": {"class_name": "Ones", "config": {}}, "moving_mean_initializer": {"class_name": "Zeros", "config": {}}, "moving_variance_initializer": {"class_name": "Ones", "config": {}}, "beta_regularizer": null, "gamma_regularizer": null, "beta_constraint": null, "gamma_constraint": null}, "name": "stack8_ghost_2_cheap_bn", "inbound_nodes": [[["stack8_ghost_2_cheap_dw_conv", 0, 0, {}]]]}, {"class_name": "Concatenate", "config": {"name": "concatenate_15", "trainable": true, "dtype": "float32", "axis": -1}, "name": "concatenate_15", "inbound_nodes": [[["stack8_ghost_2_prim_bn", 0, 0, {}], ["stack8_ghost_2_cheap_bn", 0, 0, {}]]]}, {"class_name": "Add", "config": {"name": "stack8_output", "trainable": true, "dtype": "float32"}, "name": "stack8_output", "inbound_nodes": [[["stack7_output", 0, 0, {}], ["concatenate_15", 0, 0, {}]]]}, {"class_name": "Conv2D", "config": {"name": "stack9_ghost_1_prim_conv", "trainable": true, "dtype": "float32", "filters": 46, "kernel_size": [1, 1], "strides": [1, 1], "padding": "valid", "data_format": "channels_last", "dilation_rate": [1, 1], "groups": 1, "activation": "linear", "use_bias": false, "kernel_initializer": {"class_name": "VarianceScaling", "config": {"scale": 2.0, "mode": "fan_out", "distribution": "truncated_normal", "seed": null}, "shared_object_id": 2}, "bias_initializer": {"class_name": "Zeros", "config": {}}, "kernel_regularizer": null, "bias_regularizer": null, "activity_regularizer": null, "kernel_constraint": null, "bias_constraint": null}, "name": "stack9_ghost_1_prim_conv", "inbound_nodes": [[["stack8_output", 0, 0, {}]]]}, {"class_name": "BatchNormalization", "config": {"name": "stack9_ghost_1_prim_bn", "trainable": true, "dtype": "float32", "axis": [3], "momentum": 0.9, "epsilon": 1e-05, "center": true, "scale": true, "beta_initializer": {"class_name": "Zeros", "config": {}}, "gamma_initializer": {"class_name": "Ones", "config": {}}, "moving_mean_initializer": {"class_name": "Zeros", "config": {}}, "moving_variance_initializer": {"class_name": "Ones", "config": {}}, "beta_regularizer": null, "gamma_regularizer": null, "beta_constraint": null, "gamma_constraint": null}, "name": "stack9_ghost_1_prim_bn", "inbound_nodes": [[["stack9_ghost_1_prim_conv", 0, 0, {}]]]}, {"class_name": "Activation", "config": {"name": "stack9_ghost_1_prim_relu", "trainable": true, "dtype": "float32", "activation": "relu"}, "name": "stack9_ghost_1_prim_relu", "inbound_nodes": [[["stack9_ghost_1_prim_bn", 0, 0, {}]]]}, {"class_name": "ZeroPadding2D", "config": {"name": "stack9_ghost_1_cheap_dw_pad", "trainable": true, "dtype": "float32", "padding": [[1, 1], [1, 1]], "data_format": "channels_last"}, "name": "stack9_ghost_1_cheap_dw_pad", "inbound_nodes": [[["stack9_ghost_1_prim_relu", 0, 0, {}]]]}, {"class_name": "DepthwiseConv2D", "config": {"name": "stack9_ghost_1_cheap_dw_conv", "trainable": true, "dtype": "float32", "kernel_size": [3, 3], "strides": [1, 1], "padding": "valid", "data_format": "channels_last", "dilation_rate": [1, 1], "groups": 1, "activation": "linear", "use_bias": false, "bias_initializer": {"class_name": "Zeros", "config": {}}, "bias_regularizer": null, "activity_regularizer": null, "bias_constraint": null, "depth_multiplier": 1, "depthwise_initializer": {"class_name": "GlorotUniform", "config": {"seed": null}}, "depthwise_regularizer": null, "depthwise_constraint": null}, "name": "stack9_ghost_1_cheap_dw_conv", "inbound_nodes": [[["stack9_ghost_1_cheap_dw_pad", 0, 0, {}]]]}, {"class_name": "BatchNormalization", "config": {"name": "stack9_ghost_1_cheap_bn", "trainable": true, "dtype": "float32", "axis": [3], "momentum": 0.9, "epsilon": 1e-05, "center": true, "scale": true, "beta_initializer": {"class_name": "Zeros", "config": {}}, "gamma_initializer": {"class_name": "Ones", "config": {}}, "moving_mean_initializer": {"class_name": "Zeros", "config": {}}, "moving_variance_initializer": {"class_name": "Ones", "config": {}}, "beta_regularizer": null, "gamma_regularizer": null, "beta_constraint": null, "gamma_constraint": null}, "name": "stack9_ghost_1_cheap_bn", "inbound_nodes": [[["stack9_ghost_1_cheap_dw_conv", 0, 0, {}]]]}, {"class_name": "Activation", "config": {"name": "stack9_ghost_1_cheap_relu", "trainable": true, "dtype": "float32", "activation": "relu"}, "name": "stack9_ghost_1_cheap_relu", "inbound_nodes": [[["stack9_ghost_1_cheap_bn", 0, 0, {}]]]}, {"class_name": "Concatenate", "config": {"name": "concatenate_16", "trainable": true, "dtype": "float32", "axis": -1}, "name": "concatenate_16", "inbound_nodes": [[["stack9_ghost_1_prim_relu", 0, 0, {}], ["stack9_ghost_1_cheap_relu", 0, 0, {}]]]}, {"class_name": "Conv2D", "config": {"name": "stack9_ghost_2_prim_conv", "trainable": true, "dtype": "float32", "filters": 20, "kernel_size": [1, 1], "strides": [1, 1], "padding": "valid", "data_format": "channels_last", "dilation_rate": [1, 1], "groups": 1, "activation": "linear", "use_bias": false, "kernel_initializer": {"class_name": "VarianceScaling", "config": {"scale": 2.0, "mode": "fan_out", "distribution": "truncated_normal", "seed": null}, "shared_object_id": 2}, "bias_initializer": {"class_name": "Zeros", "config": {}}, "kernel_regularizer": null, "bias_regularizer": null, "activity_regularizer": null, "kernel_constraint": null, "bias_constraint": null}, "name": "stack9_ghost_2_prim_conv", "inbound_nodes": [[["concatenate_16", 0, 0, {}]]]}, {"class_name": "BatchNormalization", "config": {"name": "stack9_ghost_2_prim_bn", "trainable": true, "dtype": "float32", "axis": [3], "momentum": 0.9, "epsilon": 1e-05, "center": true, "scale": true, "beta_initializer": {"class_name": "Zeros", "config": {}}, "gamma_initializer": {"class_name": "Ones", "config": {}}, "moving_mean_initializer": {"class_name": "Zeros", "config": {}}, "moving_variance_initializer": {"class_name": "Ones", "config": {}}, "beta_regularizer": null, "gamma_regularizer": null, "beta_constraint": null, "gamma_constraint": null}, "name": "stack9_ghost_2_prim_bn", "inbound_nodes": [[["stack9_ghost_2_prim_conv", 0, 0, {}]]]}, {"class_name": "ZeroPadding2D", "config": {"name": "stack9_ghost_2_cheap_dw_pad", "trainable": true, "dtype": "float32", "padding": [[1, 1], [1, 1]], "data_format": "channels_last"}, "name": "stack9_ghost_2_cheap_dw_pad", "inbound_nodes": [[["stack9_ghost_2_prim_bn", 0, 0, {}]]]}, {"class_name": "DepthwiseConv2D", "config": {"name": "stack9_ghost_2_cheap_dw_conv", "trainable": true, "dtype": "float32", "kernel_size": [3, 3], "strides": [1, 1], "padding": "valid", "data_format": "channels_last", "dilation_rate": [1, 1], "groups": 1, "activation": "linear", "use_bias": false, "bias_initializer": {"class_name": "Zeros", "config": {}}, "bias_regularizer": null, "activity_regularizer": null, "bias_constraint": null, "depth_multiplier": 1, "depthwise_initializer": {"class_name": "GlorotUniform", "config": {"seed": null}}, "depthwise_regularizer": null, "depthwise_constraint": null}, "name": "stack9_ghost_2_cheap_dw_conv", "inbound_nodes": [[["stack9_ghost_2_cheap_dw_pad", 0, 0, {}]]]}, {"class_name": "BatchNormalization", "config": {"name": "stack9_ghost_2_cheap_bn", "trainable": true, "dtype": "float32", "axis": [3], "momentum": 0.9, "epsilon": 1e-05, "center": true, "scale": true, "beta_initializer": {"class_name": "Zeros", "config": {}}, "gamma_initializer": {"class_name": "Ones", "config": {}}, "moving_mean_initializer": {"class_name": "Zeros", "config": {}}, "moving_variance_initializer": {"class_name": "Ones", "config": {}}, "beta_regularizer": null, "gamma_regularizer": null, "beta_constraint": null, "gamma_constraint": null}, "name": "stack9_ghost_2_cheap_bn", "inbound_nodes": [[["stack9_ghost_2_cheap_dw_conv", 0, 0, {}]]]}, {"class_name": "Concatenate", "config": {"name": "concatenate_17", "trainable": true, "dtype": "float32", "axis": -1}, "name": "concatenate_17", "inbound_nodes": [[["stack9_ghost_2_prim_bn", 0, 0, {}], ["stack9_ghost_2_cheap_bn", 0, 0, {}]]]}, {"class_name": "Add", "config": {"name": "stack9_output", "trainable": true, "dtype": "float32"}, "name": "stack9_output", "inbound_nodes": [[["stack8_output", 0, 0, {}], ["concatenate_17", 0, 0, {}]]]}, {"class_name": "Conv2D", "config": {"name": "stack10_ghost_1_prim_conv", "trainable": true, "dtype": "float32", "filters": 120, "kernel_size": [1, 1], "strides": [1, 1], "padding": "valid", "data_format": "channels_last", "dilation_rate": [1, 1], "groups": 1, "activation": "linear", "use_bias": false, "kernel_initializer": {"class_name": "VarianceScaling", "config": {"scale": 2.0, "mode": "fan_out", "distribution": "truncated_normal", "seed": null}, "shared_object_id": 2}, "bias_initializer": {"class_name": "Zeros", "config": {}}, "kernel_regularizer": null, "bias_regularizer": null, "activity_regularizer": null, "kernel_constraint": null, "bias_constraint": null}, "name": "stack10_ghost_1_prim_conv", "inbound_nodes": [[["stack9_output", 0, 0, {}]]]}, {"class_name": "BatchNormalization", "config": {"name": "stack10_ghost_1_prim_bn", "trainable": true, "dtype": "float32", "axis": [3], "momentum": 0.9, "epsilon": 1e-05, "center": true, "scale": true, "beta_initializer": {"class_name": "Zeros", "config": {}}, "gamma_initializer": {"class_name": "Ones", "config": {}}, "moving_mean_initializer": {"class_name": "Zeros", "config": {}}, "moving_variance_initializer": {"class_name": "Ones", "config": {}}, "beta_regularizer": null, "gamma_regularizer": null, "beta_constraint": null, "gamma_constraint": null}, "name": "stack10_ghost_1_prim_bn", "inbound_nodes": [[["stack10_ghost_1_prim_conv", 0, 0, {}]]]}, {"class_name": "Activation", "config": {"name": "stack10_ghost_1_prim_relu", "trainable": true, "dtype": "float32", "activation": "relu"}, "name": "stack10_ghost_1_prim_relu", "inbound_nodes": [[["stack10_ghost_1_prim_bn", 0, 0, {}]]]}, {"class_name": "ZeroPadding2D", "config": {"name": "stack10_ghost_1_cheap_dw_pad", "trainable": true, "dtype": "float32", "padding": [[1, 1], [1, 1]], "data_format": "channels_last"}, "name": "stack10_ghost_1_cheap_dw_pad", "inbound_nodes": [[["stack10_ghost_1_prim_relu", 0, 0, {}]]]}, {"class_name": "DepthwiseConv2D", "config": {"name": "stack10_ghost_1_cheap_dw_conv", "trainable": true, "dtype": "float32", "kernel_size": [3, 3], "strides": [1, 1], "padding": "valid", "data_format": "channels_last", "dilation_rate": [1, 1], "groups": 1, "activation": "linear", "use_bias": false, "bias_initializer": {"class_name": "Zeros", "config": {}}, "bias_regularizer": null, "activity_regularizer": null, "bias_constraint": null, "depth_multiplier": 1, "depthwise_initializer": {"class_name": "GlorotUniform", "config": {"seed": null}}, "depthwise_regularizer": null, "depthwise_constraint": null}, "name": "stack10_ghost_1_cheap_dw_conv", "inbound_nodes": [[["stack10_ghost_1_cheap_dw_pad", 0, 0, {}]]]}, {"class_name": "BatchNormalization", "config": {"name": "stack10_ghost_1_cheap_bn", "trainable": true, "dtype": "float32", "axis": [3], "momentum": 0.9, "epsilon": 1e-05, "center": true, "scale": true, "beta_initializer": {"class_name": "Zeros", "config": {}}, "gamma_initializer": {"class_name": "Ones", "config": {}}, "moving_mean_initializer": {"class_name": "Zeros", "config": {}}, "moving_variance_initializer": {"class_name": "Ones", "config": {}}, "beta_regularizer": null, "gamma_regularizer": null, "beta_constraint": null, "gamma_constraint": null}, "name": "stack10_ghost_1_cheap_bn", "inbound_nodes": [[["stack10_ghost_1_cheap_dw_conv", 0, 0, {}]]]}, {"class_name": "Activation", "config": {"name": "stack10_ghost_1_cheap_relu", "trainable": true, "dtype": "float32", "activation": "relu"}, "name": "stack10_ghost_1_cheap_relu", "inbound_nodes": [[["stack10_ghost_1_cheap_bn", 0, 0, {}]]]}, {"class_name": "Concatenate", "config": {"name": "concatenate_18", "trainable": true, "dtype": "float32", "axis": -1}, "name": "concatenate_18", "inbound_nodes": [[["stack10_ghost_1_prim_relu", 0, 0, {}], ["stack10_ghost_1_cheap_relu", 0, 0, {}]]]}, {"class_name": "TFOpLambda", "config": {"name": "tf.math.reduce_mean_2", "trainable": true, "dtype": "float32", "function": "math.reduce_mean"}, "name": "tf.math.reduce_mean_2", "inbound_nodes": [["concatenate_18", 0, 0, {"axis": [1, 2], "keepdims": true}]]}, {"class_name": "Conv2D", "config": {"name": "stack10_se_1_conv", "trainable": true, "dtype": "float32", "filters": 60, "kernel_size": [1, 1], "strides": [1, 1], "padding": "valid", "data_format": "channels_last", "dilation_rate": [1, 1], "groups": 1, "activation": "linear", "use_bias": true, "kernel_initializer": {"class_name": "VarianceScaling", "config": {"scale": 2.0, "mode": "fan_out", "distribution": "truncated_normal", "seed": null}, "shared_object_id": 2}, "bias_initializer": {"class_name": "Zeros", "config": {}}, "kernel_regularizer": null, "bias_regularizer": null, "activity_regularizer": null, "kernel_constraint": null, "bias_constraint": null}, "name": "stack10_se_1_conv", "inbound_nodes": [[["tf.math.reduce_mean_2", 0, 0, {}]]]}, {"class_name": "Activation", "config": {"name": "stack10_se_relu", "trainable": true, "dtype": "float32", "activation": "relu"}, "name": "stack10_se_relu", "inbound_nodes": [[["stack10_se_1_conv", 0, 0, {}]]]}, {"class_name": "Conv2D", "config": {"name": "stack10_se_2_conv", "trainable": true, "dtype": "float32", "filters": 240, "kernel_size": [1, 1], "strides": [1, 1], "padding": "valid", "data_format": "channels_last", "dilation_rate": [1, 1], "groups": 1, "activation": "linear", "use_bias": true, "kernel_initializer": {"class_name": "VarianceScaling", "config": {"scale": 2.0, "mode": "fan_out", "distribution": "truncated_normal", "seed": null}, "shared_object_id": 2}, "bias_initializer": {"class_name": "Zeros", "config": {}}, "kernel_regularizer": null, "bias_regularizer": null, "activity_regularizer": null, "kernel_constraint": null, "bias_constraint": null}, "name": "stack10_se_2_conv", "inbound_nodes": [[["stack10_se_relu", 0, 0, {}]]]}, {"class_name": "Activation", "config": {"name": "stack10_se_hard_sigmoid_torch", "trainable": true, "dtype": "float32", "activation": "kecamCommon>hard_sigmoid_torch"}, "name": "stack10_se_hard_sigmoid_torch", "inbound_nodes": [[["stack10_se_2_conv", 0, 0, {}]]]}, {"class_name": "Multiply", "config": {"name": "stack10_se_out", "trainable": true, "dtype": "float32"}, "name": "stack10_se_out", "inbound_nodes": [[["concatenate_18", 0, 0, {}], ["stack10_se_hard_sigmoid_torch", 0, 0, {}]]]}, {"class_name": "Conv2D", "config": {"name": "stack10_ghost_2_prim_conv", "trainable": true, "dtype": "float32", "filters": 28, "kernel_size": [1, 1], "strides": [1, 1], "padding": "valid", "data_format": "channels_last", "dilation_rate": [1, 1], "groups": 1, "activation": "linear", "use_bias": false, "kernel_initializer": {"class_name": "VarianceScaling", "config": {"scale": 2.0, "mode": "fan_out", "distribution": "truncated_normal", "seed": null}, "shared_object_id": 2}, "bias_initializer": {"class_name": "Zeros", "config": {}}, "kernel_regularizer": null, "bias_regularizer": null, "activity_regularizer": null, "kernel_constraint": null, "bias_constraint": null}, "name": "stack10_ghost_2_prim_conv", "inbound_nodes": [[["stack10_se_out", 0, 0, {}]]]}, {"class_name": "ZeroPadding2D", "config": {"name": "stack10_short_1_dw_pad", "trainable": true, "dtype": "float32", "padding": [[1, 1], [1, 1]], "data_format": "channels_last"}, "name": "stack10_short_1_dw_pad", "inbound_nodes": [[["stack9_output", 0, 0, {}]]]}, {"class_name": "BatchNormalization", "config": {"name": "stack10_ghost_2_prim_bn", "trainable": true, "dtype": "float32", "axis": [3], "momentum": 0.9, "epsilon": 1e-05, "center": true, "scale": true, "beta_initializer": {"class_name": "Zeros", "config": {}}, "gamma_initializer": {"class_name": "Ones", "config": {}}, "moving_mean_initializer": {"class_name": "Zeros", "config": {}}, "moving_variance_initializer": {"class_name": "Ones", "config": {}}, "beta_regularizer": null, "gamma_regularizer": null, "beta_constraint": null, "gamma_constraint": null}, "name": "stack10_ghost_2_prim_bn", "inbound_nodes": [[["stack10_ghost_2_prim_conv", 0, 0, {}]]]}, {"class_name": "DepthwiseConv2D", "config": {"name": "stack10_short_1_dw_conv", "trainable": true, "dtype": "float32", "kernel_size": [3, 3], "strides": [1, 1], "padding": "valid", "data_format": "channels_last", "dilation_rate": [1, 1], "groups": 1, "activation": "linear", "use_bias": false, "bias_initializer": {"class_name": "Zeros", "config": {}}, "bias_regularizer": null, "activity_regularizer": null, "bias_constraint": null, "depth_multiplier": 1, "depthwise_initializer": {"class_name": "GlorotUniform", "config": {"seed": null}}, "depthwise_regularizer": null, "depthwise_constraint": null}, "name": "stack10_short_1_dw_conv", "inbound_nodes": [[["stack10_short_1_dw_pad", 0, 0, {}]]]}, {"class_name": "ZeroPadding2D", "config": {"name": "stack10_ghost_2_cheap_dw_pad", "trainable": true, "dtype": "float32", "padding": [[1, 1], [1, 1]], "data_format": "channels_last"}, "name": "stack10_ghost_2_cheap_dw_pad", "inbound_nodes": [[["stack10_ghost_2_prim_bn", 0, 0, {}]]]}, {"class_name": "BatchNormalization", "config": {"name": "stack10_short_1_bn", "trainable": true, "dtype": "float32", "axis": [3], "momentum": 0.9, "epsilon": 1e-05, "center": true, "scale": true, "beta_initializer": {"class_name": "Zeros", "config": {}}, "gamma_initializer": {"class_name": "Ones", "config": {}}, "moving_mean_initializer": {"class_name": "Zeros", "config": {}}, "moving_variance_initializer": {"class_name": "Ones", "config": {}}, "beta_regularizer": null, "gamma_regularizer": null, "beta_constraint": null, "gamma_constraint": null}, "name": "stack10_short_1_bn", "inbound_nodes": [[["stack10_short_1_dw_conv", 0, 0, {}]]]}, {"class_name": "DepthwiseConv2D", "config": {"name": "stack10_ghost_2_cheap_dw_conv", "trainable": true, "dtype": "float32", "kernel_size": [3, 3], "strides": [1, 1], "padding": "valid", "data_format": "channels_last", "dilation_rate": [1, 1], "groups": 1, "activation": "linear", "use_bias": false, "bias_initializer": {"class_name": "Zeros", "config": {}}, "bias_regularizer": null, "activity_regularizer": null, "bias_constraint": null, "depth_multiplier": 1, "depthwise_initializer": {"class_name": "GlorotUniform", "config": {"seed": null}}, "depthwise_regularizer": null, "depthwise_constraint": null}, "name": "stack10_ghost_2_cheap_dw_conv", "inbound_nodes": [[["stack10_ghost_2_cheap_dw_pad", 0, 0, {}]]]}, {"class_name": "Conv2D", "config": {"name": "stack10_short_2_conv", "trainable": true, "dtype": "float32", "filters": 56, "kernel_size": [1, 1], "strides": [1, 1], "padding": "valid", "data_format": "channels_last", "dilation_rate": [1, 1], "groups": 1, "activation": "linear", "use_bias": false, "kernel_initializer": {"class_name": "VarianceScaling", "config": {"scale": 2.0, "mode": "fan_out", "distribution": "truncated_normal", "seed": null}, "shared_object_id": 2}, "bias_initializer": {"class_name": "Zeros", "config": {}}, "kernel_regularizer": null, "bias_regularizer": null, "activity_regularizer": null, "kernel_constraint": null, "bias_constraint": null}, "name": "stack10_short_2_conv", "inbound_nodes": [[["stack10_short_1_bn", 0, 0, {}]]]}, {"class_name": "BatchNormalization", "config": {"name": "stack10_ghost_2_cheap_bn", "trainable": true, "dtype": "float32", "axis": [3], "momentum": 0.9, "epsilon": 1e-05, "center": true, "scale": true, "beta_initializer": {"class_name": "Zeros", "config": {}}, "gamma_initializer": {"class_name": "Ones", "config": {}}, "moving_mean_initializer": {"class_name": "Zeros", "config": {}}, "moving_variance_initializer": {"class_name": "Ones", "config": {}}, "beta_regularizer": null, "gamma_regularizer": null, "beta_constraint": null, "gamma_constraint": null}, "name": "stack10_ghost_2_cheap_bn", "inbound_nodes": [[["stack10_ghost_2_cheap_dw_conv", 0, 0, {}]]]}, {"class_name": "BatchNormalization", "config": {"name": "stack10_short_2_bn", "trainable": true, "dtype": "float32", "axis": [3], "momentum": 0.9, "epsilon": 1e-05, "center": true, "scale": true, "beta_initializer": {"class_name": "Zeros", "config": {}}, "gamma_initializer": {"class_name": "Ones", "config": {}}, "moving_mean_initializer": {"class_name": "Zeros", "config": {}}, "moving_variance_initializer": {"class_name": "Ones", "config": {}}, "beta_regularizer": null, "gamma_regularizer": null, "beta_constraint": null, "gamma_constraint": null}, "name": "stack10_short_2_bn", "inbound_nodes": [[["stack10_short_2_conv", 0, 0, {}]]]}, {"class_name": "Concatenate", "config": {"name": "concatenate_19", "trainable": true, "dtype": "float32", "axis": -1}, "name": "concatenate_19", "inbound_nodes": [[["stack10_ghost_2_prim_bn", 0, 0, {}], ["stack10_ghost_2_cheap_bn", 0, 0, {}]]]}, {"class_name": "Add", "config": {"name": "stack10_output", "trainable": true, "dtype": "float32"}, "name": "stack10_output", "inbound_nodes": [[["stack10_short_2_bn", 0, 0, {}], ["concatenate_19", 0, 0, {}]]]}, {"class_name": "Conv2D", "config": {"name": "stack11_ghost_1_prim_conv", "trainable": true, "dtype": "float32", "filters": 168, "kernel_size": [1, 1], "strides": [1, 1], "padding": "valid", "data_format": "channels_last", "dilation_rate": [1, 1], "groups": 1, "activation": "linear", "use_bias": false, "kernel_initializer": {"class_name": "VarianceScaling", "config": {"scale": 2.0, "mode": "fan_out", "distribution": "truncated_normal", "seed": null}, "shared_object_id": 2}, "bias_initializer": {"class_name": "Zeros", "config": {}}, "kernel_regularizer": null, "bias_regularizer": null, "activity_regularizer": null, "kernel_constraint": null, "bias_constraint": null}, "name": "stack11_ghost_1_prim_conv", "inbound_nodes": [[["stack10_output", 0, 0, {}]]]}, {"class_name": "BatchNormalization", "config": {"name": "stack11_ghost_1_prim_bn", "trainable": true, "dtype": "float32", "axis": [3], "momentum": 0.9, "epsilon": 1e-05, "center": true, "scale": true, "beta_initializer": {"class_name": "Zeros", "config": {}}, "gamma_initializer": {"class_name": "Ones", "config": {}}, "moving_mean_initializer": {"class_name": "Zeros", "config": {}}, "moving_variance_initializer": {"class_name": "Ones", "config": {}}, "beta_regularizer": null, "gamma_regularizer": null, "beta_constraint": null, "gamma_constraint": null}, "name": "stack11_ghost_1_prim_bn", "inbound_nodes": [[["stack11_ghost_1_prim_conv", 0, 0, {}]]]}, {"class_name": "Activation", "config": {"name": "stack11_ghost_1_prim_relu", "trainable": true, "dtype": "float32", "activation": "relu"}, "name": "stack11_ghost_1_prim_relu", "inbound_nodes": [[["stack11_ghost_1_prim_bn", 0, 0, {}]]]}, {"class_name": "ZeroPadding2D", "config": {"name": "stack11_ghost_1_cheap_dw_pad", "trainable": true, "dtype": "float32", "padding": [[1, 1], [1, 1]], "data_format": "channels_last"}, "name": "stack11_ghost_1_cheap_dw_pad", "inbound_nodes": [[["stack11_ghost_1_prim_relu", 0, 0, {}]]]}, {"class_name": "DepthwiseConv2D", "config": {"name": "stack11_ghost_1_cheap_dw_conv", "trainable": true, "dtype": "float32", "kernel_size": [3, 3], "strides": [1, 1], "padding": "valid", "data_format": "channels_last", "dilation_rate": [1, 1], "groups": 1, "activation": "linear", "use_bias": false, "bias_initializer": {"class_name": "Zeros", "config": {}}, "bias_regularizer": null, "activity_regularizer": null, "bias_constraint": null, "depth_multiplier": 1, "depthwise_initializer": {"class_name": "GlorotUniform", "config": {"seed": null}}, "depthwise_regularizer": null, "depthwise_constraint": null}, "name": "stack11_ghost_1_cheap_dw_conv", "inbound_nodes": [[["stack11_ghost_1_cheap_dw_pad", 0, 0, {}]]]}, {"class_name": "BatchNormalization", "config": {"name": "stack11_ghost_1_cheap_bn", "trainable": true, "dtype": "float32", "axis": [3], "momentum": 0.9, "epsilon": 1e-05, "center": true, "scale": true, "beta_initializer": {"class_name": "Zeros", "config": {}}, "gamma_initializer": {"class_name": "Ones", "config": {}}, "moving_mean_initializer": {"class_name": "Zeros", "config": {}}, "moving_variance_initializer": {"class_name": "Ones", "config": {}}, "beta_regularizer": null, "gamma_regularizer": null, "beta_constraint": null, "gamma_constraint": null}, "name": "stack11_ghost_1_cheap_bn", "inbound_nodes": [[["stack11_ghost_1_cheap_dw_conv", 0, 0, {}]]]}, {"class_name": "Activation", "config": {"name": "stack11_ghost_1_cheap_relu", "trainable": true, "dtype": "float32", "activation": "relu"}, "name": "stack11_ghost_1_cheap_relu", "inbound_nodes": [[["stack11_ghost_1_cheap_bn", 0, 0, {}]]]}, {"class_name": "Concatenate", "config": {"name": "concatenate_20", "trainable": true, "dtype": "float32", "axis": -1}, "name": "concatenate_20", "inbound_nodes": [[["stack11_ghost_1_prim_relu", 0, 0, {}], ["stack11_ghost_1_cheap_relu", 0, 0, {}]]]}, {"class_name": "TFOpLambda", "config": {"name": "tf.math.reduce_mean_3", "trainable": true, "dtype": "float32", "function": "math.reduce_mean"}, "name": "tf.math.reduce_mean_3", "inbound_nodes": [["concatenate_20", 0, 0, {"axis": [1, 2], "keepdims": true}]]}, {"class_name": "Conv2D", "config": {"name": "stack11_se_1_conv", "trainable": true, "dtype": "float32", "filters": 84, "kernel_size": [1, 1], "strides": [1, 1], "padding": "valid", "data_format": "channels_last", "dilation_rate": [1, 1], "groups": 1, "activation": "linear", "use_bias": true, "kernel_initializer": {"class_name": "VarianceScaling", "config": {"scale": 2.0, "mode": "fan_out", "distribution": "truncated_normal", "seed": null}, "shared_object_id": 2}, "bias_initializer": {"class_name": "Zeros", "config": {}}, "kernel_regularizer": null, "bias_regularizer": null, "activity_regularizer": null, "kernel_constraint": null, "bias_constraint": null}, "name": "stack11_se_1_conv", "inbound_nodes": [[["tf.math.reduce_mean_3", 0, 0, {}]]]}, {"class_name": "Activation", "config": {"name": "stack11_se_relu", "trainable": true, "dtype": "float32", "activation": "relu"}, "name": "stack11_se_relu", "inbound_nodes": [[["stack11_se_1_conv", 0, 0, {}]]]}, {"class_name": "Conv2D", "config": {"name": "stack11_se_2_conv", "trainable": true, "dtype": "float32", "filters": 336, "kernel_size": [1, 1], "strides": [1, 1], "padding": "valid", "data_format": "channels_last", "dilation_rate": [1, 1], "groups": 1, "activation": "linear", "use_bias": true, "kernel_initializer": {"class_name": "VarianceScaling", "config": {"scale": 2.0, "mode": "fan_out", "distribution": "truncated_normal", "seed": null}, "shared_object_id": 2}, "bias_initializer": {"class_name": "Zeros", "config": {}}, "kernel_regularizer": null, "bias_regularizer": null, "activity_regularizer": null, "kernel_constraint": null, "bias_constraint": null}, "name": "stack11_se_2_conv", "inbound_nodes": [[["stack11_se_relu", 0, 0, {}]]]}, {"class_name": "Activation", "config": {"name": "stack11_se_hard_sigmoid_torch", "trainable": true, "dtype": "float32", "activation": "kecamCommon>hard_sigmoid_torch"}, "name": "stack11_se_hard_sigmoid_torch", "inbound_nodes": [[["stack11_se_2_conv", 0, 0, {}]]]}, {"class_name": "Multiply", "config": {"name": "stack11_se_out", "trainable": true, "dtype": "float32"}, "name": "stack11_se_out", "inbound_nodes": [[["concatenate_20", 0, 0, {}], ["stack11_se_hard_sigmoid_torch", 0, 0, {}]]]}, {"class_name": "Conv2D", "config": {"name": "stack11_ghost_2_prim_conv", "trainable": true, "dtype": "float32", "filters": 28, "kernel_size": [1, 1], "strides": [1, 1], "padding": "valid", "data_format": "channels_last", "dilation_rate": [1, 1], "groups": 1, "activation": "linear", "use_bias": false, "kernel_initializer": {"class_name": "VarianceScaling", "config": {"scale": 2.0, "mode": "fan_out", "distribution": "truncated_normal", "seed": null}, "shared_object_id": 2}, "bias_initializer": {"class_name": "Zeros", "config": {}}, "kernel_regularizer": null, "bias_regularizer": null, "activity_regularizer": null, "kernel_constraint": null, "bias_constraint": null}, "name": "stack11_ghost_2_prim_conv", "inbound_nodes": [[["stack11_se_out", 0, 0, {}]]]}, {"class_name": "BatchNormalization", "config": {"name": "stack11_ghost_2_prim_bn", "trainable": true, "dtype": "float32", "axis": [3], "momentum": 0.9, "epsilon": 1e-05, "center": true, "scale": true, "beta_initializer": {"class_name": "Zeros", "config": {}}, "gamma_initializer": {"class_name": "Ones", "config": {}}, "moving_mean_initializer": {"class_name": "Zeros", "config": {}}, "moving_variance_initializer": {"class_name": "Ones", "config": {}}, "beta_regularizer": null, "gamma_regularizer": null, "beta_constraint": null, "gamma_constraint": null}, "name": "stack11_ghost_2_prim_bn", "inbound_nodes": [[["stack11_ghost_2_prim_conv", 0, 0, {}]]]}, {"class_name": "ZeroPadding2D", "config": {"name": "stack11_ghost_2_cheap_dw_pad", "trainable": true, "dtype": "float32", "padding": [[1, 1], [1, 1]], "data_format": "channels_last"}, "name": "stack11_ghost_2_cheap_dw_pad", "inbound_nodes": [[["stack11_ghost_2_prim_bn", 0, 0, {}]]]}, {"class_name": "DepthwiseConv2D", "config": {"name": "stack11_ghost_2_cheap_dw_conv", "trainable": true, "dtype": "float32", "kernel_size": [3, 3], "strides": [1, 1], "padding": "valid", "data_format": "channels_last", "dilation_rate": [1, 1], "groups": 1, "activation": "linear", "use_bias": false, "bias_initializer": {"class_name": "Zeros", "config": {}}, "bias_regularizer": null, "activity_regularizer": null, "bias_constraint": null, "depth_multiplier": 1, "depthwise_initializer": {"class_name": "GlorotUniform", "config": {"seed": null}}, "depthwise_regularizer": null, "depthwise_constraint": null}, "name": "stack11_ghost_2_cheap_dw_conv", "inbound_nodes": [[["stack11_ghost_2_cheap_dw_pad", 0, 0, {}]]]}, {"class_name": "BatchNormalization", "config": {"name": "stack11_ghost_2_cheap_bn", "trainable": true, "dtype": "float32", "axis": [3], "momentum": 0.9, "epsilon": 1e-05, "center": true, "scale": true, "beta_initializer": {"class_name": "Zeros", "config": {}}, "gamma_initializer": {"class_name": "Ones", "config": {}}, "moving_mean_initializer": {"class_name": "Zeros", "config": {}}, "moving_variance_initializer": {"class_name": "Ones", "config": {}}, "beta_regularizer": null, "gamma_regularizer": null, "beta_constraint": null, "gamma_constraint": null}, "name": "stack11_ghost_2_cheap_bn", "inbound_nodes": [[["stack11_ghost_2_cheap_dw_conv", 0, 0, {}]]]}, {"class_name": "Concatenate", "config": {"name": "concatenate_21", "trainable": true, "dtype": "float32", "axis": -1}, "name": "concatenate_21", "inbound_nodes": [[["stack11_ghost_2_prim_bn", 0, 0, {}], ["stack11_ghost_2_cheap_bn", 0, 0, {}]]]}, {"class_name": "Add", "config": {"name": "stack11_output", "trainable": true, "dtype": "float32"}, "name": "stack11_output", "inbound_nodes": [[["stack10_output", 0, 0, {}], ["concatenate_21", 0, 0, {}]]]}, {"class_name": "Conv2D", "config": {"name": "stack12_ghost_1_prim_conv", "trainable": true, "dtype": "float32", "filters": 168, "kernel_size": [1, 1], "strides": [1, 1], "padding": "valid", "data_format": "channels_last", "dilation_rate": [1, 1], "groups": 1, "activation": "linear", "use_bias": false, "kernel_initializer": {"class_name": "VarianceScaling", "config": {"scale": 2.0, "mode": "fan_out", "distribution": "truncated_normal", "seed": null}, "shared_object_id": 2}, "bias_initializer": {"class_name": "Zeros", "config": {}}, "kernel_regularizer": null, "bias_regularizer": null, "activity_regularizer": null, "kernel_constraint": null, "bias_constraint": null}, "name": "stack12_ghost_1_prim_conv", "inbound_nodes": [[["stack11_output", 0, 0, {}]]]}, {"class_name": "BatchNormalization", "config": {"name": "stack12_ghost_1_prim_bn", "trainable": true, "dtype": "float32", "axis": [3], "momentum": 0.9, "epsilon": 1e-05, "center": true, "scale": true, "beta_initializer": {"class_name": "Zeros", "config": {}}, "gamma_initializer": {"class_name": "Ones", "config": {}}, "moving_mean_initializer": {"class_name": "Zeros", "config": {}}, "moving_variance_initializer": {"class_name": "Ones", "config": {}}, "beta_regularizer": null, "gamma_regularizer": null, "beta_constraint": null, "gamma_constraint": null}, "name": "stack12_ghost_1_prim_bn", "inbound_nodes": [[["stack12_ghost_1_prim_conv", 0, 0, {}]]]}, {"class_name": "Activation", "config": {"name": "stack12_ghost_1_prim_relu", "trainable": true, "dtype": "float32", "activation": "relu"}, "name": "stack12_ghost_1_prim_relu", "inbound_nodes": [[["stack12_ghost_1_prim_bn", 0, 0, {}]]]}, {"class_name": "ZeroPadding2D", "config": {"name": "stack12_ghost_1_cheap_dw_pad", "trainable": true, "dtype": "float32", "padding": [[1, 1], [1, 1]], "data_format": "channels_last"}, "name": "stack12_ghost_1_cheap_dw_pad", "inbound_nodes": [[["stack12_ghost_1_prim_relu", 0, 0, {}]]]}, {"class_name": "DepthwiseConv2D", "config": {"name": "stack12_ghost_1_cheap_dw_conv", "trainable": true, "dtype": "float32", "kernel_size": [3, 3], "strides": [1, 1], "padding": "valid", "data_format": "channels_last", "dilation_rate": [1, 1], "groups": 1, "activation": "linear", "use_bias": false, "bias_initializer": {"class_name": "Zeros", "config": {}}, "bias_regularizer": null, "activity_regularizer": null, "bias_constraint": null, "depth_multiplier": 1, "depthwise_initializer": {"class_name": "GlorotUniform", "config": {"seed": null}}, "depthwise_regularizer": null, "depthwise_constraint": null}, "name": "stack12_ghost_1_cheap_dw_conv", "inbound_nodes": [[["stack12_ghost_1_cheap_dw_pad", 0, 0, {}]]]}, {"class_name": "BatchNormalization", "config": {"name": "stack12_ghost_1_cheap_bn", "trainable": true, "dtype": "float32", "axis": [3], "momentum": 0.9, "epsilon": 1e-05, "center": true, "scale": true, "beta_initializer": {"class_name": "Zeros", "config": {}}, "gamma_initializer": {"class_name": "Ones", "config": {}}, "moving_mean_initializer": {"class_name": "Zeros", "config": {}}, "moving_variance_initializer": {"class_name": "Ones", "config": {}}, "beta_regularizer": null, "gamma_regularizer": null, "beta_constraint": null, "gamma_constraint": null}, "name": "stack12_ghost_1_cheap_bn", "inbound_nodes": [[["stack12_ghost_1_cheap_dw_conv", 0, 0, {}]]]}, {"class_name": "Activation", "config": {"name": "stack12_ghost_1_cheap_relu", "trainable": true, "dtype": "float32", "activation": "relu"}, "name": "stack12_ghost_1_cheap_relu", "inbound_nodes": [[["stack12_ghost_1_cheap_bn", 0, 0, {}]]]}, {"class_name": "Concatenate", "config": {"name": "concatenate_22", "trainable": true, "dtype": "float32", "axis": -1}, "name": "concatenate_22", "inbound_nodes": [[["stack12_ghost_1_prim_relu", 0, 0, {}], ["stack12_ghost_1_cheap_relu", 0, 0, {}]]]}, {"class_name": "ZeroPadding2D", "config": {"name": "stack12_down_dw_pad", "trainable": true, "dtype": "float32", "padding": [[2, 2], [2, 2]], "data_format": "channels_last"}, "name": "stack12_down_dw_pad", "inbound_nodes": [[["concatenate_22", 0, 0, {}]]]}, {"class_name": "DepthwiseConv2D", "config": {"name": "stack12_down_dw_conv", "trainable": true, "dtype": "float32", "kernel_size": [5, 5], "strides": [2, 2], "padding": "valid", "data_format": "channels_last", "dilation_rate": [1, 1], "groups": 1, "activation": "linear", "use_bias": false, "bias_initializer": {"class_name": "Zeros", "config": {}}, "bias_regularizer": null, "activity_regularizer": null, "bias_constraint": null, "depth_multiplier": 1, "depthwise_initializer": {"class_name": "GlorotUniform", "config": {"seed": null}}, "depthwise_regularizer": null, "depthwise_constraint": null}, "name": "stack12_down_dw_conv", "inbound_nodes": [[["stack12_down_dw_pad", 0, 0, {}]]]}, {"class_name": "BatchNormalization", "config": {"name": "stack12_down_bn", "trainable": true, "dtype": "float32", "axis": [3], "momentum": 0.9, "epsilon": 1e-05, "center": true, "scale": true, "beta_initializer": {"class_name": "Zeros", "config": {}}, "gamma_initializer": {"class_name": "Ones", "config": {}}, "moving_mean_initializer": {"class_name": "Zeros", "config": {}}, "moving_variance_initializer": {"class_name": "Ones", "config": {}}, "beta_regularizer": null, "gamma_regularizer": null, "beta_constraint": null, "gamma_constraint": null}, "name": "stack12_down_bn", "inbound_nodes": [[["stack12_down_dw_conv", 0, 0, {}]]]}, {"class_name": "TFOpLambda", "config": {"name": "tf.math.reduce_mean_4", "trainable": true, "dtype": "float32", "function": "math.reduce_mean"}, "name": "tf.math.reduce_mean_4", "inbound_nodes": [["stack12_down_bn", 0, 0, {"axis": [1, 2], "keepdims": true}]]}, {"class_name": "Conv2D", "config": {"name": "stack12_se_1_conv", "trainable": true, "dtype": "float32", "filters": 84, "kernel_size": [1, 1], "strides": [1, 1], "padding": "valid", "data_format": "channels_last", "dilation_rate": [1, 1], "groups": 1, "activation": "linear", "use_bias": true, "kernel_initializer": {"class_name": "VarianceScaling", "config": {"scale": 2.0, "mode": "fan_out", "distribution": "truncated_normal", "seed": null}, "shared_object_id": 2}, "bias_initializer": {"class_name": "Zeros", "config": {}}, "kernel_regularizer": null, "bias_regularizer": null, "activity_regularizer": null, "kernel_constraint": null, "bias_constraint": null}, "name": "stack12_se_1_conv", "inbound_nodes": [[["tf.math.reduce_mean_4", 0, 0, {}]]]}, {"class_name": "Activation", "config": {"name": "stack12_se_relu", "trainable": true, "dtype": "float32", "activation": "relu"}, "name": "stack12_se_relu", "inbound_nodes": [[["stack12_se_1_conv", 0, 0, {}]]]}, {"class_name": "Conv2D", "config": {"name": "stack12_se_2_conv", "trainable": true, "dtype": "float32", "filters": 336, "kernel_size": [1, 1], "strides": [1, 1], "padding": "valid", "data_format": "channels_last", "dilation_rate": [1, 1], "groups": 1, "activation": "linear", "use_bias": true, "kernel_initializer": {"class_name": "VarianceScaling", "config": {"scale": 2.0, "mode": "fan_out", "distribution": "truncated_normal", "seed": null}, "shared_object_id": 2}, "bias_initializer": {"class_name": "Zeros", "config": {}}, "kernel_regularizer": null, "bias_regularizer": null, "activity_regularizer": null, "kernel_constraint": null, "bias_constraint": null}, "name": "stack12_se_2_conv", "inbound_nodes": [[["stack12_se_relu", 0, 0, {}]]]}, {"class_name": "Activation", "config": {"name": "stack12_se_hard_sigmoid_torch", "trainable": true, "dtype": "float32", "activation": "kecamCommon>hard_sigmoid_torch"}, "name": "stack12_se_hard_sigmoid_torch", "inbound_nodes": [[["stack12_se_2_conv", 0, 0, {}]]]}, {"class_name": "Multiply", "config": {"name": "stack12_se_out", "trainable": true, "dtype": "float32"}, "name": "stack12_se_out", "inbound_nodes": [[["stack12_down_bn", 0, 0, {}], ["stack12_se_hard_sigmoid_torch", 0, 0, {}]]]}, {"class_name": "Conv2D", "config": {"name": "stack12_ghost_2_prim_conv", "trainable": true, "dtype": "float32", "filters": 40, "kernel_size": [1, 1], "strides": [1, 1], "padding": "valid", "data_format": "channels_last", "dilation_rate": [1, 1], "groups": 1, "activation": "linear", "use_bias": false, "kernel_initializer": {"class_name": "VarianceScaling", "config": {"scale": 2.0, "mode": "fan_out", "distribution": "truncated_normal", "seed": null}, "shared_object_id": 2}, "bias_initializer": {"class_name": "Zeros", "config": {}}, "kernel_regularizer": null, "bias_regularizer": null, "activity_regularizer": null, "kernel_constraint": null, "bias_constraint": null}, "name": "stack12_ghost_2_prim_conv", "inbound_nodes": [[["stack12_se_out", 0, 0, {}]]]}, {"class_name": "ZeroPadding2D", "config": {"name": "stack12_short_1_dw_pad", "trainable": true, "dtype": "float32", "padding": [[2, 2], [2, 2]], "data_format": "channels_last"}, "name": "stack12_short_1_dw_pad", "inbound_nodes": [[["stack11_output", 0, 0, {}]]]}, {"class_name": "BatchNormalization", "config": {"name": "stack12_ghost_2_prim_bn", "trainable": true, "dtype": "float32", "axis": [3], "momentum": 0.9, "epsilon": 1e-05, "center": true, "scale": true, "beta_initializer": {"class_name": "Zeros", "config": {}}, "gamma_initializer": {"class_name": "Ones", "config": {}}, "moving_mean_initializer": {"class_name": "Zeros", "config": {}}, "moving_variance_initializer": {"class_name": "Ones", "config": {}}, "beta_regularizer": null, "gamma_regularizer": null, "beta_constraint": null, "gamma_constraint": null}, "name": "stack12_ghost_2_prim_bn", "inbound_nodes": [[["stack12_ghost_2_prim_conv", 0, 0, {}]]]}, {"class_name": "DepthwiseConv2D", "config": {"name": "stack12_short_1_dw_conv", "trainable": true, "dtype": "float32", "kernel_size": [5, 5], "strides": [2, 2], "padding": "valid", "data_format": "channels_last", "dilation_rate": [1, 1], "groups": 1, "activation": "linear", "use_bias": false, "bias_initializer": {"class_name": "Zeros", "config": {}}, "bias_regularizer": null, "activity_regularizer": null, "bias_constraint": null, "depth_multiplier": 1, "depthwise_initializer": {"class_name": "GlorotUniform", "config": {"seed": null}}, "depthwise_regularizer": null, "depthwise_constraint": null}, "name": "stack12_short_1_dw_conv", "inbound_nodes": [[["stack12_short_1_dw_pad", 0, 0, {}]]]}, {"class_name": "ZeroPadding2D", "config": {"name": "stack12_ghost_2_cheap_dw_pad", "trainable": true, "dtype": "float32", "padding": [[1, 1], [1, 1]], "data_format": "channels_last"}, "name": "stack12_ghost_2_cheap_dw_pad", "inbound_nodes": [[["stack12_ghost_2_prim_bn", 0, 0, {}]]]}, {"class_name": "BatchNormalization", "config": {"name": "stack12_short_1_bn", "trainable": true, "dtype": "float32", "axis": [3], "momentum": 0.9, "epsilon": 1e-05, "center": true, "scale": true, "beta_initializer": {"class_name": "Zeros", "config": {}}, "gamma_initializer": {"class_name": "Ones", "config": {}}, "moving_mean_initializer": {"class_name": "Zeros", "config": {}}, "moving_variance_initializer": {"class_name": "Ones", "config": {}}, "beta_regularizer": null, "gamma_regularizer": null, "beta_constraint": null, "gamma_constraint": null}, "name": "stack12_short_1_bn", "inbound_nodes": [[["stack12_short_1_dw_conv", 0, 0, {}]]]}, {"class_name": "DepthwiseConv2D", "config": {"name": "stack12_ghost_2_cheap_dw_conv", "trainable": true, "dtype": "float32", "kernel_size": [3, 3], "strides": [1, 1], "padding": "valid", "data_format": "channels_last", "dilation_rate": [1, 1], "groups": 1, "activation": "linear", "use_bias": false, "bias_initializer": {"class_name": "Zeros", "config": {}}, "bias_regularizer": null, "activity_regularizer": null, "bias_constraint": null, "depth_multiplier": 1, "depthwise_initializer": {"class_name": "GlorotUniform", "config": {"seed": null}}, "depthwise_regularizer": null, "depthwise_constraint": null}, "name": "stack12_ghost_2_cheap_dw_conv", "inbound_nodes": [[["stack12_ghost_2_cheap_dw_pad", 0, 0, {}]]]}, {"class_name": "Conv2D", "config": {"name": "stack12_short_2_conv", "trainable": true, "dtype": "float32", "filters": 80, "kernel_size": [1, 1], "strides": [1, 1], "padding": "valid", "data_format": "channels_last", "dilation_rate": [1, 1], "groups": 1, "activation": "linear", "use_bias": false, "kernel_initializer": {"class_name": "VarianceScaling", "config": {"scale": 2.0, "mode": "fan_out", "distribution": "truncated_normal", "seed": null}, "shared_object_id": 2}, "bias_initializer": {"class_name": "Zeros", "config": {}}, "kernel_regularizer": null, "bias_regularizer": null, "activity_regularizer": null, "kernel_constraint": null, "bias_constraint": null}, "name": "stack12_short_2_conv", "inbound_nodes": [[["stack12_short_1_bn", 0, 0, {}]]]}, {"class_name": "BatchNormalization", "config": {"name": "stack12_ghost_2_cheap_bn", "trainable": true, "dtype": "float32", "axis": [3], "momentum": 0.9, "epsilon": 1e-05, "center": true, "scale": true, "beta_initializer": {"class_name": "Zeros", "config": {}}, "gamma_initializer": {"class_name": "Ones", "config": {}}, "moving_mean_initializer": {"class_name": "Zeros", "config": {}}, "moving_variance_initializer": {"class_name": "Ones", "config": {}}, "beta_regularizer": null, "gamma_regularizer": null, "beta_constraint": null, "gamma_constraint": null}, "name": "stack12_ghost_2_cheap_bn", "inbound_nodes": [[["stack12_ghost_2_cheap_dw_conv", 0, 0, {}]]]}, {"class_name": "BatchNormalization", "config": {"name": "stack12_short_2_bn", "trainable": true, "dtype": "float32", "axis": [3], "momentum": 0.9, "epsilon": 1e-05, "center": true, "scale": true, "beta_initializer": {"class_name": "Zeros", "config": {}}, "gamma_initializer": {"class_name": "Ones", "config": {}}, "moving_mean_initializer": {"class_name": "Zeros", "config": {}}, "moving_variance_initializer": {"class_name": "Ones", "config": {}}, "beta_regularizer": null, "gamma_regularizer": null, "beta_constraint": null, "gamma_constraint": null}, "name": "stack12_short_2_bn", "inbound_nodes": [[["stack12_short_2_conv", 0, 0, {}]]]}, {"class_name": "Concatenate", "config": {"name": "concatenate_23", "trainable": true, "dtype": "float32", "axis": -1}, "name": "concatenate_23", "inbound_nodes": [[["stack12_ghost_2_prim_bn", 0, 0, {}], ["stack12_ghost_2_cheap_bn", 0, 0, {}]]]}, {"class_name": "Add", "config": {"name": "stack12_output", "trainable": true, "dtype": "float32"}, "name": "stack12_output", "inbound_nodes": [[["stack12_short_2_bn", 0, 0, {}], ["concatenate_23", 0, 0, {}]]]}, {"class_name": "Conv2D", "config": {"name": "stack13_ghost_1_prim_conv", "trainable": true, "dtype": "float32", "filters": 240, "kernel_size": [1, 1], "strides": [1, 1], "padding": "valid", "data_format": "channels_last", "dilation_rate": [1, 1], "groups": 1, "activation": "linear", "use_bias": false, "kernel_initializer": {"class_name": "VarianceScaling", "config": {"scale": 2.0, "mode": "fan_out", "distribution": "truncated_normal", "seed": null}, "shared_object_id": 2}, "bias_initializer": {"class_name": "Zeros", "config": {}}, "kernel_regularizer": null, "bias_regularizer": null, "activity_regularizer": null, "kernel_constraint": null, "bias_constraint": null}, "name": "stack13_ghost_1_prim_conv", "inbound_nodes": [[["stack12_output", 0, 0, {}]]]}, {"class_name": "BatchNormalization", "config": {"name": "stack13_ghost_1_prim_bn", "trainable": true, "dtype": "float32", "axis": [3], "momentum": 0.9, "epsilon": 1e-05, "center": true, "scale": true, "beta_initializer": {"class_name": "Zeros", "config": {}}, "gamma_initializer": {"class_name": "Ones", "config": {}}, "moving_mean_initializer": {"class_name": "Zeros", "config": {}}, "moving_variance_initializer": {"class_name": "Ones", "config": {}}, "beta_regularizer": null, "gamma_regularizer": null, "beta_constraint": null, "gamma_constraint": null}, "name": "stack13_ghost_1_prim_bn", "inbound_nodes": [[["stack13_ghost_1_prim_conv", 0, 0, {}]]]}, {"class_name": "Activation", "config": {"name": "stack13_ghost_1_prim_relu", "trainable": true, "dtype": "float32", "activation": "relu"}, "name": "stack13_ghost_1_prim_relu", "inbound_nodes": [[["stack13_ghost_1_prim_bn", 0, 0, {}]]]}, {"class_name": "ZeroPadding2D", "config": {"name": "stack13_ghost_1_cheap_dw_pad", "trainable": true, "dtype": "float32", "padding": [[1, 1], [1, 1]], "data_format": "channels_last"}, "name": "stack13_ghost_1_cheap_dw_pad", "inbound_nodes": [[["stack13_ghost_1_prim_relu", 0, 0, {}]]]}, {"class_name": "DepthwiseConv2D", "config": {"name": "stack13_ghost_1_cheap_dw_conv", "trainable": true, "dtype": "float32", "kernel_size": [3, 3], "strides": [1, 1], "padding": "valid", "data_format": "channels_last", "dilation_rate": [1, 1], "groups": 1, "activation": "linear", "use_bias": false, "bias_initializer": {"class_name": "Zeros", "config": {}}, "bias_regularizer": null, "activity_regularizer": null, "bias_constraint": null, "depth_multiplier": 1, "depthwise_initializer": {"class_name": "GlorotUniform", "config": {"seed": null}}, "depthwise_regularizer": null, "depthwise_constraint": null}, "name": "stack13_ghost_1_cheap_dw_conv", "inbound_nodes": [[["stack13_ghost_1_cheap_dw_pad", 0, 0, {}]]]}, {"class_name": "BatchNormalization", "config": {"name": "stack13_ghost_1_cheap_bn", "trainable": true, "dtype": "float32", "axis": [3], "momentum": 0.9, "epsilon": 1e-05, "center": true, "scale": true, "beta_initializer": {"class_name": "Zeros", "config": {}}, "gamma_initializer": {"class_name": "Ones", "config": {}}, "moving_mean_initializer": {"class_name": "Zeros", "config": {}}, "moving_variance_initializer": {"class_name": "Ones", "config": {}}, "beta_regularizer": null, "gamma_regularizer": null, "beta_constraint": null, "gamma_constraint": null}, "name": "stack13_ghost_1_cheap_bn", "inbound_nodes": [[["stack13_ghost_1_cheap_dw_conv", 0, 0, {}]]]}, {"class_name": "Activation", "config": {"name": "stack13_ghost_1_cheap_relu", "trainable": true, "dtype": "float32", "activation": "relu"}, "name": "stack13_ghost_1_cheap_relu", "inbound_nodes": [[["stack13_ghost_1_cheap_bn", 0, 0, {}]]]}, {"class_name": "Concatenate", "config": {"name": "concatenate_24", "trainable": true, "dtype": "float32", "axis": -1}, "name": "concatenate_24", "inbound_nodes": [[["stack13_ghost_1_prim_relu", 0, 0, {}], ["stack13_ghost_1_cheap_relu", 0, 0, {}]]]}, {"class_name": "Conv2D", "config": {"name": "stack13_ghost_2_prim_conv", "trainable": true, "dtype": "float32", "filters": 40, "kernel_size": [1, 1], "strides": [1, 1], "padding": "valid", "data_format": "channels_last", "dilation_rate": [1, 1], "groups": 1, "activation": "linear", "use_bias": false, "kernel_initializer": {"class_name": "VarianceScaling", "config": {"scale": 2.0, "mode": "fan_out", "distribution": "truncated_normal", "seed": null}, "shared_object_id": 2}, "bias_initializer": {"class_name": "Zeros", "config": {}}, "kernel_regularizer": null, "bias_regularizer": null, "activity_regularizer": null, "kernel_constraint": null, "bias_constraint": null}, "name": "stack13_ghost_2_prim_conv", "inbound_nodes": [[["concatenate_24", 0, 0, {}]]]}, {"class_name": "BatchNormalization", "config": {"name": "stack13_ghost_2_prim_bn", "trainable": true, "dtype": "float32", "axis": [3], "momentum": 0.9, "epsilon": 1e-05, "center": true, "scale": true, "beta_initializer": {"class_name": "Zeros", "config": {}}, "gamma_initializer": {"class_name": "Ones", "config": {}}, "moving_mean_initializer": {"class_name": "Zeros", "config": {}}, "moving_variance_initializer": {"class_name": "Ones", "config": {}}, "beta_regularizer": null, "gamma_regularizer": null, "beta_constraint": null, "gamma_constraint": null}, "name": "stack13_ghost_2_prim_bn", "inbound_nodes": [[["stack13_ghost_2_prim_conv", 0, 0, {}]]]}, {"class_name": "ZeroPadding2D", "config": {"name": "stack13_ghost_2_cheap_dw_pad", "trainable": true, "dtype": "float32", "padding": [[1, 1], [1, 1]], "data_format": "channels_last"}, "name": "stack13_ghost_2_cheap_dw_pad", "inbound_nodes": [[["stack13_ghost_2_prim_bn", 0, 0, {}]]]}, {"class_name": "DepthwiseConv2D", "config": {"name": "stack13_ghost_2_cheap_dw_conv", "trainable": true, "dtype": "float32", "kernel_size": [3, 3], "strides": [1, 1], "padding": "valid", "data_format": "channels_last", "dilation_rate": [1, 1], "groups": 1, "activation": "linear", "use_bias": false, "bias_initializer": {"class_name": "Zeros", "config": {}}, "bias_regularizer": null, "activity_regularizer": null, "bias_constraint": null, "depth_multiplier": 1, "depthwise_initializer": {"class_name": "GlorotUniform", "config": {"seed": null}}, "depthwise_regularizer": null, "depthwise_constraint": null}, "name": "stack13_ghost_2_cheap_dw_conv", "inbound_nodes": [[["stack13_ghost_2_cheap_dw_pad", 0, 0, {}]]]}, {"class_name": "BatchNormalization", "config": {"name": "stack13_ghost_2_cheap_bn", "trainable": true, "dtype": "float32", "axis": [3], "momentum": 0.9, "epsilon": 1e-05, "center": true, "scale": true, "beta_initializer": {"class_name": "Zeros", "config": {}}, "gamma_initializer": {"class_name": "Ones", "config": {}}, "moving_mean_initializer": {"class_name": "Zeros", "config": {}}, "moving_variance_initializer": {"class_name": "Ones", "config": {}}, "beta_regularizer": null, "gamma_regularizer": null, "beta_constraint": null, "gamma_constraint": null}, "name": "stack13_ghost_2_cheap_bn", "inbound_nodes": [[["stack13_ghost_2_cheap_dw_conv", 0, 0, {}]]]}, {"class_name": "Concatenate", "config": {"name": "concatenate_25", "trainable": true, "dtype": "float32", "axis": -1}, "name": "concatenate_25", "inbound_nodes": [[["stack13_ghost_2_prim_bn", 0, 0, {}], ["stack13_ghost_2_cheap_bn", 0, 0, {}]]]}, {"class_name": "Add", "config": {"name": "stack13_output", "trainable": true, "dtype": "float32"}, "name": "stack13_output", "inbound_nodes": [[["stack12_output", 0, 0, {}], ["concatenate_25", 0, 0, {}]]]}, {"class_name": "Conv2D", "config": {"name": "stack14_ghost_1_prim_conv", "trainable": true, "dtype": "float32", "filters": 240, "kernel_size": [1, 1], "strides": [1, 1], "padding": "valid", "data_format": "channels_last", "dilation_rate": [1, 1], "groups": 1, "activation": "linear", "use_bias": false, "kernel_initializer": {"class_name": "VarianceScaling", "config": {"scale": 2.0, "mode": "fan_out", "distribution": "truncated_normal", "seed": null}, "shared_object_id": 2}, "bias_initializer": {"class_name": "Zeros", "config": {}}, "kernel_regularizer": null, "bias_regularizer": null, "activity_regularizer": null, "kernel_constraint": null, "bias_constraint": null}, "name": "stack14_ghost_1_prim_conv", "inbound_nodes": [[["stack13_output", 0, 0, {}]]]}, {"class_name": "BatchNormalization", "config": {"name": "stack14_ghost_1_prim_bn", "trainable": true, "dtype": "float32", "axis": [3], "momentum": 0.9, "epsilon": 1e-05, "center": true, "scale": true, "beta_initializer": {"class_name": "Zeros", "config": {}}, "gamma_initializer": {"class_name": "Ones", "config": {}}, "moving_mean_initializer": {"class_name": "Zeros", "config": {}}, "moving_variance_initializer": {"class_name": "Ones", "config": {}}, "beta_regularizer": null, "gamma_regularizer": null, "beta_constraint": null, "gamma_constraint": null}, "name": "stack14_ghost_1_prim_bn", "inbound_nodes": [[["stack14_ghost_1_prim_conv", 0, 0, {}]]]}, {"class_name": "Activation", "config": {"name": "stack14_ghost_1_prim_relu", "trainable": true, "dtype": "float32", "activation": "relu"}, "name": "stack14_ghost_1_prim_relu", "inbound_nodes": [[["stack14_ghost_1_prim_bn", 0, 0, {}]]]}, {"class_name": "ZeroPadding2D", "config": {"name": "stack14_ghost_1_cheap_dw_pad", "trainable": true, "dtype": "float32", "padding": [[1, 1], [1, 1]], "data_format": "channels_last"}, "name": "stack14_ghost_1_cheap_dw_pad", "inbound_nodes": [[["stack14_ghost_1_prim_relu", 0, 0, {}]]]}, {"class_name": "DepthwiseConv2D", "config": {"name": "stack14_ghost_1_cheap_dw_conv", "trainable": true, "dtype": "float32", "kernel_size": [3, 3], "strides": [1, 1], "padding": "valid", "data_format": "channels_last", "dilation_rate": [1, 1], "groups": 1, "activation": "linear", "use_bias": false, "bias_initializer": {"class_name": "Zeros", "config": {}}, "bias_regularizer": null, "activity_regularizer": null, "bias_constraint": null, "depth_multiplier": 1, "depthwise_initializer": {"class_name": "GlorotUniform", "config": {"seed": null}}, "depthwise_regularizer": null, "depthwise_constraint": null}, "name": "stack14_ghost_1_cheap_dw_conv", "inbound_nodes": [[["stack14_ghost_1_cheap_dw_pad", 0, 0, {}]]]}, {"class_name": "BatchNormalization", "config": {"name": "stack14_ghost_1_cheap_bn", "trainable": true, "dtype": "float32", "axis": [3], "momentum": 0.9, "epsilon": 1e-05, "center": true, "scale": true, "beta_initializer": {"class_name": "Zeros", "config": {}}, "gamma_initializer": {"class_name": "Ones", "config": {}}, "moving_mean_initializer": {"class_name": "Zeros", "config": {}}, "moving_variance_initializer": {"class_name": "Ones", "config": {}}, "beta_regularizer": null, "gamma_regularizer": null, "beta_constraint": null, "gamma_constraint": null}, "name": "stack14_ghost_1_cheap_bn", "inbound_nodes": [[["stack14_ghost_1_cheap_dw_conv", 0, 0, {}]]]}, {"class_name": "Activation", "config": {"name": "stack14_ghost_1_cheap_relu", "trainable": true, "dtype": "float32", "activation": "relu"}, "name": "stack14_ghost_1_cheap_relu", "inbound_nodes": [[["stack14_ghost_1_cheap_bn", 0, 0, {}]]]}, {"class_name": "Concatenate", "config": {"name": "concatenate_26", "trainable": true, "dtype": "float32", "axis": -1}, "name": "concatenate_26", "inbound_nodes": [[["stack14_ghost_1_prim_relu", 0, 0, {}], ["stack14_ghost_1_cheap_relu", 0, 0, {}]]]}, {"class_name": "TFOpLambda", "config": {"name": "tf.math.reduce_mean_5", "trainable": true, "dtype": "float32", "function": "math.reduce_mean"}, "name": "tf.math.reduce_mean_5", "inbound_nodes": [["concatenate_26", 0, 0, {"axis": [1, 2], "keepdims": true}]]}, {"class_name": "Conv2D", "config": {"name": "stack14_se_1_conv", "trainable": true, "dtype": "float32", "filters": 120, "kernel_size": [1, 1], "strides": [1, 1], "padding": "valid", "data_format": "channels_last", "dilation_rate": [1, 1], "groups": 1, "activation": "linear", "use_bias": true, "kernel_initializer": {"class_name": "VarianceScaling", "config": {"scale": 2.0, "mode": "fan_out", "distribution": "truncated_normal", "seed": null}, "shared_object_id": 2}, "bias_initializer": {"class_name": "Zeros", "config": {}}, "kernel_regularizer": null, "bias_regularizer": null, "activity_regularizer": null, "kernel_constraint": null, "bias_constraint": null}, "name": "stack14_se_1_conv", "inbound_nodes": [[["tf.math.reduce_mean_5", 0, 0, {}]]]}, {"class_name": "Activation", "config": {"name": "stack14_se_relu", "trainable": true, "dtype": "float32", "activation": "relu"}, "name": "stack14_se_relu", "inbound_nodes": [[["stack14_se_1_conv", 0, 0, {}]]]}, {"class_name": "Conv2D", "config": {"name": "stack14_se_2_conv", "trainable": true, "dtype": "float32", "filters": 480, "kernel_size": [1, 1], "strides": [1, 1], "padding": "valid", "data_format": "channels_last", "dilation_rate": [1, 1], "groups": 1, "activation": "linear", "use_bias": true, "kernel_initializer": {"class_name": "VarianceScaling", "config": {"scale": 2.0, "mode": "fan_out", "distribution": "truncated_normal", "seed": null}, "shared_object_id": 2}, "bias_initializer": {"class_name": "Zeros", "config": {}}, "kernel_regularizer": null, "bias_regularizer": null, "activity_regularizer": null, "kernel_constraint": null, "bias_constraint": null}, "name": "stack14_se_2_conv", "inbound_nodes": [[["stack14_se_relu", 0, 0, {}]]]}, {"class_name": "Activation", "config": {"name": "stack14_se_hard_sigmoid_torch", "trainable": true, "dtype": "float32", "activation": "kecamCommon>hard_sigmoid_torch"}, "name": "stack14_se_hard_sigmoid_torch", "inbound_nodes": [[["stack14_se_2_conv", 0, 0, {}]]]}, {"class_name": "Multiply", "config": {"name": "stack14_se_out", "trainable": true, "dtype": "float32"}, "name": "stack14_se_out", "inbound_nodes": [[["concatenate_26", 0, 0, {}], ["stack14_se_hard_sigmoid_torch", 0, 0, {}]]]}, {"class_name": "Conv2D", "config": {"name": "stack14_ghost_2_prim_conv", "trainable": true, "dtype": "float32", "filters": 40, "kernel_size": [1, 1], "strides": [1, 1], "padding": "valid", "data_format": "channels_last", "dilation_rate": [1, 1], "groups": 1, "activation": "linear", "use_bias": false, "kernel_initializer": {"class_name": "VarianceScaling", "config": {"scale": 2.0, "mode": "fan_out", "distribution": "truncated_normal", "seed": null}, "shared_object_id": 2}, "bias_initializer": {"class_name": "Zeros", "config": {}}, "kernel_regularizer": null, "bias_regularizer": null, "activity_regularizer": null, "kernel_constraint": null, "bias_constraint": null}, "name": "stack14_ghost_2_prim_conv", "inbound_nodes": [[["stack14_se_out", 0, 0, {}]]]}, {"class_name": "BatchNormalization", "config": {"name": "stack14_ghost_2_prim_bn", "trainable": true, "dtype": "float32", "axis": [3], "momentum": 0.9, "epsilon": 1e-05, "center": true, "scale": true, "beta_initializer": {"class_name": "Zeros", "config": {}}, "gamma_initializer": {"class_name": "Ones", "config": {}}, "moving_mean_initializer": {"class_name": "Zeros", "config": {}}, "moving_variance_initializer": {"class_name": "Ones", "config": {}}, "beta_regularizer": null, "gamma_regularizer": null, "beta_constraint": null, "gamma_constraint": null}, "name": "stack14_ghost_2_prim_bn", "inbound_nodes": [[["stack14_ghost_2_prim_conv", 0, 0, {}]]]}, {"class_name": "ZeroPadding2D", "config": {"name": "stack14_ghost_2_cheap_dw_pad", "trainable": true, "dtype": "float32", "padding": [[1, 1], [1, 1]], "data_format": "channels_last"}, "name": "stack14_ghost_2_cheap_dw_pad", "inbound_nodes": [[["stack14_ghost_2_prim_bn", 0, 0, {}]]]}, {"class_name": "DepthwiseConv2D", "config": {"name": "stack14_ghost_2_cheap_dw_conv", "trainable": true, "dtype": "float32", "kernel_size": [3, 3], "strides": [1, 1], "padding": "valid", "data_format": "channels_last", "dilation_rate": [1, 1], "groups": 1, "activation": "linear", "use_bias": false, "bias_initializer": {"class_name": "Zeros", "config": {}}, "bias_regularizer": null, "activity_regularizer": null, "bias_constraint": null, "depth_multiplier": 1, "depthwise_initializer": {"class_name": "GlorotUniform", "config": {"seed": null}}, "depthwise_regularizer": null, "depthwise_constraint": null}, "name": "stack14_ghost_2_cheap_dw_conv", "inbound_nodes": [[["stack14_ghost_2_cheap_dw_pad", 0, 0, {}]]]}, {"class_name": "BatchNormalization", "config": {"name": "stack14_ghost_2_cheap_bn", "trainable": true, "dtype": "float32", "axis": [3], "momentum": 0.9, "epsilon": 1e-05, "center": true, "scale": true, "beta_initializer": {"class_name": "Zeros", "config": {}}, "gamma_initializer": {"class_name": "Ones", "config": {}}, "moving_mean_initializer": {"class_name": "Zeros", "config": {}}, "moving_variance_initializer": {"class_name": "Ones", "config": {}}, "beta_regularizer": null, "gamma_regularizer": null, "beta_constraint": null, "gamma_constraint": null}, "name": "stack14_ghost_2_cheap_bn", "inbound_nodes": [[["stack14_ghost_2_cheap_dw_conv", 0, 0, {}]]]}, {"class_name": "Concatenate", "config": {"name": "concatenate_27", "trainable": true, "dtype": "float32", "axis": -1}, "name": "concatenate_27", "inbound_nodes": [[["stack14_ghost_2_prim_bn", 0, 0, {}], ["stack14_ghost_2_cheap_bn", 0, 0, {}]]]}, {"class_name": "Add", "config": {"name": "stack14_output", "trainable": true, "dtype": "float32"}, "name": "stack14_output", "inbound_nodes": [[["stack13_output", 0, 0, {}], ["concatenate_27", 0, 0, {}]]]}, {"class_name": "Conv2D", "config": {"name": "stack15_ghost_1_prim_conv", "trainable": true, "dtype": "float32", "filters": 240, "kernel_size": [1, 1], "strides": [1, 1], "padding": "valid", "data_format": "channels_last", "dilation_rate": [1, 1], "groups": 1, "activation": "linear", "use_bias": false, "kernel_initializer": {"class_name": "VarianceScaling", "config": {"scale": 2.0, "mode": "fan_out", "distribution": "truncated_normal", "seed": null}, "shared_object_id": 2}, "bias_initializer": {"class_name": "Zeros", "config": {}}, "kernel_regularizer": null, "bias_regularizer": null, "activity_regularizer": null, "kernel_constraint": null, "bias_constraint": null}, "name": "stack15_ghost_1_prim_conv", "inbound_nodes": [[["stack14_output", 0, 0, {}]]]}, {"class_name": "BatchNormalization", "config": {"name": "stack15_ghost_1_prim_bn", "trainable": true, "dtype": "float32", "axis": [3], "momentum": 0.9, "epsilon": 1e-05, "center": true, "scale": true, "beta_initializer": {"class_name": "Zeros", "config": {}}, "gamma_initializer": {"class_name": "Ones", "config": {}}, "moving_mean_initializer": {"class_name": "Zeros", "config": {}}, "moving_variance_initializer": {"class_name": "Ones", "config": {}}, "beta_regularizer": null, "gamma_regularizer": null, "beta_constraint": null, "gamma_constraint": null}, "name": "stack15_ghost_1_prim_bn", "inbound_nodes": [[["stack15_ghost_1_prim_conv", 0, 0, {}]]]}, {"class_name": "Activation", "config": {"name": "stack15_ghost_1_prim_relu", "trainable": true, "dtype": "float32", "activation": "relu"}, "name": "stack15_ghost_1_prim_relu", "inbound_nodes": [[["stack15_ghost_1_prim_bn", 0, 0, {}]]]}, {"class_name": "ZeroPadding2D", "config": {"name": "stack15_ghost_1_cheap_dw_pad", "trainable": true, "dtype": "float32", "padding": [[1, 1], [1, 1]], "data_format": "channels_last"}, "name": "stack15_ghost_1_cheap_dw_pad", "inbound_nodes": [[["stack15_ghost_1_prim_relu", 0, 0, {}]]]}, {"class_name": "DepthwiseConv2D", "config": {"name": "stack15_ghost_1_cheap_dw_conv", "trainable": true, "dtype": "float32", "kernel_size": [3, 3], "strides": [1, 1], "padding": "valid", "data_format": "channels_last", "dilation_rate": [1, 1], "groups": 1, "activation": "linear", "use_bias": false, "bias_initializer": {"class_name": "Zeros", "config": {}}, "bias_regularizer": null, "activity_regularizer": null, "bias_constraint": null, "depth_multiplier": 1, "depthwise_initializer": {"class_name": "GlorotUniform", "config": {"seed": null}}, "depthwise_regularizer": null, "depthwise_constraint": null}, "name": "stack15_ghost_1_cheap_dw_conv", "inbound_nodes": [[["stack15_ghost_1_cheap_dw_pad", 0, 0, {}]]]}, {"class_name": "BatchNormalization", "config": {"name": "stack15_ghost_1_cheap_bn", "trainable": true, "dtype": "float32", "axis": [3], "momentum": 0.9, "epsilon": 1e-05, "center": true, "scale": true, "beta_initializer": {"class_name": "Zeros", "config": {}}, "gamma_initializer": {"class_name": "Ones", "config": {}}, "moving_mean_initializer": {"class_name": "Zeros", "config": {}}, "moving_variance_initializer": {"class_name": "Ones", "config": {}}, "beta_regularizer": null, "gamma_regularizer": null, "beta_constraint": null, "gamma_constraint": null}, "name": "stack15_ghost_1_cheap_bn", "inbound_nodes": [[["stack15_ghost_1_cheap_dw_conv", 0, 0, {}]]]}, {"class_name": "Activation", "config": {"name": "stack15_ghost_1_cheap_relu", "trainable": true, "dtype": "float32", "activation": "relu"}, "name": "stack15_ghost_1_cheap_relu", "inbound_nodes": [[["stack15_ghost_1_cheap_bn", 0, 0, {}]]]}, {"class_name": "Concatenate", "config": {"name": "concatenate_28", "trainable": true, "dtype": "float32", "axis": -1}, "name": "concatenate_28", "inbound_nodes": [[["stack15_ghost_1_prim_relu", 0, 0, {}], ["stack15_ghost_1_cheap_relu", 0, 0, {}]]]}, {"class_name": "Conv2D", "config": {"name": "stack15_ghost_2_prim_conv", "trainable": true, "dtype": "float32", "filters": 40, "kernel_size": [1, 1], "strides": [1, 1], "padding": "valid", "data_format": "channels_last", "dilation_rate": [1, 1], "groups": 1, "activation": "linear", "use_bias": false, "kernel_initializer": {"class_name": "VarianceScaling", "config": {"scale": 2.0, "mode": "fan_out", "distribution": "truncated_normal", "seed": null}, "shared_object_id": 2}, "bias_initializer": {"class_name": "Zeros", "config": {}}, "kernel_regularizer": null, "bias_regularizer": null, "activity_regularizer": null, "kernel_constraint": null, "bias_constraint": null}, "name": "stack15_ghost_2_prim_conv", "inbound_nodes": [[["concatenate_28", 0, 0, {}]]]}, {"class_name": "BatchNormalization", "config": {"name": "stack15_ghost_2_prim_bn", "trainable": true, "dtype": "float32", "axis": [3], "momentum": 0.9, "epsilon": 1e-05, "center": true, "scale": true, "beta_initializer": {"class_name": "Zeros", "config": {}}, "gamma_initializer": {"class_name": "Ones", "config": {}}, "moving_mean_initializer": {"class_name": "Zeros", "config": {}}, "moving_variance_initializer": {"class_name": "Ones", "config": {}}, "beta_regularizer": null, "gamma_regularizer": null, "beta_constraint": null, "gamma_constraint": null}, "name": "stack15_ghost_2_prim_bn", "inbound_nodes": [[["stack15_ghost_2_prim_conv", 0, 0, {}]]]}, {"class_name": "ZeroPadding2D", "config": {"name": "stack15_ghost_2_cheap_dw_pad", "trainable": true, "dtype": "float32", "padding": [[1, 1], [1, 1]], "data_format": "channels_last"}, "name": "stack15_ghost_2_cheap_dw_pad", "inbound_nodes": [[["stack15_ghost_2_prim_bn", 0, 0, {}]]]}, {"class_name": "DepthwiseConv2D", "config": {"name": "stack15_ghost_2_cheap_dw_conv", "trainable": true, "dtype": "float32", "kernel_size": [3, 3], "strides": [1, 1], "padding": "valid", "data_format": "channels_last", "dilation_rate": [1, 1], "groups": 1, "activation": "linear", "use_bias": false, "bias_initializer": {"class_name": "Zeros", "config": {}}, "bias_regularizer": null, "activity_regularizer": null, "bias_constraint": null, "depth_multiplier": 1, "depthwise_initializer": {"class_name": "GlorotUniform", "config": {"seed": null}}, "depthwise_regularizer": null, "depthwise_constraint": null}, "name": "stack15_ghost_2_cheap_dw_conv", "inbound_nodes": [[["stack15_ghost_2_cheap_dw_pad", 0, 0, {}]]]}, {"class_name": "BatchNormalization", "config": {"name": "stack15_ghost_2_cheap_bn", "trainable": true, "dtype": "float32", "axis": [3], "momentum": 0.9, "epsilon": 1e-05, "center": true, "scale": true, "beta_initializer": {"class_name": "Zeros", "config": {}}, "gamma_initializer": {"class_name": "Ones", "config": {}}, "moving_mean_initializer": {"class_name": "Zeros", "config": {}}, "moving_variance_initializer": {"class_name": "Ones", "config": {}}, "beta_regularizer": null, "gamma_regularizer": null, "beta_constraint": null, "gamma_constraint": null}, "name": "stack15_ghost_2_cheap_bn", "inbound_nodes": [[["stack15_ghost_2_cheap_dw_conv", 0, 0, {}]]]}, {"class_name": "Concatenate", "config": {"name": "concatenate_29", "trainable": true, "dtype": "float32", "axis": -1}, "name": "concatenate_29", "inbound_nodes": [[["stack15_ghost_2_prim_bn", 0, 0, {}], ["stack15_ghost_2_cheap_bn", 0, 0, {}]]]}, {"class_name": "Add", "config": {"name": "stack15_output", "trainable": true, "dtype": "float32"}, "name": "stack15_output", "inbound_nodes": [[["stack14_output", 0, 0, {}], ["concatenate_29", 0, 0, {}]]]}, {"class_name": "Conv2D", "config": {"name": "stack16_ghost_1_prim_conv", "trainable": true, "dtype": "float32", "filters": 240, "kernel_size": [1, 1], "strides": [1, 1], "padding": "valid", "data_format": "channels_last", "dilation_rate": [1, 1], "groups": 1, "activation": "linear", "use_bias": false, "kernel_initializer": {"class_name": "VarianceScaling", "config": {"scale": 2.0, "mode": "fan_out", "distribution": "truncated_normal", "seed": null}, "shared_object_id": 2}, "bias_initializer": {"class_name": "Zeros", "config": {}}, "kernel_regularizer": null, "bias_regularizer": null, "activity_regularizer": null, "kernel_constraint": null, "bias_constraint": null}, "name": "stack16_ghost_1_prim_conv", "inbound_nodes": [[["stack15_output", 0, 0, {}]]]}, {"class_name": "BatchNormalization", "config": {"name": "stack16_ghost_1_prim_bn", "trainable": true, "dtype": "float32", "axis": [3], "momentum": 0.9, "epsilon": 1e-05, "center": true, "scale": true, "beta_initializer": {"class_name": "Zeros", "config": {}}, "gamma_initializer": {"class_name": "Ones", "config": {}}, "moving_mean_initializer": {"class_name": "Zeros", "config": {}}, "moving_variance_initializer": {"class_name": "Ones", "config": {}}, "beta_regularizer": null, "gamma_regularizer": null, "beta_constraint": null, "gamma_constraint": null}, "name": "stack16_ghost_1_prim_bn", "inbound_nodes": [[["stack16_ghost_1_prim_conv", 0, 0, {}]]]}, {"class_name": "Activation", "config": {"name": "stack16_ghost_1_prim_relu", "trainable": true, "dtype": "float32", "activation": "relu"}, "name": "stack16_ghost_1_prim_relu", "inbound_nodes": [[["stack16_ghost_1_prim_bn", 0, 0, {}]]]}, {"class_name": "ZeroPadding2D", "config": {"name": "stack16_ghost_1_cheap_dw_pad", "trainable": true, "dtype": "float32", "padding": [[1, 1], [1, 1]], "data_format": "channels_last"}, "name": "stack16_ghost_1_cheap_dw_pad", "inbound_nodes": [[["stack16_ghost_1_prim_relu", 0, 0, {}]]]}, {"class_name": "DepthwiseConv2D", "config": {"name": "stack16_ghost_1_cheap_dw_conv", "trainable": true, "dtype": "float32", "kernel_size": [3, 3], "strides": [1, 1], "padding": "valid", "data_format": "channels_last", "dilation_rate": [1, 1], "groups": 1, "activation": "linear", "use_bias": false, "bias_initializer": {"class_name": "Zeros", "config": {}}, "bias_regularizer": null, "activity_regularizer": null, "bias_constraint": null, "depth_multiplier": 1, "depthwise_initializer": {"class_name": "GlorotUniform", "config": {"seed": null}}, "depthwise_regularizer": null, "depthwise_constraint": null}, "name": "stack16_ghost_1_cheap_dw_conv", "inbound_nodes": [[["stack16_ghost_1_cheap_dw_pad", 0, 0, {}]]]}, {"class_name": "BatchNormalization", "config": {"name": "stack16_ghost_1_cheap_bn", "trainable": true, "dtype": "float32", "axis": [3], "momentum": 0.9, "epsilon": 1e-05, "center": true, "scale": true, "beta_initializer": {"class_name": "Zeros", "config": {}}, "gamma_initializer": {"class_name": "Ones", "config": {}}, "moving_mean_initializer": {"class_name": "Zeros", "config": {}}, "moving_variance_initializer": {"class_name": "Ones", "config": {}}, "beta_regularizer": null, "gamma_regularizer": null, "beta_constraint": null, "gamma_constraint": null}, "name": "stack16_ghost_1_cheap_bn", "inbound_nodes": [[["stack16_ghost_1_cheap_dw_conv", 0, 0, {}]]]}, {"class_name": "Activation", "config": {"name": "stack16_ghost_1_cheap_relu", "trainable": true, "dtype": "float32", "activation": "relu"}, "name": "stack16_ghost_1_cheap_relu", "inbound_nodes": [[["stack16_ghost_1_cheap_bn", 0, 0, {}]]]}, {"class_name": "Concatenate", "config": {"name": "concatenate_30", "trainable": true, "dtype": "float32", "axis": -1}, "name": "concatenate_30", "inbound_nodes": [[["stack16_ghost_1_prim_relu", 0, 0, {}], ["stack16_ghost_1_cheap_relu", 0, 0, {}]]]}, {"class_name": "TFOpLambda", "config": {"name": "tf.math.reduce_mean_6", "trainable": true, "dtype": "float32", "function": "math.reduce_mean"}, "name": "tf.math.reduce_mean_6", "inbound_nodes": [["concatenate_30", 0, 0, {"axis": [1, 2], "keepdims": true}]]}, {"class_name": "Conv2D", "config": {"name": "stack16_se_1_conv", "trainable": true, "dtype": "float32", "filters": 120, "kernel_size": [1, 1], "strides": [1, 1], "padding": "valid", "data_format": "channels_last", "dilation_rate": [1, 1], "groups": 1, "activation": "linear", "use_bias": true, "kernel_initializer": {"class_name": "VarianceScaling", "config": {"scale": 2.0, "mode": "fan_out", "distribution": "truncated_normal", "seed": null}, "shared_object_id": 2}, "bias_initializer": {"class_name": "Zeros", "config": {}}, "kernel_regularizer": null, "bias_regularizer": null, "activity_regularizer": null, "kernel_constraint": null, "bias_constraint": null}, "name": "stack16_se_1_conv", "inbound_nodes": [[["tf.math.reduce_mean_6", 0, 0, {}]]]}, {"class_name": "Activation", "config": {"name": "stack16_se_relu", "trainable": true, "dtype": "float32", "activation": "relu"}, "name": "stack16_se_relu", "inbound_nodes": [[["stack16_se_1_conv", 0, 0, {}]]]}, {"class_name": "Conv2D", "config": {"name": "stack16_se_2_conv", "trainable": true, "dtype": "float32", "filters": 480, "kernel_size": [1, 1], "strides": [1, 1], "padding": "valid", "data_format": "channels_last", "dilation_rate": [1, 1], "groups": 1, "activation": "linear", "use_bias": true, "kernel_initializer": {"class_name": "VarianceScaling", "config": {"scale": 2.0, "mode": "fan_out", "distribution": "truncated_normal", "seed": null}, "shared_object_id": 2}, "bias_initializer": {"class_name": "Zeros", "config": {}}, "kernel_regularizer": null, "bias_regularizer": null, "activity_regularizer": null, "kernel_constraint": null, "bias_constraint": null}, "name": "stack16_se_2_conv", "inbound_nodes": [[["stack16_se_relu", 0, 0, {}]]]}, {"class_name": "Activation", "config": {"name": "stack16_se_hard_sigmoid_torch", "trainable": true, "dtype": "float32", "activation": "kecamCommon>hard_sigmoid_torch"}, "name": "stack16_se_hard_sigmoid_torch", "inbound_nodes": [[["stack16_se_2_conv", 0, 0, {}]]]}, {"class_name": "Multiply", "config": {"name": "stack16_se_out", "trainable": true, "dtype": "float32"}, "name": "stack16_se_out", "inbound_nodes": [[["concatenate_30", 0, 0, {}], ["stack16_se_hard_sigmoid_torch", 0, 0, {}]]]}, {"class_name": "Conv2D", "config": {"name": "stack16_ghost_2_prim_conv", "trainable": true, "dtype": "float32", "filters": 40, "kernel_size": [1, 1], "strides": [1, 1], "padding": "valid", "data_format": "channels_last", "dilation_rate": [1, 1], "groups": 1, "activation": "linear", "use_bias": false, "kernel_initializer": {"class_name": "VarianceScaling", "config": {"scale": 2.0, "mode": "fan_out", "distribution": "truncated_normal", "seed": null}, "shared_object_id": 2}, "bias_initializer": {"class_name": "Zeros", "config": {}}, "kernel_regularizer": null, "bias_regularizer": null, "activity_regularizer": null, "kernel_constraint": null, "bias_constraint": null}, "name": "stack16_ghost_2_prim_conv", "inbound_nodes": [[["stack16_se_out", 0, 0, {}]]]}, {"class_name": "BatchNormalization", "config": {"name": "stack16_ghost_2_prim_bn", "trainable": true, "dtype": "float32", "axis": [3], "momentum": 0.9, "epsilon": 1e-05, "center": true, "scale": true, "beta_initializer": {"class_name": "Zeros", "config": {}}, "gamma_initializer": {"class_name": "Ones", "config": {}}, "moving_mean_initializer": {"class_name": "Zeros", "config": {}}, "moving_variance_initializer": {"class_name": "Ones", "config": {}}, "beta_regularizer": null, "gamma_regularizer": null, "beta_constraint": null, "gamma_constraint": null}, "name": "stack16_ghost_2_prim_bn", "inbound_nodes": [[["stack16_ghost_2_prim_conv", 0, 0, {}]]]}, {"class_name": "ZeroPadding2D", "config": {"name": "stack16_ghost_2_cheap_dw_pad", "trainable": true, "dtype": "float32", "padding": [[1, 1], [1, 1]], "data_format": "channels_last"}, "name": "stack16_ghost_2_cheap_dw_pad", "inbound_nodes": [[["stack16_ghost_2_prim_bn", 0, 0, {}]]]}, {"class_name": "DepthwiseConv2D", "config": {"name": "stack16_ghost_2_cheap_dw_conv", "trainable": true, "dtype": "float32", "kernel_size": [3, 3], "strides": [1, 1], "padding": "valid", "data_format": "channels_last", "dilation_rate": [1, 1], "groups": 1, "activation": "linear", "use_bias": false, "bias_initializer": {"class_name": "Zeros", "config": {}}, "bias_regularizer": null, "activity_regularizer": null, "bias_constraint": null, "depth_multiplier": 1, "depthwise_initializer": {"class_name": "GlorotUniform", "config": {"seed": null}}, "depthwise_regularizer": null, "depthwise_constraint": null}, "name": "stack16_ghost_2_cheap_dw_conv", "inbound_nodes": [[["stack16_ghost_2_cheap_dw_pad", 0, 0, {}]]]}, {"class_name": "BatchNormalization", "config": {"name": "stack16_ghost_2_cheap_bn", "trainable": true, "dtype": "float32", "axis": [3], "momentum": 0.9, "epsilon": 1e-05, "center": true, "scale": true, "beta_initializer": {"class_name": "Zeros", "config": {}}, "gamma_initializer": {"class_name": "Ones", "config": {}}, "moving_mean_initializer": {"class_name": "Zeros", "config": {}}, "moving_variance_initializer": {"class_name": "Ones", "config": {}}, "beta_regularizer": null, "gamma_regularizer": null, "beta_constraint": null, "gamma_constraint": null}, "name": "stack16_ghost_2_cheap_bn", "inbound_nodes": [[["stack16_ghost_2_cheap_dw_conv", 0, 0, {}]]]}, {"class_name": "Concatenate", "config": {"name": "concatenate_31", "trainable": true, "dtype": "float32", "axis": -1}, "name": "concatenate_31", "inbound_nodes": [[["stack16_ghost_2_prim_bn", 0, 0, {}], ["stack16_ghost_2_cheap_bn", 0, 0, {}]]]}, {"class_name": "Add", "config": {"name": "stack16_output", "trainable": true, "dtype": "float32"}, "name": "stack16_output", "inbound_nodes": [[["stack15_output", 0, 0, {}], ["concatenate_31", 0, 0, {}]]]}, {"class_name": "Conv2D", "config": {"name": "pre_conv", "trainable": true, "dtype": "float32", "filters": 480, "kernel_size": [1, 1], "strides": [1, 1], "padding": "valid", "data_format": "channels_last", "dilation_rate": [1, 1], "groups": 1, "activation": "linear", "use_bias": false, "kernel_initializer": {"class_name": "VarianceScaling", "config": {"scale": 2.0, "mode": "fan_out", "distribution": "truncated_normal", "seed": null}, "shared_object_id": 2}, "bias_initializer": {"class_name": "Zeros", "config": {}}, "kernel_regularizer": null, "bias_regularizer": null, "activity_regularizer": null, "kernel_constraint": null, "bias_constraint": null}, "name": "pre_conv", "inbound_nodes": [[["stack16_output", 0, 0, {}]]]}, {"class_name": "BatchNormalization", "config": {"name": "pre_bn", "trainable": true, "dtype": "float32", "axis": [3], "momentum": 0.9, "epsilon": 1e-05, "center": true, "scale": true, "beta_initializer": {"class_name": "Zeros", "config": {}}, "gamma_initializer": {"class_name": "Ones", "config": {}}, "moving_mean_initializer": {"class_name": "Zeros", "config": {}}, "moving_variance_initializer": {"class_name": "Ones", "config": {}}, "beta_regularizer": null, "gamma_regularizer": null, "beta_constraint": null, "gamma_constraint": null}, "name": "pre_bn", "inbound_nodes": [[["pre_conv", 0, 0, {}]]]}, {"class_name": "Activation", "config": {"name": "pre_relu", "trainable": true, "dtype": "float32", "activation": "relu"}, "name": "pre_relu", "inbound_nodes": [[["pre_bn", 0, 0, {}]]]}, {"class_name": "GlobalAveragePooling2D", "config": {"name": "global_average_pooling2d", "trainable": true, "dtype": "float32", "data_format": "channels_last", "keepdims": true}, "name": "global_average_pooling2d", "inbound_nodes": [[["pre_relu", 0, 0, {}]]]}, {"class_name": "Conv2D", "config": {"name": "features_conv", "trainable": true, "dtype": "float32", "filters": 1280, "kernel_size": [1, 1], "strides": [1, 1], "padding": "valid", "data_format": "channels_last", "dilation_rate": [1, 1], "groups": 1, "activation": "linear", "use_bias": true, "kernel_initializer": {"class_name": "VarianceScaling", "config": {"scale": 2.0, "mode": "fan_out", "distribution": "truncated_normal", "seed": null}, "shared_object_id": 2}, "bias_initializer": {"class_name": "Zeros", "config": {}}, "kernel_regularizer": null, "bias_regularizer": null, "activity_regularizer": null, "kernel_constraint": null, "bias_constraint": null}, "name": "features_conv", "inbound_nodes": [[["global_average_pooling2d", 0, 0, {}]]]}, {"class_name": "Activation", "config": {"name": "features_relu", "trainable": true, "dtype": "float32", "activation": "relu"}, "name": "features_relu", "inbound_nodes": [[["features_conv", 0, 0, {}]]]}, {"class_name": "Flatten", "config": {"name": "flatten", "trainable": true, "dtype": "float32", "data_format": "channels_last"}, "name": "flatten", "inbound_nodes": [[["features_relu", 0, 0, {}]]]}, {"class_name": "Dense", "config": {"name": "head", "trainable": true, "dtype": "float32", "units": 1000, "activation": "linear", "use_bias": true, "kernel_initializer": {"class_name": "GlorotUniform", "config": {"seed": null}}, "bias_initializer": {"class_name": "Zeros", "config": {}}, "kernel_regularizer": null, "bias_regularizer": null, "activity_regularizer": null, "kernel_constraint": null, "bias_constraint": null}, "name": "head", "inbound_nodes": [[["flatten", 0, 0, {}]]]}], "input_layers": [["input_1", 0, 0]], "output_layers": [["head", 0, 0]]}}}, "weightsManifest": [{"paths": ["group1-shard1of3.bin", "group1-shard2of3.bin", "group1-shard3of3.bin"], "weights": [{"name": "features_conv/kernel", "shape": [1, 1, 480, 1280], "dtype": "float32"}, {"name": "features_conv/bias", "shape": [1280], "dtype": "float32"}, {"name": "head/kernel", "shape": [1280, 1000], "dtype": "float32"}, {"name": "head/bias", "shape": [1000], "dtype": "float32"}, {"name": "pre_bn/gamma", "shape": [480], "dtype": "float32"}, {"name": "pre_bn/beta", "shape": [480], "dtype": "float32"}, {"name": "pre_bn/moving_mean", "shape": [480], "dtype": "float32"}, {"name": "pre_bn/moving_variance", "shape": [480], "dtype": "float32"}, {"name": "pre_conv/kernel", "shape": [1, 1, 80, 480], "dtype": "float32"}, {"name": "stack10_ghost_1_cheap_bn/gamma", "shape": [120], "dtype": "float32"}, {"name": "stack10_ghost_1_cheap_bn/beta", "shape": [120], "dtype": "float32"}, {"name": "stack10_ghost_1_cheap_bn/moving_mean", "shape": [120], "dtype": "float32"}, {"name": "stack10_ghost_1_cheap_bn/moving_variance", "shape": [120], "dtype": "float32"}, {"name": "stack10_ghost_1_cheap_dw_conv/depthwise_kernel", "shape": [3, 3, 120, 1], "dtype": "float32"}, {"name": "stack10_ghost_1_prim_bn/gamma", "shape": [120], "dtype": "float32"}, {"name": "stack10_ghost_1_prim_bn/beta", "shape": [120], "dtype": "float32"}, {"name": "stack10_ghost_1_prim_bn/moving_mean", "shape": [120], "dtype": "float32"}, {"name": "stack10_ghost_1_prim_bn/moving_variance", "shape": [120], "dtype": "float32"}, {"name": "stack10_ghost_1_prim_conv/kernel", "shape": [1, 1, 40, 120], "dtype": "float32"}, {"name": "stack10_ghost_2_cheap_bn/gamma", "shape": [28], "dtype": "float32"}, {"name": "stack10_ghost_2_cheap_bn/beta", "shape": [28], "dtype": "float32"}, {"name": "stack10_ghost_2_cheap_bn/moving_mean", "shape": [28], "dtype": "float32"}, {"name": "stack10_ghost_2_cheap_bn/moving_variance", "shape": [28], "dtype": "float32"}, {"name": "stack10_ghost_2_cheap_dw_conv/depthwise_kernel", "shape": [3, 3, 28, 1], "dtype": "float32"}, {"name": "stack10_ghost_2_prim_bn/gamma", "shape": [28], "dtype": "float32"}, {"name": "stack10_ghost_2_prim_bn/beta", "shape": [28], "dtype": "float32"}, {"name": "stack10_ghost_2_prim_bn/moving_mean", "shape": [28], "dtype": "float32"}, {"name": "stack10_ghost_2_prim_bn/moving_variance", "shape": [28], "dtype": "float32"}, {"name": "stack10_ghost_2_prim_conv/kernel", "shape": [1, 1, 240, 28], "dtype": "float32"}, {"name": "stack10_se_1_conv/kernel", "shape": [1, 1, 240, 60], "dtype": "float32"}, {"name": "stack10_se_1_conv/bias", "shape": [60], "dtype": "float32"}, {"name": "stack10_se_2_conv/kernel", "shape": [1, 1, 60, 240], "dtype": "float32"}, {"name": "stack10_se_2_conv/bias", "shape": [240], "dtype": "float32"}, {"name": "stack10_short_1_bn/gamma", "shape": [40], "dtype": "float32"}, {"name": "stack10_short_1_bn/beta", "shape": [40], "dtype": "float32"}, {"name": "stack10_short_1_bn/moving_mean", "shape": [40], "dtype": "float32"}, {"name": "stack10_short_1_bn/moving_variance", "shape": [40], "dtype": "float32"}, {"name": "stack10_short_1_dw_conv/depthwise_kernel", "shape": [3, 3, 40, 1], "dtype": "float32"}, {"name": "stack10_short_2_bn/gamma", "shape": [56], "dtype": "float32"}, {"name": "stack10_short_2_bn/beta", "shape": [56], "dtype": "float32"}, {"name": "stack10_short_2_bn/moving_mean", "shape": [56], "dtype": "float32"}, {"name": "stack10_short_2_bn/moving_variance", "shape": [56], "dtype": "float32"}, {"name": "stack10_short_2_conv/kernel", "shape": [1, 1, 40, 56], "dtype": "float32"}, {"name": "stack11_ghost_1_cheap_bn/gamma", "shape": [168], "dtype": "float32"}, {"name": "stack11_ghost_1_cheap_bn/beta", "shape": [168], "dtype": "float32"}, {"name": "stack11_ghost_1_cheap_bn/moving_mean", "shape": [168], "dtype": "float32"}, {"name": "stack11_ghost_1_cheap_bn/moving_variance", "shape": [168], "dtype": "float32"}, {"name": "stack11_ghost_1_cheap_dw_conv/depthwise_kernel", "shape": [3, 3, 168, 1], "dtype": "float32"}, {"name": "stack11_ghost_1_prim_bn/gamma", "shape": [168], "dtype": "float32"}, {"name": "stack11_ghost_1_prim_bn/beta", "shape": [168], "dtype": "float32"}, {"name": "stack11_ghost_1_prim_bn/moving_mean", "shape": [168], "dtype": "float32"}, {"name": "stack11_ghost_1_prim_bn/moving_variance", "shape": [168], "dtype": "float32"}, {"name": "stack11_ghost_1_prim_conv/kernel", "shape": [1, 1, 56, 168], "dtype": "float32"}, {"name": "stack11_ghost_2_cheap_bn/gamma", "shape": [28], "dtype": "float32"}, {"name": "stack11_ghost_2_cheap_bn/beta", "shape": [28], "dtype": "float32"}, {"name": "stack11_ghost_2_cheap_bn/moving_mean", "shape": [28], "dtype": "float32"}, {"name": "stack11_ghost_2_cheap_bn/moving_variance", "shape": [28], "dtype": "float32"}, {"name": "stack11_ghost_2_cheap_dw_conv/depthwise_kernel", "shape": [3, 3, 28, 1], "dtype": "float32"}, {"name": "stack11_ghost_2_prim_bn/gamma", "shape": [28], "dtype": "float32"}, {"name": "stack11_ghost_2_prim_bn/beta", "shape": [28], "dtype": "float32"}, {"name": "stack11_ghost_2_prim_bn/moving_mean", "shape": [28], "dtype": "float32"}, {"name": "stack11_ghost_2_prim_bn/moving_variance", "shape": [28], "dtype": "float32"}, {"name": "stack11_ghost_2_prim_conv/kernel", "shape": [1, 1, 336, 28], "dtype": "float32"}, {"name": "stack11_se_1_conv/kernel", "shape": [1, 1, 336, 84], "dtype": "float32"}, {"name": "stack11_se_1_conv/bias", "shape": [84], "dtype": "float32"}, {"name": "stack11_se_2_conv/kernel", "shape": [1, 1, 84, 336], "dtype": "float32"}, {"name": "stack11_se_2_conv/bias", "shape": [336], "dtype": "float32"}, {"name": "stack12_down_bn/gamma", "shape": [336], "dtype": "float32"}, {"name": "stack12_down_bn/beta", "shape": [336], "dtype": "float32"}, {"name": "stack12_down_bn/moving_mean", "shape": [336], "dtype": "float32"}, {"name": "stack12_down_bn/moving_variance", "shape": [336], "dtype": "float32"}, {"name": "stack12_down_dw_conv/depthwise_kernel", "shape": [5, 5, 336, 1], "dtype": "float32"}, {"name": "stack12_ghost_1_cheap_bn/gamma", "shape": [168], "dtype": "float32"}, {"name": "stack12_ghost_1_cheap_bn/beta", "shape": [168], "dtype": "float32"}, {"name": "stack12_ghost_1_cheap_bn/moving_mean", "shape": [168], "dtype": "float32"}, {"name": "stack12_ghost_1_cheap_bn/moving_variance", "shape": [168], "dtype": "float32"}, {"name": "stack12_ghost_1_cheap_dw_conv/depthwise_kernel", "shape": [3, 3, 168, 1], "dtype": "float32"}, {"name": "stack12_ghost_1_prim_bn/gamma", "shape": [168], "dtype": "float32"}, {"name": "stack12_ghost_1_prim_bn/beta", "shape": [168], "dtype": "float32"}, {"name": "stack12_ghost_1_prim_bn/moving_mean", "shape": [168], "dtype": "float32"}, {"name": "stack12_ghost_1_prim_bn/moving_variance", "shape": [168], "dtype": "float32"}, {"name": "stack12_ghost_1_prim_conv/kernel", "shape": [1, 1, 56, 168], "dtype": "float32"}, {"name": "stack12_ghost_2_cheap_bn/gamma", "shape": [40], "dtype": "float32"}, {"name": "stack12_ghost_2_cheap_bn/beta", "shape": [40], "dtype": "float32"}, {"name": "stack12_ghost_2_cheap_bn/moving_mean", "shape": [40], "dtype": "float32"}, {"name": "stack12_ghost_2_cheap_bn/moving_variance", "shape": [40], "dtype": "float32"}, {"name": "stack12_ghost_2_cheap_dw_conv/depthwise_kernel", "shape": [3, 3, 40, 1], "dtype": "float32"}, {"name": "stack12_ghost_2_prim_bn/gamma", "shape": [40], "dtype": "float32"}, {"name": "stack12_ghost_2_prim_bn/beta", "shape": [40], "dtype": "float32"}, {"name": "stack12_ghost_2_prim_bn/moving_mean", "shape": [40], "dtype": "float32"}, {"name": "stack12_ghost_2_prim_bn/moving_variance", "shape": [40], "dtype": "float32"}, {"name": "stack12_ghost_2_prim_conv/kernel", "shape": [1, 1, 336, 40], "dtype": "float32"}, {"name": "stack12_se_1_conv/kernel", "shape": [1, 1, 336, 84], "dtype": "float32"}, {"name": "stack12_se_1_conv/bias", "shape": [84], "dtype": "float32"}, {"name": "stack12_se_2_conv/kernel", "shape": [1, 1, 84, 336], "dtype": "float32"}, {"name": "stack12_se_2_conv/bias", "shape": [336], "dtype": "float32"}, {"name": "stack12_short_1_bn/gamma", "shape": [56], "dtype": "float32"}, {"name": "stack12_short_1_bn/beta", "shape": [56], "dtype": "float32"}, {"name": "stack12_short_1_bn/moving_mean", "shape": [56], "dtype": "float32"}, {"name": "stack12_short_1_bn/moving_variance", "shape": [56], "dtype": "float32"}, {"name": "stack12_short_1_dw_conv/depthwise_kernel", "shape": [5, 5, 56, 1], "dtype": "float32"}, {"name": "stack12_short_2_bn/gamma", "shape": [80], "dtype": "float32"}, {"name": "stack12_short_2_bn/beta", "shape": [80], "dtype": "float32"}, {"name": "stack12_short_2_bn/moving_mean", "shape": [80], "dtype": "float32"}, {"name": "stack12_short_2_bn/moving_variance", "shape": [80], "dtype": "float32"}, {"name": "stack12_short_2_conv/kernel", "shape": [1, 1, 56, 80], "dtype": "float32"}, {"name": "stack13_ghost_1_cheap_bn/gamma", "shape": [240], "dtype": "float32"}, {"name": "stack13_ghost_1_cheap_bn/beta", "shape": [240], "dtype": "float32"}, {"name": "stack13_ghost_1_cheap_bn/moving_mean", "shape": [240], "dtype": "float32"}, {"name": "stack13_ghost_1_cheap_bn/moving_variance", "shape": [240], "dtype": "float32"}, {"name": "stack13_ghost_1_cheap_dw_conv/depthwise_kernel", "shape": [3, 3, 240, 1], "dtype": "float32"}, {"name": "stack13_ghost_1_prim_bn/gamma", "shape": [240], "dtype": "float32"}, {"name": "stack13_ghost_1_prim_bn/beta", "shape": [240], "dtype": "float32"}, {"name": "stack13_ghost_1_prim_bn/moving_mean", "shape": [240], "dtype": "float32"}, {"name": "stack13_ghost_1_prim_bn/moving_variance", "shape": [240], "dtype": "float32"}, {"name": "stack13_ghost_1_prim_conv/kernel", "shape": [1, 1, 80, 240], "dtype": "float32"}, {"name": "stack13_ghost_2_cheap_bn/gamma", "shape": [40], "dtype": "float32"}, {"name": "stack13_ghost_2_cheap_bn/beta", "shape": [40], "dtype": "float32"}, {"name": "stack13_ghost_2_cheap_bn/moving_mean", "shape": [40], "dtype": "float32"}, {"name": "stack13_ghost_2_cheap_bn/moving_variance", "shape": [40], "dtype": "float32"}, {"name": "stack13_ghost_2_cheap_dw_conv/depthwise_kernel", "shape": [3, 3, 40, 1], "dtype": "float32"}, {"name": "stack13_ghost_2_prim_bn/gamma", "shape": [40], "dtype": "float32"}, {"name": "stack13_ghost_2_prim_bn/beta", "shape": [40], "dtype": "float32"}, {"name": "stack13_ghost_2_prim_bn/moving_mean", "shape": [40], "dtype": "float32"}, {"name": "stack13_ghost_2_prim_bn/moving_variance", "shape": [40], "dtype": "float32"}, {"name": "stack13_ghost_2_prim_conv/kernel", "shape": [1, 1, 480, 40], "dtype": "float32"}, {"name": "stack14_ghost_1_cheap_bn/gamma", "shape": [240], "dtype": "float32"}, {"name": "stack14_ghost_1_cheap_bn/beta", "shape": [240], "dtype": "float32"}, {"name": "stack14_ghost_1_cheap_bn/moving_mean", "shape": [240], "dtype": "float32"}, {"name": "stack14_ghost_1_cheap_bn/moving_variance", "shape": [240], "dtype": "float32"}, {"name": "stack14_ghost_1_cheap_dw_conv/depthwise_kernel", "shape": [3, 3, 240, 1], "dtype": "float32"}, {"name": "stack14_ghost_1_prim_bn/gamma", "shape": [240], "dtype": "float32"}, {"name": "stack14_ghost_1_prim_bn/beta", "shape": [240], "dtype": "float32"}, {"name": "stack14_ghost_1_prim_bn/moving_mean", "shape": [240], "dtype": "float32"}, {"name": "stack14_ghost_1_prim_bn/moving_variance", "shape": [240], "dtype": "float32"}, {"name": "stack14_ghost_1_prim_conv/kernel", "shape": [1, 1, 80, 240], "dtype": "float32"}, {"name": "stack14_ghost_2_cheap_bn/gamma", "shape": [40], "dtype": "float32"}, {"name": "stack14_ghost_2_cheap_bn/beta", "shape": [40], "dtype": "float32"}, {"name": "stack14_ghost_2_cheap_bn/moving_mean", "shape": [40], "dtype": "float32"}, {"name": "stack14_ghost_2_cheap_bn/moving_variance", "shape": [40], "dtype": "float32"}, {"name": "stack14_ghost_2_cheap_dw_conv/depthwise_kernel", "shape": [3, 3, 40, 1], "dtype": "float32"}, {"name": "stack14_ghost_2_prim_bn/gamma", "shape": [40], "dtype": "float32"}, {"name": "stack14_ghost_2_prim_bn/beta", "shape": [40], "dtype": "float32"}, {"name": "stack14_ghost_2_prim_bn/moving_mean", "shape": [40], "dtype": "float32"}, {"name": "stack14_ghost_2_prim_bn/moving_variance", "shape": [40], "dtype": "float32"}, {"name": "stack14_ghost_2_prim_conv/kernel", "shape": [1, 1, 480, 40], "dtype": "float32"}, {"name": "stack14_se_1_conv/kernel", "shape": [1, 1, 480, 120], "dtype": "float32"}, {"name": "stack14_se_1_conv/bias", "shape": [120], "dtype": "float32"}, {"name": "stack14_se_2_conv/kernel", "shape": [1, 1, 120, 480], "dtype": "float32"}, {"name": "stack14_se_2_conv/bias", "shape": [480], "dtype": "float32"}, {"name": "stack15_ghost_1_cheap_bn/gamma", "shape": [240], "dtype": "float32"}, {"name": "stack15_ghost_1_cheap_bn/beta", "shape": [240], "dtype": "float32"}, {"name": "stack15_ghost_1_cheap_bn/moving_mean", "shape": [240], "dtype": "float32"}, {"name": "stack15_ghost_1_cheap_bn/moving_variance", "shape": [240], "dtype": "float32"}, {"name": "stack15_ghost_1_cheap_dw_conv/depthwise_kernel", "shape": [3, 3, 240, 1], "dtype": "float32"}, {"name": "stack15_ghost_1_prim_bn/gamma", "shape": [240], "dtype": "float32"}, {"name": "stack15_ghost_1_prim_bn/beta", "shape": [240], "dtype": "float32"}, {"name": "stack15_ghost_1_prim_bn/moving_mean", "shape": [240], "dtype": "float32"}, {"name": "stack15_ghost_1_prim_bn/moving_variance", "shape": [240], "dtype": "float32"}, {"name": "stack15_ghost_1_prim_conv/kernel", "shape": [1, 1, 80, 240], "dtype": "float32"}, {"name": "stack15_ghost_2_cheap_bn/gamma", "shape": [40], "dtype": "float32"}, {"name": "stack15_ghost_2_cheap_bn/beta", "shape": [40], "dtype": "float32"}, {"name": "stack15_ghost_2_cheap_bn/moving_mean", "shape": [40], "dtype": "float32"}, {"name": "stack15_ghost_2_cheap_bn/moving_variance", "shape": [40], "dtype": "float32"}, {"name": "stack15_ghost_2_cheap_dw_conv/depthwise_kernel", "shape": [3, 3, 40, 1], "dtype": "float32"}, {"name": "stack15_ghost_2_prim_bn/gamma", "shape": [40], "dtype": "float32"}, {"name": "stack15_ghost_2_prim_bn/beta", "shape": [40], "dtype": "float32"}, {"name": "stack15_ghost_2_prim_bn/moving_mean", "shape": [40], "dtype": "float32"}, {"name": "stack15_ghost_2_prim_bn/moving_variance", "shape": [40], "dtype": "float32"}, {"name": "stack15_ghost_2_prim_conv/kernel", "shape": [1, 1, 480, 40], "dtype": "float32"}, {"name": "stack16_ghost_1_cheap_bn/gamma", "shape": [240], "dtype": "float32"}, {"name": "stack16_ghost_1_cheap_bn/beta", "shape": [240], "dtype": "float32"}, {"name": "stack16_ghost_1_cheap_bn/moving_mean", "shape": [240], "dtype": "float32"}, {"name": "stack16_ghost_1_cheap_bn/moving_variance", "shape": [240], "dtype": "float32"}, {"name": "stack16_ghost_1_cheap_dw_conv/depthwise_kernel", "shape": [3, 3, 240, 1], "dtype": "float32"}, {"name": "stack16_ghost_1_prim_bn/gamma", "shape": [240], "dtype": "float32"}, {"name": "stack16_ghost_1_prim_bn/beta", "shape": [240], "dtype": "float32"}, {"name": "stack16_ghost_1_prim_bn/moving_mean", "shape": [240], "dtype": "float32"}, {"name": "stack16_ghost_1_prim_bn/moving_variance", "shape": [240], "dtype": "float32"}, {"name": "stack16_ghost_1_prim_conv/kernel", "shape": [1, 1, 80, 240], "dtype": "float32"}, {"name": "stack16_ghost_2_cheap_bn/gamma", "shape": [40], "dtype": "float32"}, {"name": "stack16_ghost_2_cheap_bn/beta", "shape": [40], "dtype": "float32"}, {"name": "stack16_ghost_2_cheap_bn/moving_mean", "shape": [40], "dtype": "float32"}, {"name": "stack16_ghost_2_cheap_bn/moving_variance", "shape": [40], "dtype": "float32"}, {"name": "stack16_ghost_2_cheap_dw_conv/depthwise_kernel", "shape": [3, 3, 40, 1], "dtype": "float32"}, {"name": "stack16_ghost_2_prim_bn/gamma", "shape": [40], "dtype": "float32"}, {"name": "stack16_ghost_2_prim_bn/beta", "shape": [40], "dtype": "float32"}, {"name": "stack16_ghost_2_prim_bn/moving_mean", "shape": [40], "dtype": "float32"}, {"name": "stack16_ghost_2_prim_bn/moving_variance", "shape": [40], "dtype": "float32"}, {"name": "stack16_ghost_2_prim_conv/kernel", "shape": [1, 1, 480, 40], "dtype": "float32"}, {"name": "stack16_se_1_conv/kernel", "shape": [1, 1, 480, 120], "dtype": "float32"}, {"name": "stack16_se_1_conv/bias", "shape": [120], "dtype": "float32"}, {"name": "stack16_se_2_conv/kernel", "shape": [1, 1, 120, 480], "dtype": "float32"}, {"name": "stack16_se_2_conv/bias", "shape": [480], "dtype": "float32"}, {"name": "stack1_ghost_1_cheap_bn/gamma", "shape": [4], "dtype": "float32"}, {"name": "stack1_ghost_1_cheap_bn/beta", "shape": [4], "dtype": "float32"}, {"name": "stack1_ghost_1_cheap_bn/moving_mean", "shape": [4], "dtype": "float32"}, {"name": "stack1_ghost_1_cheap_bn/moving_variance", "shape": [4], "dtype": "float32"}, {"name": "stack1_ghost_1_cheap_dw_conv/depthwise_kernel", "shape": [3, 3, 4, 1], "dtype": "float32"}, {"name": "stack1_ghost_1_prim_bn/gamma", "shape": [4], "dtype": "float32"}, {"name": "stack1_ghost_1_prim_bn/beta", "shape": [4], "dtype": "float32"}, {"name": "stack1_ghost_1_prim_bn/moving_mean", "shape": [4], "dtype": "float32"}, {"name": "stack1_ghost_1_prim_bn/moving_variance", "shape": [4], "dtype": "float32"}, {"name": "stack1_ghost_1_prim_conv/kernel", "shape": [1, 1, 8, 4], "dtype": "float32"}, {"name": "stack1_ghost_2_cheap_bn/gamma", "shape": [4], "dtype": "float32"}, {"name": "stack1_ghost_2_cheap_bn/beta", "shape": [4], "dtype": "float32"}, {"name": "stack1_ghost_2_cheap_bn/moving_mean", "shape": [4], "dtype": "float32"}, {"name": "stack1_ghost_2_cheap_bn/moving_variance", "shape": [4], "dtype": "float32"}, {"name": "stack1_ghost_2_cheap_dw_conv/depthwise_kernel", "shape": [3, 3, 4, 1], "dtype": "float32"}, {"name": "stack1_ghost_2_prim_bn/gamma", "shape": [4], "dtype": "float32"}, {"name": "stack1_ghost_2_prim_bn/beta", "shape": [4], "dtype": "float32"}, {"name": "stack1_ghost_2_prim_bn/moving_mean", "shape": [4], "dtype": "float32"}, {"name": "stack1_ghost_2_prim_bn/moving_variance", "shape": [4], "dtype": "float32"}, {"name": "stack1_ghost_2_prim_conv/kernel", "shape": [1, 1, 8, 4], "dtype": "float32"}, {"name": "stack2_down_bn/gamma", "shape": [24], "dtype": "float32"}, {"name": "stack2_down_bn/beta", "shape": [24], "dtype": "float32"}, {"name": "stack2_down_bn/moving_mean", "shape": [24], "dtype": "float32"}, {"name": "stack2_down_bn/moving_variance", "shape": [24], "dtype": "float32"}, {"name": "stack2_down_dw_conv/depthwise_kernel", "shape": [3, 3, 24, 1], "dtype": "float32"}, {"name": "stack2_ghost_1_cheap_bn/gamma", "shape": [12], "dtype": "float32"}, {"name": "stack2_ghost_1_cheap_bn/beta", "shape": [12], "dtype": "float32"}, {"name": "stack2_ghost_1_cheap_bn/moving_mean", "shape": [12], "dtype": "float32"}, {"name": "stack2_ghost_1_cheap_bn/moving_variance", "shape": [12], "dtype": "float32"}, {"name": "stack2_ghost_1_cheap_dw_conv/depthwise_kernel", "shape": [3, 3, 12, 1], "dtype": "float32"}, {"name": "stack2_ghost_1_prim_bn/gamma", "shape": [12], "dtype": "float32"}, {"name": "stack2_ghost_1_prim_bn/beta", "shape": [12], "dtype": "float32"}, {"name": "stack2_ghost_1_prim_bn/moving_mean", "shape": [12], "dtype": "float32"}, {"name": "stack2_ghost_1_prim_bn/moving_variance", "shape": [12], "dtype": "float32"}, {"name": "stack2_ghost_1_prim_conv/kernel", "shape": [1, 1, 8, 12], "dtype": "float32"}, {"name": "stack2_ghost_2_cheap_bn/gamma", "shape": [6], "dtype": "float32"}, {"name": "stack2_ghost_2_cheap_bn/beta", "shape": [6], "dtype": "float32"}, {"name": "stack2_ghost_2_cheap_bn/moving_mean", "shape": [6], "dtype": "float32"}, {"name": "stack2_ghost_2_cheap_bn/moving_variance", "shape": [6], "dtype": "float32"}, {"name": "stack2_ghost_2_cheap_dw_conv/depthwise_kernel", "shape": [3, 3, 6, 1], "dtype": "float32"}, {"name": "stack2_ghost_2_prim_bn/gamma", "shape": [6], "dtype": "float32"}, {"name": "stack2_ghost_2_prim_bn/beta", "shape": [6], "dtype": "float32"}, {"name": "stack2_ghost_2_prim_bn/moving_mean", "shape": [6], "dtype": "float32"}, {"name": "stack2_ghost_2_prim_bn/moving_variance", "shape": [6], "dtype": "float32"}, {"name": "stack2_ghost_2_prim_conv/kernel", "shape": [1, 1, 24, 6], "dtype": "float32"}, {"name": "stack2_short_1_bn/gamma", "shape": [8], "dtype": "float32"}, {"name": "stack2_short_1_bn/beta", "shape": [8], "dtype": "float32"}, {"name": "stack2_short_1_bn/moving_mean", "shape": [8], "dtype": "float32"}, {"name": "stack2_short_1_bn/moving_variance", "shape": [8], "dtype": "float32"}, {"name": "stack2_short_1_dw_conv/depthwise_kernel", "shape": [3, 3, 8, 1], "dtype": "float32"}, {"name": "stack2_short_2_bn/gamma", "shape": [12], "dtype": "float32"}, {"name": "stack2_short_2_bn/beta", "shape": [12], "dtype": "float32"}, {"name": "stack2_short_2_bn/moving_mean", "shape": [12], "dtype": "float32"}, {"name": "stack2_short_2_bn/moving_variance", "shape": [12], "dtype": "float32"}, {"name": "stack2_short_2_conv/kernel", "shape": [1, 1, 8, 12], "dtype": "float32"}, {"name": "stack3_ghost_1_cheap_bn/gamma", "shape": [18], "dtype": "float32"}, {"name": "stack3_ghost_1_cheap_bn/beta", "shape": [18], "dtype": "float32"}, {"name": "stack3_ghost_1_cheap_bn/moving_mean", "shape": [18], "dtype": "float32"}, {"name": "stack3_ghost_1_cheap_bn/moving_variance", "shape": [18], "dtype": "float32"}, {"name": "stack3_ghost_1_cheap_dw_conv/depthwise_kernel", "shape": [3, 3, 18, 1], "dtype": "float32"}, {"name": "stack3_ghost_1_prim_bn/gamma", "shape": [18], "dtype": "float32"}, {"name": "stack3_ghost_1_prim_bn/beta", "shape": [18], "dtype": "float32"}, {"name": "stack3_ghost_1_prim_bn/moving_mean", "shape": [18], "dtype": "float32"}, {"name": "stack3_ghost_1_prim_bn/moving_variance", "shape": [18], "dtype": "float32"}, {"name": "stack3_ghost_1_prim_conv/kernel", "shape": [1, 1, 12, 18], "dtype": "float32"}, {"name": "stack3_ghost_2_cheap_bn/gamma", "shape": [6], "dtype": "float32"}, {"name": "stack3_ghost_2_cheap_bn/beta", "shape": [6], "dtype": "float32"}, {"name": "stack3_ghost_2_cheap_bn/moving_mean", "shape": [6], "dtype": "float32"}, {"name": "stack3_ghost_2_cheap_bn/moving_variance", "shape": [6], "dtype": "float32"}, {"name": "stack3_ghost_2_cheap_dw_conv/depthwise_kernel", "shape": [3, 3, 6, 1], "dtype": "float32"}, {"name": "stack3_ghost_2_prim_bn/gamma", "shape": [6], "dtype": "float32"}, {"name": "stack3_ghost_2_prim_bn/beta", "shape": [6], "dtype": "float32"}, {"name": "stack3_ghost_2_prim_bn/moving_mean", "shape": [6], "dtype": "float32"}, {"name": "stack3_ghost_2_prim_bn/moving_variance", "shape": [6], "dtype": "float32"}, {"name": "stack3_ghost_2_prim_conv/kernel", "shape": [1, 1, 36, 6], "dtype": "float32"}, {"name": "stack4_down_bn/gamma", "shape": [36], "dtype": "float32"}, {"name": "stack4_down_bn/beta", "shape": [36], "dtype": "float32"}, {"name": "stack4_down_bn/moving_mean", "shape": [36], "dtype": "float32"}, {"name": "stack4_down_bn/moving_variance", "shape": [36], "dtype": "float32"}, {"name": "stack4_down_dw_conv/depthwise_kernel", "shape": [5, 5, 36, 1], "dtype": "float32"}, {"name": "stack4_ghost_1_cheap_bn/gamma", "shape": [18], "dtype": "float32"}, {"name": "stack4_ghost_1_cheap_bn/beta", "shape": [18], "dtype": "float32"}, {"name": "stack4_ghost_1_cheap_bn/moving_mean", "shape": [18], "dtype": "float32"}, {"name": "stack4_ghost_1_cheap_bn/moving_variance", "shape": [18], "dtype": "float32"}, {"name": "stack4_ghost_1_cheap_dw_conv/depthwise_kernel", "shape": [3, 3, 18, 1], "dtype": "float32"}, {"name": "stack4_ghost_1_prim_bn/gamma", "shape": [18], "dtype": "float32"}, {"name": "stack4_ghost_1_prim_bn/beta", "shape": [18], "dtype": "float32"}, {"name": "stack4_ghost_1_prim_bn/moving_mean", "shape": [18], "dtype": "float32"}, {"name": "stack4_ghost_1_prim_bn/moving_variance", "shape": [18], "dtype": "float32"}, {"name": "stack4_ghost_1_prim_conv/kernel", "shape": [1, 1, 12, 18], "dtype": "float32"}, {"name": "stack4_ghost_2_cheap_bn/gamma", "shape": [10], "dtype": "float32"}, {"name": "stack4_ghost_2_cheap_bn/beta", "shape": [10], "dtype": "float32"}, {"name": "stack4_ghost_2_cheap_bn/moving_mean", "shape": [10], "dtype": "float32"}, {"name": "stack4_ghost_2_cheap_bn/moving_variance", "shape": [10], "dtype": "float32"}, {"name": "stack4_ghost_2_cheap_dw_conv/depthwise_kernel", "shape": [3, 3, 10, 1], "dtype": "float32"}, {"name": "stack4_ghost_2_prim_bn/gamma", "shape": [10], "dtype": "float32"}, {"name": "stack4_ghost_2_prim_bn/beta", "shape": [10], "dtype": "float32"}, {"name": "stack4_ghost_2_prim_bn/moving_mean", "shape": [10], "dtype": "float32"}, {"name": "stack4_ghost_2_prim_bn/moving_variance", "shape": [10], "dtype": "float32"}, {"name": "stack4_ghost_2_prim_conv/kernel", "shape": [1, 1, 36, 10], "dtype": "float32"}, {"name": "stack4_se_1_conv/kernel", "shape": [1, 1, 36, 12], "dtype": "float32"}, {"name": "stack4_se_1_conv/bias", "shape": [12], "dtype": "float32"}, {"name": "stack4_se_2_conv/kernel", "shape": [1, 1, 12, 36], "dtype": "float32"}, {"name": "stack4_se_2_conv/bias", "shape": [36], "dtype": "float32"}, {"name": "stack4_short_1_bn/gamma", "shape": [12], "dtype": "float32"}, {"name": "stack4_short_1_bn/beta", "shape": [12], "dtype": "float32"}, {"name": "stack4_short_1_bn/moving_mean", "shape": [12], "dtype": "float32"}, {"name": "stack4_short_1_bn/moving_variance", "shape": [12], "dtype": "float32"}, {"name": "stack4_short_1_dw_conv/depthwise_kernel", "shape": [5, 5, 12, 1], "dtype": "float32"}, {"name": "stack4_short_2_bn/gamma", "shape": [20], "dtype": "float32"}, {"name": "stack4_short_2_bn/beta", "shape": [20], "dtype": "float32"}, {"name": "stack4_short_2_bn/moving_mean", "shape": [20], "dtype": "float32"}, {"name": "stack4_short_2_bn/moving_variance", "shape": [20], "dtype": "float32"}, {"name": "stack4_short_2_conv/kernel", "shape": [1, 1, 12, 20], "dtype": "float32"}, {"name": "stack5_ghost_1_cheap_bn/gamma", "shape": [30], "dtype": "float32"}, {"name": "stack5_ghost_1_cheap_bn/beta", "shape": [30], "dtype": "float32"}, {"name": "stack5_ghost_1_cheap_bn/moving_mean", "shape": [30], "dtype": "float32"}, {"name": "stack5_ghost_1_cheap_bn/moving_variance", "shape": [30], "dtype": "float32"}, {"name": "stack5_ghost_1_cheap_dw_conv/depthwise_kernel", "shape": [3, 3, 30, 1], "dtype": "float32"}, {"name": "stack5_ghost_1_prim_bn/gamma", "shape": [30], "dtype": "float32"}, {"name": "stack5_ghost_1_prim_bn/beta", "shape": [30], "dtype": "float32"}, {"name": "stack5_ghost_1_prim_bn/moving_mean", "shape": [30], "dtype": "float32"}, {"name": "stack5_ghost_1_prim_bn/moving_variance", "shape": [30], "dtype": "float32"}, {"name": "stack5_ghost_1_prim_conv/kernel", "shape": [1, 1, 20, 30], "dtype": "float32"}, {"name": "stack5_ghost_2_cheap_bn/gamma", "shape": [10], "dtype": "float32"}, {"name": "stack5_ghost_2_cheap_bn/beta", "shape": [10], "dtype": "float32"}, {"name": "stack5_ghost_2_cheap_bn/moving_mean", "shape": [10], "dtype": "float32"}, {"name": "stack5_ghost_2_cheap_bn/moving_variance", "shape": [10], "dtype": "float32"}, {"name": "stack5_ghost_2_cheap_dw_conv/depthwise_kernel", "shape": [3, 3, 10, 1], "dtype": "float32"}, {"name": "stack5_ghost_2_prim_bn/gamma", "shape": [10], "dtype": "float32"}, {"name": "stack5_ghost_2_prim_bn/beta", "shape": [10], "dtype": "float32"}, {"name": "stack5_ghost_2_prim_bn/moving_mean", "shape": [10], "dtype": "float32"}, {"name": "stack5_ghost_2_prim_bn/moving_variance", "shape": [10], "dtype": "float32"}, {"name": "stack5_ghost_2_prim_conv/kernel", "shape": [1, 1, 60, 10], "dtype": "float32"}, {"name": "stack5_se_1_conv/kernel", "shape": [1, 1, 60, 16], "dtype": "float32"}, {"name": "stack5_se_1_conv/bias", "shape": [16], "dtype": "float32"}, {"name": "stack5_se_2_conv/kernel", "shape": [1, 1, 16, 60], "dtype": "float32"}, {"name": "stack5_se_2_conv/bias", "shape": [60], "dtype": "float32"}, {"name": "stack6_down_bn/gamma", "shape": [120], "dtype": "float32"}, {"name": "stack6_down_bn/beta", "shape": [120], "dtype": "float32"}, {"name": "stack6_down_bn/moving_mean", "shape": [120], "dtype": "float32"}, {"name": "stack6_down_bn/moving_variance", "shape": [120], "dtype": "float32"}, {"name": "stack6_down_dw_conv/depthwise_kernel", "shape": [3, 3, 120, 1], "dtype": "float32"}, {"name": "stack6_ghost_1_cheap_bn/gamma", "shape": [60], "dtype": "float32"}, {"name": "stack6_ghost_1_cheap_bn/beta", "shape": [60], "dtype": "float32"}, {"name": "stack6_ghost_1_cheap_bn/moving_mean", "shape": [60], "dtype": "float32"}, {"name": "stack6_ghost_1_cheap_bn/moving_variance", "shape": [60], "dtype": "float32"}, {"name": "stack6_ghost_1_cheap_dw_conv/depthwise_kernel", "shape": [3, 3, 60, 1], "dtype": "float32"}, {"name": "stack6_ghost_1_prim_bn/gamma", "shape": [60], "dtype": "float32"}, {"name": "stack6_ghost_1_prim_bn/beta", "shape": [60], "dtype": "float32"}, {"name": "stack6_ghost_1_prim_bn/moving_mean", "shape": [60], "dtype": "float32"}, {"name": "stack6_ghost_1_prim_bn/moving_variance", "shape": [60], "dtype": "float32"}, {"name": "stack6_ghost_1_prim_conv/kernel", "shape": [1, 1, 20, 60], "dtype": "float32"}, {"name": "stack6_ghost_2_cheap_bn/gamma", "shape": [20], "dtype": "float32"}, {"name": "stack6_ghost_2_cheap_bn/beta", "shape": [20], "dtype": "float32"}, {"name": "stack6_ghost_2_cheap_bn/moving_mean", "shape": [20], "dtype": "float32"}, {"name": "stack6_ghost_2_cheap_bn/moving_variance", "shape": [20], "dtype": "float32"}, {"name": "stack6_ghost_2_cheap_dw_conv/depthwise_kernel", "shape": [3, 3, 20, 1], "dtype": "float32"}, {"name": "stack6_ghost_2_prim_bn/gamma", "shape": [20], "dtype": "float32"}, {"name": "stack6_ghost_2_prim_bn/beta", "shape": [20], "dtype": "float32"}, {"name": "stack6_ghost_2_prim_bn/moving_mean", "shape": [20], "dtype": "float32"}, {"name": "stack6_ghost_2_prim_bn/moving_variance", "shape": [20], "dtype": "float32"}, {"name": "stack6_ghost_2_prim_conv/kernel", "shape": [1, 1, 120, 20], "dtype": "float32"}, {"name": "stack6_short_1_bn/gamma", "shape": [20], "dtype": "float32"}, {"name": "stack6_short_1_bn/beta", "shape": [20], "dtype": "float32"}, {"name": "stack6_short_1_bn/moving_mean", "shape": [20], "dtype": "float32"}, {"name": "stack6_short_1_bn/moving_variance", "shape": [20], "dtype": "float32"}, {"name": "stack6_short_1_dw_conv/depthwise_kernel", "shape": [3, 3, 20, 1], "dtype": "float32"}, {"name": "stack6_short_2_bn/gamma", "shape": [40], "dtype": "float32"}, {"name": "stack6_short_2_bn/beta", "shape": [40], "dtype": "float32"}, {"name": "stack6_short_2_bn/moving_mean", "shape": [40], "dtype": "float32"}, {"name": "stack6_short_2_bn/moving_variance", "shape": [40], "dtype": "float32"}, {"name": "stack6_short_2_conv/kernel", "shape": [1, 1, 20, 40], "dtype": "float32"}, {"name": "stack7_ghost_1_cheap_bn/gamma", "shape": [50], "dtype": "float32"}, {"name": "stack7_ghost_1_cheap_bn/beta", "shape": [50], "dtype": "float32"}, {"name": "stack7_ghost_1_cheap_bn/moving_mean", "shape": [50], "dtype": "float32"}, {"name": "stack7_ghost_1_cheap_bn/moving_variance", "shape": [50], "dtype": "float32"}, {"name": "stack7_ghost_1_cheap_dw_conv/depthwise_kernel", "shape": [3, 3, 50, 1], "dtype": "float32"}, {"name": "stack7_ghost_1_prim_bn/gamma", "shape": [50], "dtype": "float32"}, {"name": "stack7_ghost_1_prim_bn/beta", "shape": [50], "dtype": "float32"}, {"name": "stack7_ghost_1_prim_bn/moving_mean", "shape": [50], "dtype": "float32"}, {"name": "stack7_ghost_1_prim_bn/moving_variance", "shape": [50], "dtype": "float32"}, {"name": "stack7_ghost_1_prim_conv/kernel", "shape": [1, 1, 40, 50], "dtype": "float32"}, {"name": "stack7_ghost_2_cheap_bn/gamma", "shape": [20], "dtype": "float32"}, {"name": "stack7_ghost_2_cheap_bn/beta", "shape": [20], "dtype": "float32"}, {"name": "stack7_ghost_2_cheap_bn/moving_mean", "shape": [20], "dtype": "float32"}, {"name": "stack7_ghost_2_cheap_bn/moving_variance", "shape": [20], "dtype": "float32"}, {"name": "stack7_ghost_2_cheap_dw_conv/depthwise_kernel", "shape": [3, 3, 20, 1], "dtype": "float32"}, {"name": "stack7_ghost_2_prim_bn/gamma", "shape": [20], "dtype": "float32"}, {"name": "stack7_ghost_2_prim_bn/beta", "shape": [20], "dtype": "float32"}, {"name": "stack7_ghost_2_prim_bn/moving_mean", "shape": [20], "dtype": "float32"}, {"name": "stack7_ghost_2_prim_bn/moving_variance", "shape": [20], "dtype": "float32"}, {"name": "stack7_ghost_2_prim_conv/kernel", "shape": [1, 1, 100, 20], "dtype": "float32"}, {"name": "stack8_ghost_1_cheap_bn/gamma", "shape": [46], "dtype": "float32"}, {"name": "stack8_ghost_1_cheap_bn/beta", "shape": [46], "dtype": "float32"}, {"name": "stack8_ghost_1_cheap_bn/moving_mean", "shape": [46], "dtype": "float32"}, {"name": "stack8_ghost_1_cheap_bn/moving_variance", "shape": [46], "dtype": "float32"}, {"name": "stack8_ghost_1_cheap_dw_conv/depthwise_kernel", "shape": [3, 3, 46, 1], "dtype": "float32"}, {"name": "stack8_ghost_1_prim_bn/gamma", "shape": [46], "dtype": "float32"}, {"name": "stack8_ghost_1_prim_bn/beta", "shape": [46], "dtype": "float32"}, {"name": "stack8_ghost_1_prim_bn/moving_mean", "shape": [46], "dtype": "float32"}, {"name": "stack8_ghost_1_prim_bn/moving_variance", "shape": [46], "dtype": "float32"}, {"name": "stack8_ghost_1_prim_conv/kernel", "shape": [1, 1, 40, 46], "dtype": "float32"}, {"name": "stack8_ghost_2_cheap_bn/gamma", "shape": [20], "dtype": "float32"}, {"name": "stack8_ghost_2_cheap_bn/beta", "shape": [20], "dtype": "float32"}, {"name": "stack8_ghost_2_cheap_bn/moving_mean", "shape": [20], "dtype": "float32"}, {"name": "stack8_ghost_2_cheap_bn/moving_variance", "shape": [20], "dtype": "float32"}, {"name": "stack8_ghost_2_cheap_dw_conv/depthwise_kernel", "shape": [3, 3, 20, 1], "dtype": "float32"}, {"name": "stack8_ghost_2_prim_bn/gamma", "shape": [20], "dtype": "float32"}, {"name": "stack8_ghost_2_prim_bn/beta", "shape": [20], "dtype": "float32"}, {"name": "stack8_ghost_2_prim_bn/moving_mean", "shape": [20], "dtype": "float32"}, {"name": "stack8_ghost_2_prim_bn/moving_variance", "shape": [20], "dtype": "float32"}, {"name": "stack8_ghost_2_prim_conv/kernel", "shape": [1, 1, 92, 20], "dtype": "float32"}, {"name": "stack9_ghost_1_cheap_bn/gamma", "shape": [46], "dtype": "float32"}, {"name": "stack9_ghost_1_cheap_bn/beta", "shape": [46], "dtype": "float32"}, {"name": "stack9_ghost_1_cheap_bn/moving_mean", "shape": [46], "dtype": "float32"}, {"name": "stack9_ghost_1_cheap_bn/moving_variance", "shape": [46], "dtype": "float32"}, {"name": "stack9_ghost_1_cheap_dw_conv/depthwise_kernel", "shape": [3, 3, 46, 1], "dtype": "float32"}, {"name": "stack9_ghost_1_prim_bn/gamma", "shape": [46], "dtype": "float32"}, {"name": "stack9_ghost_1_prim_bn/beta", "shape": [46], "dtype": "float32"}, {"name": "stack9_ghost_1_prim_bn/moving_mean", "shape": [46], "dtype": "float32"}, {"name": "stack9_ghost_1_prim_bn/moving_variance", "shape": [46], "dtype": "float32"}, {"name": "stack9_ghost_1_prim_conv/kernel", "shape": [1, 1, 40, 46], "dtype": "float32"}, {"name": "stack9_ghost_2_cheap_bn/gamma", "shape": [20], "dtype": "float32"}, {"name": "stack9_ghost_2_cheap_bn/beta", "shape": [20], "dtype": "float32"}, {"name": "stack9_ghost_2_cheap_bn/moving_mean", "shape": [20], "dtype": "float32"}, {"name": "stack9_ghost_2_cheap_bn/moving_variance", "shape": [20], "dtype": "float32"}, {"name": "stack9_ghost_2_cheap_dw_conv/depthwise_kernel", "shape": [3, 3, 20, 1], "dtype": "float32"}, {"name": "stack9_ghost_2_prim_bn/gamma", "shape": [20], "dtype": "float32"}, {"name": "stack9_ghost_2_prim_bn/beta", "shape": [20], "dtype": "float32"}, {"name": "stack9_ghost_2_prim_bn/moving_mean", "shape": [20], "dtype": "float32"}, {"name": "stack9_ghost_2_prim_bn/moving_variance", "shape": [20], "dtype": "float32"}, {"name": "stack9_ghost_2_prim_conv/kernel", "shape": [1, 1, 92, 20], "dtype": "float32"}, {"name": "stem_bn/gamma", "shape": [8], "dtype": "float32"}, {"name": "stem_bn/beta", "shape": [8], "dtype": "float32"}, {"name": "stem_bn/moving_mean", "shape": [8], "dtype": "float32"}, {"name": "stem_bn/moving_variance", "shape": [8], "dtype": "float32"}, {"name": "stem_conv/kernel", "shape": [3, 3, 3, 8], "dtype": "float32"}]}]}